gnn/trained_model/attrs7.pth (torch, 974606 bytes, 87 tensors)

module.embedding.0.weight f4 [64, 2]
0	0xbf05efb5	-0.5231889
1	0x3f9d4079	1.22853
2	0x3f014a58	0.50504065
3	0xbff1c3c7	-1.8887872
4	0xbef2bf0a	-0.47411376
5	0xbf6bd4f5	-0.9212182
6	0x3f12fa9a	0.5741364
7	0xbf9aaeb8	-1.208457
8	0x3ee4bc25	0.44674793
9	0xbfbf0034	-1.4921937
10	0x3eef5b79	0.46749476
11	0xbf4865fd	-0.7828062
12	0x3f22cd0f	0.63594145
13	0xbee5f55f	-0.44913766
14	0xbf23df62	-0.6401273
15	0xbf3887f2	-0.72082436
16	0x3ec49605	0.38395706
17	0x3fc92145	1.5713278
18	0x3f6cb361	0.9246121
19	0xbf5820af	-0.8442487
20	0x3f403a95	0.7508939
21	0x3fb86e82	1.4408724
22	0xbeea1f57	-0.45727035
23	0x3fc81fc9	1.56347
24	0xbf010b71	-0.50408083
25	0x3fcfa29e	1.6221502
26	0x3ddbd934	0.107347876
27	0xbfce6104	-1.6123357
28	0xbe0e0165	-0.1386772
29	0x3f120efe	0.57054126
30	0xbf49f5d1	-0.7889071
31	0x3f1b8d5d	0.6076258
32	0x3f35a326	0.7095207
33	0x3f82b32c	1.0210929
34	0xbf14c0c3	-0.5810663
35	0x3d83f822	0.06443812
36	0x3dcebd37	0.100946836
37	0xc00ec04f	-2.2304876
38	0xbf37bb3f	-0.7177009
39	0xbf2ab83e	-0.6668738
40	0x3e8b4de0	0.2720785
41	0xbfb51ec1	-1.415001
42	0x3e9f893b	0.31159386
43	0x3facce40	1.3500443
44	0xbf11aef3	-0.56907576
45	0xbf942fd3	-1.1577095
46	0xbf5e25c2	-0.86776364
47	0x3f2ce336	0.67534196
48	0xbf21cfc8	-0.63207674
49	0x3f9ff639	1.2497016
50	0x3f489446	0.7835125
51	0x3f4cadc1	0.7995263
52	0x3ee441aa	0.44581348
53	0x3fc62ba4	1.5482068
54	0xbf2102c6	-0.62894857
55	0x3d91edc1	0.07125426
56	0xbf036bcc	-0.5133636
57	0x3e88794b	0.2665504
58	0x3ebbe965	0.36701503
59	0x3fbb0eb5	1.4613863
60	0x3f189810	0.5960703
61	0x3e797221	0.24359943
62	0xbf20a4cc	-0.6275146
63	0xbfab7d9b	-1.3397707
64	0xbf21b880	-0.6317215
65	0x3f91c9a2	1.1389658
66	0xbe270860	-0.16311789
67	0x3fcce9af	1.6008815
68	0xbf4772fe	-0.7790984
69	0x3f9d1f4b	1.2275175
70	0x3f2d12ef	0.67607015
71	0xbfb6f0ae	-1.42922
72	0xbf26b72b	-0.6512324
73	0x3fca1256	1.5786846
74	0xbf4cab59	-0.79948956
75	0x3f666b98	0.90007925
76	0x3f3fbf73	0.74901503
77	0x3ed8cdf2	0.42344624
78	0xbbd12dd0	-0.006383635
79	0xbfbd4d5e	-1.4789236
80	0xbe805360	-0.2506361
81	0x3fdf62da	1.7452042
82	0xbf54f15b	-0.8318078
83	0x3f4c5470	0.7981634
84	0xbf341bfd	-0.70355207
85	0xbfa24810	-1.2678242
86	0x3f54ebde	0.83172405
87	0xbe5994ab	-0.21248119
88	0x3f043add	0.5165232
89	0xbf39f473	-0.72638625
90	0x3f2497cd	0.6429413
91	0x3fbe9e1d	1.4892002
92	0xbf114a78	-0.56754255
93	0x3fc76b48	1.5579615
94	0x3e39f40e	0.18159506
95	0x3fc1f790	1.5153675
96	0x3e7e974e	0.24862406
97	0xbfac6f18	-1.3471403
98	0xbf2fdbd7	-0.68694824
99	0xbfc3dc0f	-1.5301532
100	0xbe9a5423	-0.30142316
101	0xbe9dd178	-0.30823874
102	0x3e671da8	0.22569907
103	0x3fdebf8f	1.7402209
104	0xbf769bc7	-0.9633145
105	0x3e4f2bf8	0.20231616
106	0x3ef40004	0.47656262
107	0x3fc5ba0d	1.5447403
108	0x3eaaa32b	0.33327612
109	0x3f51de26	0.81979597
110	0x3ebd2e6d	0.36949483
111	0xbf52469b	-0.82138985
112	0xbf1d475e	-0.6143702
113	0xbfb11391	-1.3834096
114	0x3e50a4b7	0.20375334
115	0x3fda09c2	1.7034228
116	0x3f63073e	0.88682926
117	0xbfb98ecf	-1.4496707
118	0x3d4323dd	0.047641624
119	0xbfe2c932	-1.771765
120	0xbeaef219	-0.3416908
121	0xbfe15cd4	-1.7606454
122	0x3ed502ee	0.41603798
123	0x3f14f4d1	0.5818606
124	0x3f63d74a	0.8900038
125	0xbf769af0	-0.96330166
126	0x3f29a5ee	0.66268814
127	0x3f1172c2	0.5681573

module.embedding.0.bias f4 [64]
0	0x3e9d1466	0.30679625
1	0xbed1133f	-0.40834996
2	0x3ef75684	0.48308194
3	0x3e5ec0ca	0.2175323
4	0x3e3f3788	0.18673527
5	0xbe8ea143	-0.27857408
6	0xbe23c197	-0.15991817
7	0x3f146834	0.579715
8	0x3df96a95	0.12178532
9	0xbd56b7a7	-0.05242124
10	0x3e0d93ee	0.13825962
11	0xbeb9f18f	-0.36317107
12	0x3e71a217	0.23596989
13	0x3ec27be0	0.37985134
14	0xbe70bf38	-0.23510444
15	0x3d8b0863	0.06788709
16	0x3ed3cdd2	0.41367966
17	0x3eef5968	0.467479
18	0xbd4146b1	-0.047186557
19	0xbe6e80b5	-0.23291285
20	0x3e9881b2	0.2978645
21	0xbf025f78	-0.50926924
22	0x3e821fa9	0.2541478
23	0x3f1329d9	0.5748573
24	0x3e0a9b4f	0.13535808
25	0x3e4cc0f4	0.19995481
26	0x3d85c4ea	0.06531699
27	0xbed9377a	-0.42425138
28	0xbdc94d66	-0.09829216
29	0x3f125c8c	0.57172465
30	0x3f0f9754	0.56090283
31	0x3df72e3c	0.120693654
32	0xbeb137ea	-0.34612972
33	0xbe924aca	-0.28572685
34	0x3e95d706	0.29265612
35	0x3ca66f33	0.020316696
36	0x3efe6a2d	0.4969038
37	0x3c809f18	0.015700862
38	0xbec72ce3	-0.38901433
39	0x3c99a778	0.018756613
40	0x3d005df8	0.031339616
41	0xbf22ce40	-0.6359596
42	0x3ec32825	0.38116565
43	0x3d94d325	0.07266835
44	0x3f114f15	0.56761295
45	0xbda1bd65	-0.07897452
46	0xbdc53010	-0.09628308
47	0x3dc7ec34	0.09761849
48	0x3dbc4805	0.09193424
49	0xbec20d00	-0.37900543
50	0xbe47632f	-0.1947143
51	0xbd9b40b1	-0.07580698
52	0xbeff9a71	-0.49922517
53	0x3ea7f500	0.32804108
54	0x3d979181	0.074007995
55	0xbcf87a16	-0.030331653
56	0x3e8c90ad	0.2745413
57	0xbefd136e	-0.49428886
58	0x3d631215	0.055437166
59	0x3c91c3e4	0.017793603
60	0x3ec803e6	0.39065474
61	0xbe9686df	-0.29399773
62	0x3c379024	0.011203799
63	0xbdbd84fb	-0.0925388

module.graph_layers.0.attention_aggr.gate_nn.0.weight f4 [64, 64]
0	0xbdee9781	-0.11649991
1	0x3d50f5e8	0.051015764
2	0xbcfbcee8	-0.030738309
3	0xbdcfa112	-0.101381436
4	0xbf0535a7	-0.5203499
5	0x3e8551f6	0.26039094
6	0xbeadf022	-0.3397227
7	0xbdd172d4	-0.1022698
8	0x3d07ca85	0.033152122
9	0xbdd2dddb	-0.10296222
10	0x3de7689e	0.11299251
11	0x3e70f6d9	0.23531665
12	0x3edeef82	0.43542105
13	0xbe9d902c	-0.30774057
14	0x3eb926fa	0.3616255
15	0xbf2ae742	-0.6675912
16	0xbd80a6ee	-0.06281839
17	0x3e9f187b	0.31073365
18	0xbd640315	-0.055667
19	0x3eeeddad	0.466535
20	0x3e5e1c61	0.21690513
21	0xbc81d6a2	-0.015849415
22	0x3c05d91e	0.008169441
23	0xbd4760ac	-0.048676178
24	0x3d94fb00	0.07274437
25	0xbd0da973	-0.034585427
26	0x3e5c9e3f	0.21544741
27	0x3dd79fe1	0.10528541
28	0xbc3edb5a	-0.011648977
29	0xbda37a73	-0.0798234
30	0xbd45a62e	-0.048254184
31	0x3d023899	0.031792257
32	0xbe8ffe6d	-0.281238
33	0xbd89c70b	-0.067274176
34	0xbe118259	-0.1420988
35	0x3e6844f8	0.2268256
36	0xbda29bb6	-0.07939856
37	0xbe55d59a	-0.20882264
38	0x3eb73c5d	0.3578824
39	0x3cab0bcc	0.020879649
40	0xbce69d25	-0.028151104
41	0x3d9b1200	0.075717926
42	0x3b549572	0.003243771
43	0xbd272db5	-0.040815074
44	0xbe105f13	-0.14098768
45	0xbe93d1b4	-0.28870928
46	0xbd16171a	-0.036643125
47	0x3dd64c38	0.10463756
48	0xbe47a50e	-0.19496557
49	0xbdccfc14	-0.100090176
50	0x3eef33eb	0.46719298
51	0x3dc156d7	0.094403915
52	0xbdf89a7d	-0.12138841
53	0xbce3b106	-0.027794372
54	0x3de78e57	0.11306446
55	0xbe646054	-0.22302371
56	0x3d885d9b	0.06658479
57	0xbecd9b49	-0.40157536
58	0x3dc620ac	0.096742004
59	0x3e4f8e1b	0.20269053
60	0xbd260ed1	-0.040541474
61	0xbe2bce20	-0.16777849
62	0xbdb98923	-0.0905936
63	0x3c961661	0.018321218
64	0x3d91c865	0.071183
65	0xbd9d6364	-0.07684973
66	0x3cb351b7	0.02188955
67	0x3de28ba7	0.11061793
68	0xbdacf858	-0.08445805
69	0x3c0be69a	0.008538866
70	0xbdfddf9d	-0.123961665
71	0xbdea6e41	-0.114468105
72	0xbc17aa90	-0.009256974
73	0x3ce6f936	0.028195005
74	0xbe8d2b49	-0.27572086
75	0xbc18f4f8	-0.009335749
76	0xbd9d6a6a	-0.076863125
77	0x391f7278	0.00015206065
78	0x3d928eec	0.071561664
79	0x3b5d5570	0.0033772849
80	0x3e384e6a	0.17998663
81	0x3daa3331	0.08310545
82	0x3e1d2bd5	0.15348752
83	0x3d42150d	0.047383357
84	0xbe8460e9	-0.25855187
85	0x3e5a891c	0.21341366
86	0x3b960ce9	0.0045791757
87	0xbdb55cd8	-0.08855599
88	0xbd998169	-0.07495386
89	0xbe8c98d7	-0.27460358
90	0x3e84a45c	0.25906646
91	0xbe38dfac	-0.18054074
92	0x3c2301b7	0.009949139
93	0xbe4158fc	-0.18881601
94	0x3e0f3d66	0.13988265
95	0xbdaa2c56	-0.08309238
96	0x3d0570e6	0.03257837
97	0xbdb8dfc9	-0.09027059
98	0xbd6e9fb8	-0.05825779
99	0xbdfc05b4	-0.12305775
100	0x3dd11f1e	0.10211013
101	0x3dd9fca9	0.10643894
102	0xbe694546	-0.22780332
103	0x3cba8978	0.022770628
104	0x3e56de38	0.20983207
105	0x3e0bc1fa	0.13648215
106	0xba804561	-0.0009786302
107	0xbdcb0321	-0.09912706
108	0xbcb15802	-0.02164841
109	0x3d24dac1	0.040247682
110	0x3e690857	0.22757088
111	0xbe4fe3bb	-0.20301716
112	0xbee35fa5	-0.44408908
113	0x3c87f45f	0.016596017
114	0x3dcd1cbe	0.10015248
115	0xbda874f2	-0.082254305
116	0x3d872292	0.06598391
117	0xbe3a8cda	-0.18217793
118	0xbda32343	-0.0796571
119	0xbd5796b1	-0.052633945
120	0xbd80e803	-0.06294253
121	0xbc07f26a	-0.008297542
122	0x3b491773	0.0030684143
123	0x3d0b9ddc	0.034086093
124	0xbcd6fc9a	-0.026243497
125	0x3d154e90	0.036451876
126	0x3d2dcb8f	0.042430457
127	0x3c353273	0.011059391
128	0x3b7e56ff	0.0038809178
129	0x3e0bd4d9	0.13655414
130	0xbe27533b	-0.16340344
131	0xbe669d8e	-0.2252104
132	0x3e8aea2e	0.2713179
133	0xbe5ceb53	-0.21574144
134	0x3eb813ff	0.35952756
135	0x3dc5f748	0.09666306
136	0x3e5ad1ed	0.21369143
137	0xbdaca604	-0.084301025
138	0x3e42edb8	0.19035995
139	0x3e59eef6	0.21282563
140	0xbd993359	-0.07480497
141	0xbe5560c0	-0.20837688
142	0xbe297960	-0.16550207
143	0xbe02302c	-0.12713689
144	0xbcc2eca6	-0.023794483
145	0x3eb8e1f6	0.36109895
146	0xbe5d5409	-0.21614088
147	0xbeb83865	-0.35980526
148	0x3cc5725e	0.024102386
149	0x3e74330b	0.23847596
150	0x3e7b5c7e	0.24547002
151	0x3d6512fb	0.055926304
152	0x3da553bd	0.080726124
153	0xbd4a286f	-0.049354967
154	0x3cdca40b	0.02693369
155	0x3e4a2c08	0.19743359
156	0x3e6c0f62	0.23052743
157	0xbd3c1678	-0.045919865
158	0xbe43e024	-0.19128472
159	0x3ccace1d	0.024756486
160	0xbe60772a	-0.21920457
161	0xbe673ce9	-0.22581829
162	0xbe6d4fbf	-0.23174952
163	0xbe3490ef	-0.17633413
164	0xbcdc4922	-0.026890341
165	0xbc1bf445	-0.009518688
166	0x3ea6afd7	0.3255603
167	0xbe9b985c	-0.30389678
168	0x3d3a4b1c	0.045481786
169	0xbe3b8370	-0.18311858
170	0xbddfeb5c	-0.10933563
171	0xbe2d32e9	-0.16913952
172	0x3e6d5c6b	0.23179786
173	0xbe797c6e	-0.24363872
174	0xbd59d315	-0.05317982
175	0x3dcf6956	0.10127513
176	0xbba11699	-0.004916024
177	0xbd3edb6d	-0.04659598
178	0x3dcd14cb	0.100137316
179	0x3dd6246b	0.10456165
180	0xbe262482	-0.16224864
181	0x3d87f473	0.06638422
182	0xbeadb8e5	-0.33930126
183	0xbcb3d1ab	-0.021950563
184	0x3e6ba63f	0.23012637
185	0xbec36778	-0.38164878
186	0x3ce608ef	0.028080432
187	0xbe379cc3	-0.17930894
188	0x39a3609f	0.0003116177
189	0xbdf9153e	-0.12162255
190	0xbdab8d7e	-0.08376597
191	0x3d3d85c6	0.046270154
192	0x3e154aa4	0.14579254
193	0xbd9d2a52	-0.076740876
194	0xbf13b097	-0.5769133
195	0xbdba6794	-0.09101787
196	0x3ee18ec2	0.44054228
197	0xbd771738	-0.060324878
198	0x3e37af09	0.17937864
199	0x3ef4f066	0.4783966
200	0xbcbe35c4	-0.023218997
201	0xbe5161a9	-0.2044741
202	0x3c2b9887	0.010473377
203	0x3dccc326	0.09998159
204	0xbe0e0410	-0.13868737
205	0xbe20d672	-0.15706804
206	0xbea80b82	-0.3282128
207	0xbdd049de	-0.10170339
208	0x3d7b957b	0.061421853
209	0xbd258ffb	-0.040420514
210	0x3e29c2b7	0.16578184
211	0xbee7c8d1	-0.45270398
212	0xbdebb728	-0.11509544
213	0xbd424ae5	-0.047434706
214	0x3a273642	0.00063786295
215	0x3d5f16d1	0.05446512
216	0x3cbd66b5	0.023120264
217	0xbd114b3c	-0.03547214
218	0x3f03a8b9	0.51429325
219	0xbe30a511	-0.17250468
220	0x3e3b9f36	0.18322453
221	0xbda473c9	-0.08029897
222	0xbeaca9b1	-0.33723214
223	0x3d011328	0.03151241
224	0x3dff8fc6	0.124785945
225	0xbdb648f8	-0.089006364
226	0x3ca8b7e8	0.020595506
227	0x3c6c3cd2	0.014418798
228	0x3e343620	0.17598772
229	0xbdbf8298	-0.09351081
230	0xbd618c9b	-0.055065732
231	0xbeea69b7	-0.4578378
232	0x3c0aec03	0.008479121
233	0x3cb1dce1	0.021711769
234	0xbe35c172	-0.17749575
235	0xbe8121f6	-0.25221223
236	0xbcdfcc7d	-0.027319187
237	0xbdb1f3db	-0.0868909
238	0x3a986b09	0.0011628579
239	0xbc546a35	-0.012964775
240	0xbee44cb8	-0.44589782
241	0xbce818e7	-0.028332187
242	0x3de9f6ab	0.11424001
243	0xbb316a3f	-0.0027071384
244	0xbeeff68e	-0.46867794
245	0x3ceec25f	0.029145418
246	0xbe70406e	-0.23462078
247	0xbe5335e7	-0.20626031
248	0x3cb06e50	0.021536976
249	0xbda40242	-0.08008243
250	0x3e5e6b69	0.21720661
251	0x3d8a1258	0.0674178
252	0x3bd20f59	0.006410521
253	0xbde11663	-0.10990598
254	0xbd73fbc8	-0.05956629
255	0x3e6ad6af	0.22933458

module.graph_layers.0.attention_aggr.gate_nn.0.bias f4 [64]
0	0xbd95f461	-0.07322002
1	0x3db8fcd9	0.09032602
2	0x3dcacd12	0.09902395
3	0x3d77dd97	0.06051406
4	0x3da564a1	0.08075834
5	0x3bb8ab94	0.005635688
6	0x3c81e1db	0.015854767
7	0x3a013cd5	0.0004930024
8	0xbcf66689	-0.03007819
9	0x3dba8189	0.09106738
10	0xbd73d43b	-0.05952857
11	0x3d8007e2	0.062515035
12	0xbd435da8	-0.04769674
13	0x3da37bb2	0.079825774
14	0x3d8c4639	0.068493314
15	0xbdf29109	-0.118440695
16	0x3c9ab048	0.018882886
17	0xbd5d5664	-0.054037467
18	0x3d6a3d13	0.05718715
19	0x3df5daea	0.12004645
20	0xbd468497	-0.04846629
21	0xbcd16dc0	-0.025565028
22	0xbd1a74e6	-0.03770914
23	0xbdeb2a80	-0.114827156
24	0xbc23ba02	-0.009993078
25	0x3d811344	0.06302503
26	0xbd0a7a9b	-0.033808332
27	0x3d374d35	0.044751365
28	0xbd968f52	-0.07351555
29	0x3dad453a	0.084604695
30	0x3d8017b1	0.06254519
31	0x3d7fadbe	0.062421553
32	0xbd955283	-0.072911285
33	0x3dd13fb3	0.10217228
34	0xbcb5a2cf	-0.02217236
35	0x3dedf102	0.11618234
36	0xbdeac51c	-0.11463377
37	0xbc9c7227	-0.0190974
38	0x3dd332cf	0.10312425
39	0x3c51bd47	0.012801475
40	0xbd914ba7	-0.07094508
41	0x3d995b51	0.0748812
42	0x3daecdfd	0.08535383
43	0x3df7ac0a	0.12093361
44	0x3d529ef7	0.051421132
45	0x3cfc57cb	0.030803582
46	0xbc860541	-0.016359927
47	0x3d38b0d7	0.045090523
48	0xbcaa17a4	-0.020763226
49	0x3df6b149	0.12045533
50	0xbd71935f	-0.058978435
51	0xbd83be43	-0.06432774
52	0xbcc67c9e	-0.024229344
53	0x3ddc40e7	0.10754567
54	0x3dda8900	0.10670662
55	0xba511b87	-0.0007976819
56	0xbde0d807	-0.10978704
57	0xbdddcd1b	-0.108301364
58	0x3d92bce1	0.07164932
59	0xbdce5de6	-0.100765035
60	0x3d3ed17f	0.04658651
61	0x39f86cd5	0.00047383332
62	0x3c29408f	0.010330333
63	0x3d5985a9	0.053105984

module.graph_layers.0.attention_aggr.nn.0.weight f4 [64, 64]
0	0xbe24ea61	-0.16105033
1	0x3d328020	0.04357922
2	0x3da86059	0.08221502
3	0xbe6fdb22	-0.23423436
4	0x3e5940c0	0.21216106
5	0x3d1038ff	0.035210606
6	0x3e80f676	0.25188035
7	0xbcf52775	-0.029926041
8	0x3d052461	0.032505397
9	0xbe28762a	-0.16451326
10	0xbe66e020	-0.22546434
11	0x3e1b3f71	0.1516092
12	0x3aeda704	0.001813144
13	0x3e02db1d	0.12778898
14	0xbf53a3be	-0.82671726
15	0xbde164e7	-0.11005574
16	0xbde82f0a	-0.11337097
17	0xbca9b957	-0.02071826
18	0xbd8c1102	-0.068391815
19	0xbe277ec7	-0.16356955
20	0x3e8464f8	0.25858283
21	0xbe347eed	-0.17626543
22	0xbd6dc53e	-0.058049433
23	0x3e496ef8	0.19671237
24	0x3d2b6e35	0.04185315
25	0x3dbb9193	0.091586255
26	0x3d2b24e1	0.041783217
27	0xbcd24739	-0.025668727
28	0xbd28dd39	-0.0412266
29	0x3c857482	0.016290907
30	0x3d80d9c3	0.06291535
31	0x3eb8c9f4	0.36091578
32	0xbe3b1c94	-0.1827262
33	0x3cf301e9	0.029663997
34	0x3dc0698e	0.09395133
35	0xbddf8936	-0.10914843
36	0xbde12de2	-0.109950796
37	0xbdddf0f1	-0.108369716
38	0x3e1a732b	0.15082996
39	0xbe757eee	-0.23974201
40	0xbe1c7607	-0.15279399
41	0xbe3d5163	-0.18488078
42	0x3c8d2c81	0.017233135
43	0x3dda407d	0.106568314
44	0x3e3f1e38	0.18663871
45	0xbe328ed3	-0.17437296
46	0xbd8019b0	-0.062548995
47	0x3e1b9ed9	0.15197314
48	0x3e743bb3	0.23850898
49	0xbee2df5e	-0.4431104
50	0xbd077f25	-0.03308024
51	0x3e9665ed	0.29374638
52	0xbe1a9ea4	-0.15099579
53	0x3e24e975	0.16104682
54	0x3dad6925	0.0846732
55	0x3ee38cbc	0.4444331
56	0x3cfd8ae7	0.030950023
57	0xbe7a69e8	-0.24454463
58	0xbe59d3b6	-0.21272168
59	0xbef4646c	-0.47732866
60	0xbeebf65f	-0.46086404
61	0xbea3d7a1	-0.3200045
62	0x3d52c856	0.051460586
63	0xbe87baef	-0.26509807
64	0xbd5a43d1	-0.05328733
65	0x3a4afc7e	0.0007743313
66	0x3e84e28a	0.25954086
67	0xbb4e734b	-0.0031501825
68	0xbe9e820a	-0.30958587
69	0x3e8f5482	0.27994162
70	0x3daace7e	0.083401665
71	0xbdde59d9	-0.10856981
72	0xbf49cc93	-0.7882778
73	0x3dbec30f	0.09314548
74	0xbe7f3ce2	-0.24925569
75	0xbd063dca	-0.03277377
76	0x3d7876e2	0.06066025
77	0x3e3c2864	0.18374783
78	0xbde4bce7	-0.11168843
79	0x3dcdb4f6	0.10044281
80	0x3c8bb40d	0.017053628
81	0xbea9743b	-0.3309649
82	0x3c804635	0.015658477
83	0x3e965cd2	0.2936769
84	0xbd844f6c	-0.06460461
85	0xbc851f11	-0.016250165
86	0x3cefb25c	0.029259853
87	0xbd299ef7	-0.041411366
88	0x3dc27978	0.094958246
89	0xbe038ef1	-0.12847497
90	0x3d3a3938	0.045464724
91	0xbd3a2021	-0.045440797
92	0xbeadabf3	-0.3392025
93	0xbd9db773	-0.07701006
94	0x3df86527	0.12128668
95	0x3c732ac8	0.014841743
96	0x3e6df059	0.23236217
97	0x3e0bb7aa	0.13644281
98	0x3eced826	0.40399283
99	0xbe236c88	-0.1595937
100	0xbd054be6	-0.032543086
101	0x3e195955	0.14975484
102	0x3e37c68f	0.17946838
103	0xbdb7968a	-0.0896426
104	0x3d44fc1f	0.048092004
105	0x3e2e1137	0.16998754
106	0xbe7301e9	-0.23731197
107	0xbdcdc492	-0.100472584
108	0xbe08e417	-0.1336826
109	0xbe4893f8	-0.19587696
110	0x3d390965	0.045174975
111	0xbde575e3	-0.11204126
112	0xbd01335a	-0.031543113
113	0x3dc55ef8	0.096372545
114	0xbbf68694	-0.007523367
115	0xbdd1af58	-0.10238522
116	0xbde2344e	-0.110451326
117	0xbdaa9063	-0.08328321
118	0x3d9a064e	0.07520734
119	0x3d536c73	0.051617097
120	0xbc599b45	-0.013281648
121	0xbd049bac	-0.032375023
122	0x3d8b9397	0.0681526
123	0xbdcffd27	-0.10155707
124	0xbdd88d75	-0.10573856
125	0xbb5060f7	-0.0031796077
126	0xbd5907d5	-0.052985985
127	0x3cf8f3d6	0.030389708
128	0x3d364ec6	0.044508718
129	0x3e293500	0.16524124
130	0xbe12b4b3	-0.14326744
131	0xbcac49eb	-0.02103134
132	0xbe83b1d3	-0.25721607
133	0x3de60669	0.112316914
134	0xbe96ed10	-0.2947774
135	0x3d93982e	0.0720676
136	0xbcb711fa	-0.02234744
137	0xbbb35193	-0.005472371
138	0xbe187437	-0.14888082
139	0x3dc7de6a	0.09759219
140	0xbdf31259	-0.11868734
141	0x3df7372f	0.12071072
142	0x3f1764e3	0.59138316
143	0x3d844a48	0.064594805
144	0x3e9ea24a	0.30983192
145	0x3de1bd48	0.11022431
146	0xbdc19a49	-0.09453256
147	0xbd71d053	-0.059036564
148	0x3d204a8f	0.039133605
149	0xbe071052	-0.1318982
150	0x3dbeae60	0.09310603
151	0xbb4aeea2	-0.003096499
152	0xbd19034a	-0.037356652
153	0xbd60ac79	-0.054851983
154	0xbd2bfebd	-0.041990984
155	0x3de66fdb	0.112518035
156	0x3aaf436c	0.0013371534
157	0x3da5d953	0.08098092
158	0xbd107aa5	-0.035273213
159	0xbd5dda68	-0.054163367
160	0x3ce21d56	0.02760188
161	0xbe15c4f7	-0.14625917
162	0x3af46578	0.0018645963
163	0x3c24a87d	0.010049936
164	0xbcbb3331	-0.022851558
165	0x3e99dd9d	0.3005189
166	0x3d15b2d4	0.036547497
167	0x3e82bfde	0.25537008
168	0x3edbac2c	0.42904794
169	0xbde155f6	-0.11002724
170	0x3e2007da	0.15627995
171	0x3db3ff43	0.08788922
172	0x3d53ec1e	0.05173885
173	0xbcb1608d	-0.021652484
174	0xbc4c968a	-0.012487063
175	0xbea6b638	-0.32560897
176	0x3dbc8d68	0.092066586
177	0xbd980f32	-0.07424773
178	0x3d8fb35c	0.07016632
179	0xbe09d25d	-0.13459153
180	0x3ea02bc8	0.31283402
181	0xbd6beae6	-0.057597063
182	0xbd883887	-0.06651407
183	0x3e1569bf	0.1459112
184	0x3ce429b3	0.027851915
185	0xbd7705c6	-0.06030824
186	0xbcfab006	-0.030601513
187	0x3da97c28	0.08275634
188	0xbd67128b	-0.05641417
189	0x3e84b67f	0.25920483
190	0x3c82a3eb	0.015947303
191	0x3e1fb6b3	0.15597038
192	0x3d35eb93	0.044414114
193	0xbe222233	-0.15833358
194	0x3dd99c08	0.10625464
195	0x3c69b2ed	0.014263851
196	0xbe409953	-0.18808489
197	0x3dd19cf7	0.10235017
198	0x3db6b431	0.089210875
199	0xbe49daad	-0.19712324
200	0xbe7a8377	-0.24464212
201	0xbd019e97	-0.031645384
202	0x3deb68f9	0.11494631
203	0xbd5023c9	-0.050815377
204	0xbcfda528	-0.030962542
205	0x3d74a30e	0.059725814
206	0x3dd33097	0.10312002
207	0x3e30fe4d	0.17284508
208	0xbb85bf1d	-0.0040816204
209	0xbefc1c22	-0.49240214
210	0x3e748f9d	0.23882909
211	0x3e47c2ff	0.19507979
212	0x3ddd7afc	0.10814473
213	0xbc87dd09	-0.01658489
214	0xbe26a51e	-0.16273925
215	0xbe78d46c	-0.24299783
216	0xbe24166b	-0.16024177
217	0x3caedae1	0.021344604
218	0x3d723dc2	0.059140928
219	0xbe4f5b03	-0.20249562
220	0x3d201d2a	0.039090313
221	0xbe1c5942	-0.15268424
222	0x3e41392c	0.18869466
223	0xbe170840	-0.14749241
224	0x3e7955fc	0.24349207
225	0x3e8c98ba	0.2746027
226	0x3ea95937	0.33075878
227	0x3e807f41	0.25097087
228	0xbdfe856f	-0.12427794
229	0xbd5c135a	-0.053729393
230	0xbe789e79	-0.24279203
231	0x3dd6d1b9	0.1048922
232	0xbbd5fcbe	-0.0065303734
233	0x3dbc97c6	0.09208636
234	0x3b82bd02	0.0039898166
235	0x3d015265	0.03157272
236	0xbd55c141	-0.052186254
237	0x3ecf1520	0.40445805
238	0x3e259ce6	0.16173133
239	0xbd1008f3	-0.035164785
240	0xbdd24b75	-0.102682985
241	0x3ccbc3da	0.024873663
242	0x3e5760c3	0.21033005
243	0xbe131fcc	-0.14367598
244	0x3d9de6c3	0.0771003
245	0x3d0bbcd1	0.034115616
246	0xbbc0a841	-0.0058794324
247	0x3da0779a	0.07835312
248	0xbe92014f	-0.28516623
249	0x3f65124b	0.8948104
250	0xbce7140d	-0.028207803
251	0x3d0a9e34	0.03384228
252	0xbd5e075d	-0.05420624
253	0x3d07af42	0.033126123
254	0x3e21e393	0.15809469
255	0x3e16bd70	0.14720702

module.graph_layers.0.attention_aggr.nn.0.bias f4 [64]
0	0xbe2ea7bc	-0.17056173
1	0xbe022b4f	-0.12711833
2	0x3cb104d2	0.021608744
3	0xbe1b31a7	-0.1515566
4	0xbdba1c6f	-0.090874545
5	0x3d7b850d	0.061406184
6	0xbe313d69	-0.17308582
7	0x3d4aff2e	0.049559765
8	0xbd83031d	-0.06397078
9	0x3dfef484	0.124489814
10	0xbb7c3893	-0.003848587
11	0x3e428988	0.18997777
12	0x3c6be29c	0.01439729
13	0xbe2fa711	-0.17153575
14	0xbb1ed526	-0.0024235933
15	0x3cd40b9f	0.025884448
16	0xbd6c72aa	-0.05772654
17	0xbb8e4bf4	-0.0043425504
18	0x3e1b833e	0.15186784
19	0xbdc42a02	-0.09578325
20	0xbabc4ee7	-0.0014366776
21	0xbdb90a7a	-0.09035201
22	0x3dfeb8a7	0.124375634
23	0xbc05d0b2	-0.008167433
24	0x3c965157	0.018349333
25	0xbbd15acb	-0.006388997
26	0x3bb81fee	0.0056190407
27	0xbca2d474	-0.019876696
28	0x3d8f404e	0.06994687
29	0xbe056750	-0.13027692
30	0x3deb0c89	0.11477
31	0x3e465dff	0.19371794
32	0x3d8ab6d2	0.067731515
33	0x3b1d29ef	0.0023981293
34	0xbd3537ce	-0.044242673
35	0x3e2839d0	0.16428304
36	0xbdbcf9a1	-0.092273004
37	0x3dd83466	0.10556869
38	0xbce79244	-0.028267987
39	0xbdf25836	-0.11833231
40	0xbc46883e	-0.012117444
41	0x3d8687c2	0.065688625
42	0x3ea6f9d4	0.3261248
43	0x3cc973d4	0.024591364
44	0xbd8248a9	-0.06361515
45	0xbe09f272	-0.13471392
46	0xbdcfb236	-0.10141413
47	0x3db82bb6	0.08992712
48	0xbd6c7218	-0.057725996
49	0x3d4faf24	0.050704136
50	0xbd923304	-0.07138637
51	0x3d485928	0.04891315
52	0xbdae2938	-0.085039556
53	0xbdd97740	-0.10618448
54	0xbd2ada21	-0.04171193
55	0x3d81a220	0.06329751
56	0xbd6ef3ad	-0.058337856
57	0x3dcf6ac0	0.10127783
58	0xbdc09e84	-0.094052345
59	0x3e70e190	0.23523545
60	0x3dd547f3	0.10414114
61	0xbe59bcca	-0.21263424
62	0x3db837d2	0.08995022
63	0x3cae94ec	0.021311246

module.graph_layers.0.mlp_msg.0.weight f4 [64, 128]
0	0xbcc8d357	-0.024514837
1	0x3ce6e321	0.028184475
2	0xbdd01958	-0.10161084
3	0x3d5cb132	0.053879924
4	0xbd85c0fa	-0.06530948
5	0xbdbffb26	-0.09374075
6	0x3d2a60b4	0.04159613
7	0xbb8dde28	-0.0043294616
8	0xbdaf8e79	-0.085720964
9	0x3cd416ed	0.025889838
10	0x3d2e5f52	0.042571373
11	0xbcb5b324	-0.022180147
12	0xbd6c8e50	-0.057752907
13	0x3d1fe927	0.03904071
14	0x3d947286	0.07248406
15	0xbdbade34	-0.09124413
16	0x3ace2982	0.0015728923
17	0x3d81b3a1	0.063330896
18	0xbd8f5bc0	-0.06999922
19	0x3c7826ba	0.015145952
20	0xbd981b26	-0.07427053
21	0xbd03c8a5	-0.03217377
22	0x3c593dc8	0.013259359
23	0xbd9a67f9	-0.075393625
24	0x3d87e36a	0.06635173
25	0x3cf54f67	0.029945089
26	0xbcfd7d89	-0.030943649
27	0x3ce2d8f8	0.02769135
28	0xbc268c30	-0.010165259
29	0xbd29c243	-0.041445028
30	0x3d9884ae	0.07447182
31	0xbc296b28	-0.010340489
32	0xbdb958fd	-0.09050176
33	0xbda443bf	-0.08020734
34	0xbcabd2a5	-0.020974467
35	0x3cdcc874	0.026951052
36	0xbd390e23	-0.045179497
37	0xbd01a912	-0.03165538
38	0x3d77ea58	0.060526222
39	0xbdb6eaa7	-0.08931475
40	0xbd87e33f	-0.06635141
41	0xbd9351d6	-0.07193343
42	0xbd97b010	-0.07406628
43	0x3d819094	0.06326404
44	0x3ce9b673	0.028529381
45	0xbdb7623b	-0.08954283
46	0xbd290a0f	-0.04126936
47	0xbd8ef008	-0.06979376
48	0x3d807eb9	0.062741704
49	0x3cfe6d63	0.031058019
50	0xbc7ad6e2	-0.015310021
51	0xbd453c2b	-0.048153084
52	0x3d3a3e99	0.045469854
53	0xbd523c5b	-0.05132709
54	0xbd85094a	-0.064959124
55	0xbc619020	-0.013767272
56	0x3d8a8b40	0.06764841
57	0xbc768e15	-0.015048523
58	0xbd2de295	-0.042452414
59	0x3d41cf06	0.047316574
60	0x3cfe3bdd	0.031034404
61	0x3d6688a9	0.056282673
62	0x3c5bad63	0.013408038
63	0x3d2d7b53	0.04235394
64	0x3bd2f08c	0.006437367
65	0xbe37a13e	-0.17932603
66	0xbd629ce0	-0.05532539
67	0x3d5a1952	0.053246804
68	0x3b874935	0.0041286
69	0xbdd27e3f	-0.10277986
70	0xbd8c2b2b	-0.06844171
71	0xbd28ee4b	-0.04124288
72	0x3ea1f523	0.31632337
73	0x3dfc7ee5	0.12328891
74	0x3ec3ae05	0.38218704
75	0x3e2b24f9	0.16713323
76	0x3df1d3ba	0.11807962
77	0xbdaf13c5	-0.085486926
78	0x3dc39576	0.09549992
79	0xbd331841	-0.043724302
80	0x3e7ae154	0.24500018
81	0x3d8950ac	0.0670484
82	0xbe923210	-0.2855382
83	0xbe503d11	-0.20335795
84	0xbd954b0a	-0.07289703
85	0x3daed0d4	0.085359246
86	0xbe7086ae	-0.23488876
87	0x3db7cfdf	0.08975195
88	0x3d9f64e1	0.07782913
89	0x3e780de3	0.24224047
90	0x3e89e2b5	0.26930776
91	0xbe4e3cfa	-0.20140448
92	0xbc1c14ad	-0.009526414
93	0x3e7e5c93	0.24840002
94	0x3dd9a816	0.10627763
95	0xbe82d613	-0.2555395
96	0xbc414f52	-0.011798697
97	0x3e58ec8d	0.21183987
98	0xbcf12c20	-0.029439986
99	0xbd88ffa7	-0.06689387
100	0x3da70c5e	0.08156656
101	0xbcc91d53	-0.024550116
102	0x3d948eca	0.07253797
103	0xbe8cf44e	-0.2753014
104	0x3d5c8522	0.053837903
105	0xbe176417	-0.14784275
106	0xbe4d6046	-0.20056257
107	0x3bb1601e	0.0054130694
108	0x3d56e99f	0.052468892
109	0x3eabdfc0	0.33569145
110	0x3d20e95e	0.039285056
111	0x3efa9c99	0.489476
112	0xbe570855	-0.20999272
113	0xbecd44f1	-0.4009166
114	0xbe0a0d8a	-0.13481727
115	0x3e9be1d4	0.3044573
116	0xbe1f1777	-0.15536295
117	0x3ec04a1b	0.37556538
118	0x3e4dec49	0.20109667
119	0x3b1534c6	0.002276705
120	0xbe06ec07	-0.13175975
121	0x3e321d54	0.17394
122	0x3d72c08f	0.05926567
123	0xbf08db50	-0.53459644
124	0xbe749014	-0.23883086
125	0x3db9f4c9	0.09079892
126	0xbc84ede7	-0.016226722
127	0x3d2293bd	0.039691675
128	0xbc67355b	-0.014111842
129	0xbe2abf76	-0.16674599
130	0xbdf5db27	-0.120046906
131	0xbd92b6d5	-0.07163779
132	0xbc65f8ee	-0.0140364
133	0xbe031615	-0.12801392
134	0xbb90de4b	-0.0044210306
135	0xbe0c289f	-0.1368737
136	0xbd86a3d6	-0.06574218
137	0xbe037dc0	-0.12840939
138	0xbe0fcc58	-0.14042795
139	0xbe15804e	-0.14599726
140	0xbd8964e1	-0.06708694
141	0xbc820f54	-0.01587645
142	0xbe0c8d9a	-0.13725892
143	0xbc4ebc0f	-0.012618079
144	0xbd5c75db	-0.053823333
145	0xbce779cc	-0.02825632
146	0xbe2efa2d	-0.17087622
147	0xbd632c1d	-0.05546199
148	0xbdd24cb1	-0.10268534
149	0xbd91d7b5	-0.07121221
150	0xbb9fe435	-0.0048794993
151	0xbdc245e9	-0.094859906
152	0xbe3598e6	-0.17734107
153	0xbe1fc345	-0.15601833
154	0xbd292e32	-0.04130382
155	0xbe0883f0	-0.1333158
156	0xbe2a0a03	-0.16605382
157	0xbe1def0b	-0.15423219
158	0xbb7a8c81	-0.003823072
159	0xbd07ce64	-0.033155814
160	0xbd968d7a	-0.07351203
161	0xbdde5d81	-0.10857678
162	0xbdcc5fd8	-0.09979218
163	0xbda435ad	-0.0801805
164	0xbe04a135	-0.1295212
165	0xbe0b9931	-0.13632657
166	0xbe3558ef	-0.17709707
167	0xbe288671	-0.16457535
168	0xbd861573	-0.0654706
169	0xbe02110b	-0.12701814
170	0xbcf0a31c	-0.029374652
171	0xbc00c903	-0.007860425
172	0xbdfa6219	-0.12225742
173	0xbe106f09	-0.14104857
174	0xbcefa0ea	-0.029251534
175	0xbd65dc5e	-0.05611836
176	0xbd513c4a	-0.051082887
177	0xbca644b3	-0.02029643
178	0xbd17b60f	-0.03703886
179	0xbdf5577e	-0.119795784
180	0xbd218f94	-0.039443567
181	0xbde3c640	-0.111217976
182	0xbd239555	-0.039937336
183	0xbd0b7851	-0.03405029
184	0xbe21e222	-0.15808919
185	0xbc3da1ce	-0.011574222
186	0xbda253f9	-0.07926173
187	0xbe23a63f	-0.15981387
188	0xbd549c6e	-0.051906995
189	0xbde7d8e9	-0.11320669
190	0xbdb692eb	-0.08914741
191	0xbe2e5975	-0.17026313
192	0xbb9ac153	-0.004722753
193	0x3db52161	0.08844257
194	0xbe0f1f39	-0.13976754
195	0xbee53ea9	-0.44774368
196	0xbeb94298	-0.3618362
197	0xbd464248	-0.048403054
198	0xbdf6ab1f	-0.120443575
199	0xbe5c66c6	-0.2152358
200	0xbd43c0a8	-0.047791153
201	0x3c0d2e70	0.008617029
202	0x3dcf8f28	0.10134727
203	0x3ebf6e2c	0.37388742
204	0xbc0533b8	-0.0081300065
205	0xbee92ccd	-0.45541993
206	0x3ea6141e	0.32437223
207	0x3e1c6397	0.15272366
208	0xbe357d77	-0.17723642
209	0xbe07ddd8	-0.1326822
210	0x3c0a8a86	0.008455878
211	0x3e5132f1	0.20429589
212	0xbecc54d9	-0.39908484
213	0x3e922527	0.2854397
214	0xbe97fdff	-0.2968597
215	0xbd9c99a9	-0.07646496
216	0x3df3596b	0.118822895
217	0xbdc018d6	-0.09379737
218	0x3d5b22a4	0.053499833
219	0x3ea241ff	0.31690976
220	0x3ec3b66b	0.3822511
221	0xbdb24c42	-0.08705951
222	0xbe5cdcc6	-0.21568593
223	0xbda6d53b	-0.08146139
224	0x3ed34f31	0.41271356
225	0x3ea4c7af	0.32183596
226	0x3d38b410	0.045093596
227	0xbd8555bc	-0.06510493
228	0xbdc8df95	-0.0980827
229	0x3ddad5f3	0.10685339
230	0x3d7642ed	0.06012242
231	0xbe7f2f80	-0.24920464
232	0x3cdc93fa	0.02692603
233	0x3ec6112b	0.38684973
234	0xbe6bd30f	-0.23029731
235	0xbe8d6ccb	-0.27622065
236	0xbe846a20	-0.25862217
237	0x3e1ada3d	0.15122314
238	0x3e4eae4a	0.20183674
239	0x3cd322ef	0.025773494
240	0xbe9741d4	-0.2954241
241	0x3d549c5d	0.051906932
242	0x3e1c23f0	0.15248084
243	0x3e56368a	0.20919243
244	0x3ea5b3d3	0.32363757
245	0x3cade11c	0.021225505
246	0xbd68246e	-0.056675367
247	0xbe16787d	-0.146944
248	0xbe6f677a	-0.23379317
249	0x3f17783f	0.59167856
250	0xbe42fbc6	-0.19041356
251	0xbe052b1f	-0.1300473
252	0xbede9adb	-0.4347752
253	0x3e4c817a	0.19971266
254	0xbe4648a0	-0.19363642
255	0x3d823688	0.06358057

module.graph_layers.0.mlp_msg.0.bias f4 [64]
0	0x3cbc4a38	0.022984609
1	0xbe1bef21	-0.15227939
2	0xbc03decf	-0.008048727
3	0x3b0887b8	0.0020832848
4	0x3e3e7485	0.18599136
5	0xbdf2f7ad	-0.11863647
6	0xbca636fd	-0.020289892
7	0x3d6fc09b	0.058533292
8	0xbd3bc8a4	-0.045845643
9	0x3dacebfa	0.084434465
10	0x3f01ee7c	0.50754523
11	0x3dc6eed8	0.097135246
12	0xbd5c98cb	-0.053856652
13	0xbca9431e	-0.020661887
14	0x3e65d0c1	0.22442915
15	0xbbcf6cf6	-0.006330128
16	0x3d7fa292	0.0624109
17	0xbc9b64ee	-0.018969025
18	0x3de67d07	0.11254316
19	0xbd48fd81	-0.049069885
20	0xbdd95bca	-0.106132105
21	0x3d767e5c	0.0601791
22	0x3d9cf730	0.07664335
23	0xbdaeed01	-0.08541299
24	0xbd77e8dd	-0.06052481
25	0xbe0d2721	-0.13784458
26	0x3dd0cef1	0.10195721
27	0xbd579585	-0.052632827
28	0xbbd88472	-0.0066075856
29	0x3ddacb16	0.10683267
30	0xbcb589da	-0.02216046
31	0xbe1c6257	-0.15271889
32	0xbd969557	-0.07352703
33	0xbd53cb2a	-0.051707424
34	0xbdb49b7d	-0.088187195
35	0x3ea36675	0.31914106
36	0xbf047aaf	-0.517497
37	0x3d98311f	0.07431244
38	0x3dad8f38	0.084745824
39	0x3dac4826	0.08412199
40	0x3db8c108	0.09021193
41	0xbd514e55	-0.051100094
42	0x3cbacb1a	0.022801924
43	0x3da018fa	0.07817264
44	0x3da1ad88	0.078944266
45	0x3d24d346	0.04024055
46	0x3d5c3f34	0.053771213
47	0x3d8f7743	0.07005169
48	0xbdc4e19d	-0.09613345
49	0x3cee4e90	0.029090196
50	0x3d7621b8	0.06009075
51	0x3cf86573	0.030321812
52	0xbd209109	-0.039200816
53	0xbe18ced8	-0.14922655
54	0xbe5c29e1	-0.2150035
55	0xbe38b34c	-0.18037146
56	0xbc467ba0	-0.012114435
57	0x3b23c905	0.0024991643
58	0xbe021b23	-0.12705664
59	0x3e37c2c7	0.17945395
60	0x3e02e6c5	0.12783344
61	0x3e4b573b	0.19857495
62	0x3cf12fda	0.029441763
63	0xbd8cb0aa	-0.068696335

module.graph_layers.0.mlp_upd.0.weight f4 [64, 128]
0	0xbd1a265e	-0.037634246
1	0x3d139a06	0.03603556
2	0x3c092a2d	0.008371872
3	0xbd609cc8	-0.05483702
4	0x3cf83805	0.03030015
5	0xbbb032aa	-0.0053771334
6	0xbc2b2b05	-0.010447268
7	0xbd88dae4	-0.06682375
8	0xbd3f448b	-0.046696227
9	0x3d4aa706	0.049475692
10	0xbd90a26f	-0.07062232
11	0xbd9c36eb	-0.07627662
12	0x3d110848	0.03540829
13	0x3ccc5bc5	0.024946103
14	0xbd932270	-0.07184303
15	0xbd42e630	-0.047582805
16	0x3db04388	0.086066306
17	0xbc355720	-0.0110681355
18	0x3c0202c6	0.007935232
19	0xbd890256	-0.06689899
20	0x3d106624	0.03525366
21	0xbcc3279e	-0.023822602
22	0xbda46578	-0.08027166
23	0xbc30bdda	-0.010787452
24	0x3d60630c	0.05478196
25	0xbda81d0c	-0.08208665
26	0xbbf1fa08	-0.0073845424
27	0xbca2f0db	-0.01989024
28	0xbc6ea585	-0.01456583
29	0x3d9ac281	0.0755663
30	0xbcd5be1a	-0.026091624
31	0x3ce657c6	0.028118026
32	0xbcb2ee9b	-0.021842292
33	0x3c6ae5cc	0.014337014
34	0xbd8e23bc	-0.069404095
35	0x3d7a07e0	0.061042666
36	0x3d48872a	0.048957027
37	0x3d40ce53	0.047071766
38	0x3ada878c	0.0016672476
39	0x3db172f7	0.08664506
40	0x3d8fdb45	0.07024244
41	0xbd64443e	-0.055729143
42	0xba020ae2	-0.0004960728
43	0x3d4ff63f	0.050771948
44	0xbd1f06f6	-0.038824998
45	0xbd550ddf	-0.05201518
46	0xbd4c3f27	-0.049864914
47	0xbb859f07	-0.0040777954
48	0x3d8a9346	0.067663714
49	0x3cde56e7	0.027141048
50	0xbd362ea1	-0.044478063
51	0xbccf69ce	-0.025319006
52	0xbc776594	-0.015099902
53	0xba00792e	-0.00049008697
54	0x3cb8a65b	0.022540262
55	0xbcffa886	-0.031208288
56	0x3d5592c5	0.052141923
57	0xbd730deb	-0.059339445
58	0x3da66622	0.08124949
59	0xbd851aaa	-0.064992264
60	0xbca5d89b	-0.020244887
61	0xbd4f7a35	-0.050653655
62	0x3caa4f14	0.02078966
63	0x3d457718	0.04820928
64	0xbe4fc8ad	-0.20291395
65	0x3dd52794	0.104079396
66	0xbca8c6e5	-0.020602653
67	0xbd43db21	-0.0478164
68	0xbd89ba0b	-0.06724938
69	0x3dc0e71f	0.09419083
70	0x3d9fda6b	0.07805332
71	0x3e500810	0.20315576
72	0x3dd028e9	0.10164053
73	0x3d2ca1e1	0.042146567
74	0x3c24b92f	0.010053917
75	0xbdc6424f	-0.09680616
76	0xbe57b568	-0.21065295
77	0x3d84501b	0.064605914
78	0xbbdf44aa	-0.0068136053
79	0x3d517501	0.051136974
80	0xbd564ac6	-0.052317403
81	0x3d369db1	0.04458398
82	0x3e5c2a98	0.21500623
83	0x3ddd50e8	0.10806447
84	0xbd98d8b3	-0.07463207
85	0xbe9de9f7	-0.30842564
86	0xbca87f52	-0.020568524
87	0x3d778bd7	0.060436096
88	0xbde7fd6c	-0.11327633
89	0x3d840712	0.06446661
90	0x3ddc069f	0.107434504
91	0xbd834e85	-0.06411461
92	0xbdc3f36c	-0.095679134
93	0xbd9a67e1	-0.075393446
94	0x3df98920	0.12184358
95	0xbe4d3c22	-0.2004247
96	0x3e001d14	0.12511092
97	0xbc1b271e	-0.0094697755
98	0x3d0b0b59	0.03394637
99	0x3df368da	0.11885233
100	0x3edb8c1b	0.4288033
101	0x3e0f68fa	0.14004889
102	0xbc97da26	-0.018536638
103	0x3c5255dc	0.012837853
104	0x3e5aefe4	0.21380574
105	0x3e28a3e3	0.16468768
106	0x3bd27753	0.006422916
107	0x3e69f8c5	0.22848804
108	0xbe8a9a88	-0.27071023
109	0x3d12bbb2	0.03582353
110	0x3de409c8	0.11134678
111	0x3da68001	0.081298836
112	0x3d1bb301	0.03801251
113	0x3d1b07bc	0.037849173
114	0x3d81af9b	0.06332322
115	0xbcfc87ec	-0.030826531
116	0x3e3acde4	0.18242604
117	0x3e27d39e	0.1638932
118	0xbddae000	-0.10687256
119	0xbe036696	-0.12832102
120	0xbd8779ff	-0.06615066
121	0xbdaaa722	-0.08332659
122	0x3cdce910	0.026966602
123	0x3dbb098f	0.091326825
124	0x3dde545d	0.10855935
125	0x3dbb839e	0.09155963
126	0x3e2ebd83	0.1706448
127	0xbe2b2ae4	-0.1671558
128	0x3de04e97	0.1095249
129	0x3cdefdbf	0.027220605
130	0x3d73f1df	0.059556838
131	0xbcd4d4ee	-0.025980439
132	0x3d007fb1	0.031371776
133	0xbcf43dad	-0.029814566
134	0x3cdd3fa0	0.027007878
135	0x3dbdf0cd	0.09274445
136	0xbcde179b	-0.027110865
137	0x3df37305	0.118871726
138	0x3d74f926	0.05980792
139	0x3c8d7b7c	0.017270796
140	0xbd153add	-0.03643309
141	0x3d75c32c	0.060000584
142	0x3da96d89	0.08272845
143	0x3ca87f21	0.020568432
144	0x3c8546e6	0.016269159
145	0x3d4e0916	0.050301634
146	0xbc7b12c8	-0.015324302
147	0x3d81b1fc	0.06332776
148	0x3deead90	0.11654198
149	0x3d34085c	0.043953285
150	0x3cb5c3c4	0.022188075
151	0xbd57da24	-0.05269827
152	0x3d2f359a	0.042775728
153	0x3dbc9c78	0.092095315
154	0xbcd871fd	-0.026421541
155	0x3d99f28d	0.07516966
156	0x3dc414bf	0.095742695
157	0x3d872515	0.0659887
158	0xbcb3fdf6	-0.021971684
159	0xbb80586d	-0.003916791
160	0x3da84782	0.08216764
161	0x3d6c269e	0.057654016
162	0xbc5d8f24	-0.013522897
163	0x3d277ba2	0.04088939
164	0x3b0c5a56	0.002141615
165	0x3d906754	0.07050958
166	0xbc84dbff	-0.016218184
167	0x3c87e3b4	0.01658807
168	0x3d71fed8	0.05908093
169	0x3dba65a9	0.091014214
170	0x3dda6d0a	0.10665329
171	0xbd0030be	-0.031296484
172	0x3d7fb150	0.062424958
173	0xbd1b6f70	-0.037948072
174	0x3d19700e	0.03746038
175	0xb9ad7a6a	-0.00033088337
176	0xbc27b2e6	-0.010235524
177	0x3c87e0ba	0.01658665
178	0xbd46165b	-0.048361164
179	0xbcd5c70c	-0.02609589
180	0x3d83abe4	0.0642927
181	0xbd1cc77c	-0.03827618
182	0x3db7abe9	0.08968336
183	0x3ddc483d	0.10755966
184	0x3d0fe541	0.035130743
185	0xbc5085e8	-0.012727238
186	0x3bfa896c	0.0076457765
187	0x3d1f1285	0.03883602
188	0x3d4a12e9	0.04933444
189	0xbd2b182a	-0.04177109
190	0x3d41dbf8	0.04732892
191	0x3d75e63a	0.060034014
192	0x3cfb8f1e	0.030707892
193	0xbdf0b85d	-0.117539145
194	0x3c1355c9	0.008992621
195	0xbe08897a	-0.13333693
196	0xbcb0fd59	-0.02160518
197	0x3cd7f048	0.026359692
198	0x3d7f345a	0.062305786
199	0xbcd8752c	-0.02642306
200	0x3da48699	0.08033485
201	0x3d9f2b3b	0.077719174
202	0x3cee1618	0.02906327
203	0x3dc1f78a	0.094710425
204	0xbafeb691	-0.0019433071
205	0x3d07a059	0.033111904
206	0xbd71aa70	-0.059000432
207	0x3d9f0e2f	0.07766377
208	0x3cde4bce	0.027135756
209	0x3e3b2d5a	0.18279019
210	0x3e0a4edd	0.13506646
211	0xbe1a1645	-0.15047558
212	0xbd8a1e85	-0.067441024
213	0xbef6978c	-0.48162496
214	0xbe180939	-0.14847268
215	0x3d8dc929	0.06923134
216	0xbe1487dd	-0.14504953
217	0xbbf4a95c	-0.0074664783
218	0xbc71f264	-0.014767263
219	0x3ced83cd	0.028993512
220	0x3ca0d6a9	0.019633608
221	0x3de84b7b	0.11342522
222	0x3caaa098	0.02082853
223	0x3e52fb47	0.20603667
224	0x3e71dd1e	0.23619506
225	0x3db8e939	0.09028859
226	0xbce72f2d	-0.028220737
227	0xbc9bdf86	-0.019027483
228	0xbd66597b	-0.05623768
229	0xbd8cb571	-0.06870545
230	0xbcf5b091	-0.02999142
231	0xbd1b078c	-0.037848994
232	0xbeb9fbbb	-0.36324868
233	0xbc8c33e0	-0.01711458
234	0x3e0b0ee9	0.13579907
235	0xbe358c0c	-0.17729205
236	0x3d8e56fd	0.069501854
237	0x3d26b40a	0.040699042
238	0x3e6ffc65	0.23436125
239	0xbdfb041f	-0.122566454
240	0x3c3f8f46	0.011691874
241	0x3e4c73a2	0.19965985
242	0xbec49413	-0.38394222
243	0x3e3fa83f	0.18716525
244	0x3e6fa551	0.23402907
245	0x3ba22afd	0.0049489723
246	0xbdfb58e4	-0.12272814
247	0xbe525355	-0.20539601
248	0x3ee03bce	0.43795627
249	0x3df904e2	0.121591344
250	0xbe0d5b09	-0.13804258
251	0xbd9dd27d	-0.07706163
252	0xbcefbb74	-0.02926419
253	0x3dedcd02	0.11611368
254	0xbd050d43	-0.03248335
255	0xbe66bc7e	-0.22532842

module.graph_layers.0.mlp_upd.0.bias f4 [64]
0	0x3d87a237	0.06622737
1	0xbd3c3b64	-0.045955077
2	0xbd191b9d	-0.03737985
3	0xbd121d06	-0.03567221
4	0x3cfc4f1d	0.030799443
5	0xbd9d3943	-0.076769374
6	0x3c5e2d27	0.01356057
7	0xbccb6b81	-0.024831535
8	0x3d4fd365	0.05073871
9	0xbe060152	-0.13086441
10	0xbaceda46	-0.0015781603
11	0xbd19dc33	-0.037563514
12	0xbd8bdc6d	-0.06829152
13	0x3dc5af26	0.096525475
14	0x3c68dd90	0.014212981
15	0x3dc6b771	0.097029574
16	0xbd50dc99	-0.05099163
17	0x3c1e58ee	0.009664757
18	0xbd5a7239	-0.053331587
19	0xbded23dc	-0.11579105
20	0xbcd60153	-0.026123678
21	0x3d7ea215	0.062166292
22	0xbe3f0103	-0.1865273
23	0x3d7ba081	0.061432365
24	0x3cecb71a	0.028895903
25	0xbdc72e3f	-0.097256176
26	0xbd99f355	-0.07517115
27	0x3d75cbe1	0.060008887
28	0xbca4bc07	-0.02010919
29	0x3db1ac76	0.086754724
30	0x3d45b571	0.04826874
31	0xbe028d9f	-0.12749337
32	0x3dab408a	0.08361919
33	0xbc891954	-0.01673571
34	0xbc9aa898	-0.01887922
35	0x3d958461	0.0730064
36	0xbdb2b479	-0.08725829
37	0x3e1d348b	0.15352075
38	0xbd8a072d	-0.0673965
39	0x3d824167	0.06360131
40	0xbd76adb9	-0.06022427
41	0x3cc34051	0.02383438
42	0x3db94524	0.09046391
43	0x3d4fc5fb	0.05072592
44	0xbd86a7fc	-0.06575009
45	0xbd828048	-0.06372124
46	0xbcc8d369	-0.02451487
47	0x3c96b137	0.01839505
48	0xbe664cd2	-0.22490242
49	0x3b3a5149	0.0028429797
50	0xbd835e22	-0.06414439
51	0xbd18c5c9	-0.037297998
52	0xbb10d6b9	-0.002210064
53	0xbd8f1372	-0.06986131
54	0xbd9abbab	-0.07555326
55	0xbc87f815	-0.016597787
56	0xbba729c8	-0.0051014163
57	0xbdc00f94	-0.09377971
58	0x3d9faccb	0.077966295
59	0xbcdbce22	-0.02683169
60	0xbd9e324c	-0.07724437
61	0xbdaa3279	-0.08310408
62	0x3e143f3d	0.14477248
63	0x3d834ca4	0.064111024

module.graph_layers.1.attention_aggr.gate_nn.0.weight f4 [64, 64]
0	0x3e9bdaa2	0.3044024
1	0x3e985ddb	0.29759106
2	0xbe5493a7	-0.2075945
3	0xbd431bbc	-0.04763387
4	0x3e6e5b1a	0.2327694
5	0xbf2c2e75	-0.6725839
6	0xbd3aeb83	-0.045634758
7	0x3e0acc3b	0.1355447
8	0x3dc09def	0.094051234
9	0xbd8c2c61	-0.06844402
10	0xbf8bacca	-1.0912106
11	0x3dfb9f88	0.122862875
12	0x3da21de2	0.07915856
13	0xbe02eddb	-0.12786047
14	0xbe869828	-0.2628796
15	0xbe16d9ee	-0.14731571
16	0x3d1d6133	0.038422775
17	0xbd180cd5	-0.037121613
18	0x3e5ce9fc	0.21573633
19	0xbd204f61	-0.0391382
20	0xbe0cb6d2	-0.13741615
21	0x3e2862b7	0.16443907
22	0x3e212da2	0.15740064
23	0xbe1fd787	-0.15609561
24	0x3f1e34b7	0.61799186
25	0x3e87226c	0.2639345
26	0x3e9cd00f	0.30627486
27	0xbd34273f	-0.04398274
28	0xbe78037b	-0.24220078
29	0x3b8745cc	0.0041281935
30	0xbe378ba7	-0.17924367
31	0xbeb28eb3	-0.34874496
32	0xbb858613	-0.004074821
33	0x3d8ca80a	0.068679884
34	0xbdc1f2b5	-0.09470121
35	0xbda0cdfd	-0.07851789
36	0x3e03352d	0.12813254
37	0x3debb7bc	0.11509654
38	0x3d9562da	0.07294245
39	0xbe91c305	-0.284691
40	0xbe7f93c7	-0.24958716
41	0xbea2dabe	-0.31807512
42	0x3eb4f5de	0.35343832
43	0x3f9c4f0a	1.2211621
44	0x3e810dca	0.25205833
45	0xbed55c87	-0.41672155
46	0xbdbeeaff	-0.09322166
47	0xbda9bc2e	-0.082878456
48	0x3e6fa122	0.23401311
49	0x3d9276d5	0.07151572
50	0xbd45b43b	-0.048267584
51	0xbf17704d	-0.5915573
52	0x3d896957	0.06709545
53	0x3e23fcf2	0.1601446
54	0xbde5cad9	-0.11220331
55	0x3dce0420	0.100593805
56	0xbc800d26	-0.01563127
57	0x3d97e168	0.0741604
58	0xbe2e2722	-0.17007115
59	0xbd5110bc	-0.05104135
60	0x3df42d64	0.1192272
61	0xbdd4086a	-0.10353167
62	0xbe9bed82	-0.30454642
63	0x3ddd1e04	0.10796741
64	0xbdcffb53	-0.10155358
65	0x3ecb004e	0.3964867
66	0x3e46d2a2	0.19416288
67	0x3c90b96d	0.017666543
68	0xbf10daf9	-0.56584126
69	0xbcd351f2	-0.02579591
70	0xbe1700db	-0.1474642
71	0xbd47ca6c	-0.04877703
72	0x3d8b8c74	0.06813899
73	0xbea2deb5	-0.31810537
74	0x3aa657c9	0.0012690957
75	0xbcce23d9	-0.025163578
76	0x3e4430fb	0.1915931
77	0xbdb27503	-0.087137245
78	0xbf017b0f	-0.505784
79	0x3d851f2f	0.065000884
80	0xbd9a4ac7	-0.07533794
81	0xbdbf5e9b	-0.093442164
82	0xbdf4b437	-0.11948436
83	0xbbdf6f65	-0.006818699
84	0x3e63a363	0.22230296
85	0x3dd6d342	0.10489513
86	0xbe0fbdc3	-0.14037232
87	0x3e91bcdc	0.284644
88	0xbcdaaf95	-0.026695052
89	0xbca83345	-0.02053226
90	0xbd249669	-0.040182505
91	0xbda5728c	-0.08078489
92	0x3e4c0f0c	0.19927615
93	0xbe3208d4	-0.1738618
94	0xbd9a8767	-0.07545357
95	0x3db4f2a0	0.088353395
96	0x3eabad76	0.33530778
97	0x3a5d6c28	0.00084465975
98	0xbe612022	-0.21984914
99	0x3e6f80d8	0.23388994
100	0x3cd8903e	0.026435968
101	0x3d40a704	0.04703428
102	0x3db9151f	0.09037232
103	0xbd51ad1e	-0.051190488
104	0x3e1fe8e8	0.1561619
105	0xbe9f7fa6	-0.31152076
106	0x3cbd2a01	0.023091318
107	0x3e712d6e	0.23552486
108	0xbe42038e	-0.18946669
109	0xbe81ef60	-0.2537794
110	0xbf15b854	-0.5848439
111	0x3e783d1e	0.24242064
112	0x3d4fa790	0.05069691
113	0x3db16f2b	0.08663782
114	0x3f00ecf0	0.5036154
115	0x3e07bf6b	0.13256614
116	0xbd7f3742	-0.062308557
117	0x3ec40372	0.3828388
118	0xbd2e063d	-0.042486418
119	0xbd128cd8	-0.03577885
120	0x3eb302fd	0.34963217
121	0x3e05b200	0.13056183
122	0x3e44157f	0.19148825
123	0x3c9c6896	0.01909284
124	0x3df99259	0.12186117
125	0x3cf6de8f	0.030135421
126	0x3e65096b	0.22366874
127	0xbe3323d1	-0.17494132
128	0x3b506067	0.0031795742
129	0x3decabc0	0.11556196
130	0x3e6248ed	0.22098131
131	0x3dd27739	0.10276646
132	0xbe6d192e	-0.23154137
133	0xbe0bca62	-0.13651422
134	0xbe45a01f	-0.19299363
135	0xbf24d2c1	-0.64384085
136	0x3d2effe7	0.042724516
137	0x3e267f9e	0.1625962
138	0xbe76f75e	-0.241178
139	0x3e8a79d8	0.27046084
140	0x3e8fe1ab	0.28101858
141	0xbe2d22e4	-0.16907841
142	0xbe9fefbc	-0.3123759
143	0x3c920fde	0.017829832
144	0xbda1d175	-0.07901279
145	0x3e14cbd8	0.14530885
146	0xbe49e028	-0.19714415
147	0xbec0fa92	-0.3769117
148	0x3e4cd089	0.20001425
149	0x3ea16288	0.31520486
150	0xbef25427	-0.47329828
151	0x3e253e79	0.16137113
152	0x3cdc9938	0.02692853
153	0xbd1d091c	-0.038338766
154	0x3ea36ced	0.3191904
155	0xbde2e442	-0.11078693
156	0x3e9fe4e7	0.31229326
157	0xbe836a45	-0.25667015
158	0x3db6a279	0.08917708
159	0x3e27afbb	0.1637563
160	0x3e28d68c	0.16488093
161	0xbec1c992	-0.37849098
162	0xbcdf96bf	-0.027293561
163	0x3e9c30d1	0.30505994
164	0x3eba10d4	0.36340964
165	0xbdc98344	-0.0983949
166	0x3d8732a3	0.06601455
167	0xbd7ff403	-0.062488567
168	0x3bb2897b	0.005448518
169	0xbe1ee5d5	-0.15517361
170	0x3eeac758	0.45855212
171	0x3c30987b	0.010778542
172	0x3e1ce51e	0.15321776
173	0x3d84438f	0.06458198
174	0xbdd6db89	-0.10491092
175	0x3ed641db	0.4184712
176	0x3eacd259	0.33754233
177	0x3e700dcc	0.23442763
178	0x3ee98eb7	0.45616695
179	0x3e772404	0.24134833
180	0xbc092fb7	-0.0083731925
181	0xbeba2012	-0.36352593
182	0x3e56ec7f	0.20988654
183	0x3e1b1cc7	0.15147696
184	0x3d64063a	0.05567
185	0x3df0d20f	0.117588155
186	0x3e2b0ed2	0.16704872
187	0x3dc5c672	0.09656991
188	0xbcd6971f	-0.026195107
189	0xbdfbcb09	-0.12294585
190	0x3e54b197	0.2077087
191	0xbe2f83fa	-0.17140189
192	0x3dad38d8	0.08458108
193	0x3c22782f	0.009916349
194	0xbd08863a	-0.033331133
195	0x3e5eb0ec	0.21747178
196	0xbf076d83	-0.52901477
197	0xbe229948	-0.15878785
198	0xbdf33c0c	-0.118766874
199	0xbed753e6	-0.42056197
200	0x3df36da4	0.11886147
201	0x3c4715b5	0.012151171
202	0xbd8a0867	-0.06739884
203	0x3e1d26e8	0.15346873
204	0x3e62a72f	0.22134088
205	0xbe5840cf	-0.21118473
206	0xbe3a2f59	-0.18182124
207	0x3cf027b5	0.029315809
208	0xbd987b34	-0.07445374
209	0x3e2a9089	0.16656698
210	0xbe1bea1c	-0.15226024
211	0xbe10a12e	-0.14123985
212	0x3e110676	0.14162621
213	0x3e090f07	0.13384639
214	0xbe7e3a10	-0.24826837
215	0x3e931456	0.28726453
216	0x3dd82ac4	0.10555032
217	0xbdc06cb1	-0.09395731
218	0x3e60c0ff	0.21948622
219	0xbe22f04f	-0.15911983
220	0xbd1c02b1	-0.038088504
221	0xbc85b69f	-0.016322432
222	0x3d3ef4f2	0.046620317
223	0xbbf5b8c1	-0.007498831
224	0x3dd1f7e5	0.1025236
225	0xbe964122	-0.29346567
226	0xbd17123c	-0.036882624
227	0x3d43abb5	0.047771174
228	0x3dd520af	0.104066245
229	0xbe14ae15	-0.14519532
230	0x3e35edca	0.1776649
231	0xbbbf7544	-0.0058428366
232	0xbd4487da	-0.04798112
233	0xbe8dfba4	-0.2773105
234	0x3e7d1a45	0.24717052
235	0x3debf934	0.11522141
236	0xbc5754bc	-0.013142761
237	0x3d93d24e	0.07217847
238	0xbd88b3d9	-0.06674928
239	0x3d9e7bed	0.07738481
240	0xbd8fbcd7	-0.0701844
241	0x3eae94e1	0.3409796
242	0x3edacd0a	0.42734557
243	0x3e3e68e4	0.185947
244	0xbe51ec6c	-0.20500344
245	0xbdc8b317	-0.09799784
246	0xbdd64fa5	-0.1046441
247	0xbd030d82	-0.031995304
248	0x3d29cebf	0.041456934
249	0xbe0744fd	-0.1320991
250	0x3e1d88b1	0.15384175
251	0x3d8a99b6	0.06767599
252	0x3dec00a1	0.115235575
253	0x3e621c87	0.22081195
254	0x3daff509	0.085916586
255	0xbcec1c9a	-0.028822232

module.graph_layers.1.attention_aggr.gate_nn.0.bias f4 [64]
0	0xbdd5f74e	-0.1044756
1	0xbc8d0c25	-0.017217705
2	0xbc06782f	-0.008207365
3	0x3c25f2ba	0.010128671
4	0xbc9fefa4	-0.01952345
5	0x3decc5b9	0.1156115
6	0x3d654a7a	0.05597923
7	0x3de90b2a	0.113790825
8	0x3d6ffeca	0.058592595
9	0xbdcb04ca	-0.09913023
10	0xbd898c01	-0.06716157
11	0xbce2861b	-0.027651837
12	0x3d5a1d9f	0.053250905
13	0xbdb677e1	-0.08909584
14	0xbdfd96ce	-0.12382279
15	0x3dd67554	0.10471597
16	0x3d688b8b	0.056773704
17	0xbda2ecfe	-0.07955359
18	0xbd2dc2da	-0.042422153
19	0x3c11a48c	0.008889329
20	0x3dc809ee	0.09767519
21	0xbdfd287c	-0.123612374
22	0xbdc56ab4	-0.09639493
23	0xbd98644d	-0.07441006
24	0x3dd2157e	0.102580056
25	0x3d24780f	0.04015356
26	0xbd81b62f	-0.06333577
27	0xbd8e0cfe	-0.06936072
28	0x3c335924	0.010946546
29	0xbd4d9f3a	-0.05020068
30	0xbc79babe	-0.015242277
31	0x3d10af76	0.035323583
32	0x3cafb015	0.021446267
33	0xbd37b8dc	-0.04485403
34	0x3cfe07a4	0.031009503
35	0xbd55f434	-0.052234843
36	0xbded3a2e	-0.115833625
37	0x3d869748	0.06571823
38	0x3cedd996	0.029034417
39	0xbd6f59f0	-0.05843538
40	0x3d08694b	0.03330354
41	0x3dba8612	0.09107603
42	0x3ca9039b	0.020631602
43	0xbd5b3687	-0.0535188
44	0xbda84531	-0.08216322
45	0x3dc9a8cf	0.09846651
46	0xbdb9e2ce	-0.09076463
47	0x3daa3d2f	0.08312451
48	0xbda0ca42	-0.078510776
49	0xbcd69c40	-0.026197553
50	0xbd91868b	-0.0710574
51	0xbd8050ae	-0.062653884
52	0xbcbc745d	-0.023004705
53	0xbdb9635c	-0.090521544
54	0xbc8d0b5d	-0.017217332
55	0x3d0b9149	0.0340741
56	0xbcfa6e1e	-0.030570086
57	0xbb8a571a	-0.004221809
58	0x3c81b766	0.015834522
59	0xbde53d45	-0.11193327
60	0xbdeca1e2	-0.11554314
61	0x3cbf405e	0.023346122
62	0x3d216fab	0.039413135
63	0xbdca6a2c	-0.09883532
