gnn/trained_model/attrs2.pth (torch, 196217 bytes, 51 tensors)

module.embedding.0.weight f4 [32, 2]
00000000: 1e9c 03bf 1419 ba3e 8a6c 0a3f 5c18 69bf
00000010: 17c0 f1be f973 06bf 20b3 e43e fbe9 b5bf
00000020: 9016 8a3e e4f4 a8bf 501b 053f d004 84be
00000030: 9a90 3a3f 41c9 8fbe ccf9 06bf 2e5d 39be
00000040: 20f5 ae3e 4941 cc3f 5cf7 623f 09b4 bebf
00000050: 6372 233f 657f c33f 7ed9 45bf 1aad 943f
00000060: 726f 1abf d302 653f 2375 843e 3357 1dc0
00000070: baf6 343d c456 9d3f bb03 dabf 8adf 173f
00000080: 282c b23f da4e 163f 7580 10bf 8bad 893c
00000090: 7f13 04be 259a a4bf c75f 3fbf e27d a6bd
000000a0: a026 953e 11b4 86bf 3fcf 913e aac7 203f
000000b0: 35e6 17bf 7810 f5be 33bd b4bf d30a 6d3c
000000c0: fee8 04bf 28d7 cb3f 7170 4e3f 10f2 b53c
000000d0: a04b bb3e 90ea b93f 1770 3dbf 7df5 763d
000000e0: 922c e2be 133d fdbd 72c3 e13e 545a 593f
000000f0: ee3a 5b3f 5f60 133d 2aaa 2abf af04 d2bf
-0.5141009 0.36347258 0.5407187 -0.91052794 -0.47216865 -0.5252071 0.44667912 -1.421203
0.2697034 -1.3199735 0.519948 -0.25784922 0.72876894 -0.28083232 -0.5272491 -0.18101951
0.3417139 1.5957423 0.8865869 -1.4898692 0.63846415 1.5273253 -0.7728499 1.1615326
-0.603263 0.89457434 0.25870618 -2.4584472 0.04418061 1.2292104 -1.7032388 0.5932547
1.3919725 0.5871407 -0.5644601 0.016806385 -0.12898062 -1.2859541 -0.7475552 -0.08129479
0.2913103 -1.0523702 0.2847843 0.62804663 -0.59335643 -0.47864127 -1.4120239 0.014467913
-0.5191802 1.5925035 0.8064032 0.022210151 0.36581135 1.4524708 -0.7399916 0.06029271
-0.4417463 -0.123651646 0.44094425 0.84903455 0.85636795 0.03598058 -0.666659 -1.6407679

module.embedding.0.bias f4 [32]
00000000: e813 e0be 39fd 443f 72c7 1bbe cd27 033f
00000010: 2a33 27bf baae b53e ed6e 013f 3d43 0abf
00000020: 354f bfbe 5183 053f 6ed0 44bf 0483 a93e
00000030: 5c3f 2f3f fa1e 7f3d b2bc 87be 06b3 35be
00000040: d094 c33c d025 943e 6b61 25bf 36b1 203f
00000050: 85ca f4be ac56 94be 6b14 303f a122 33be
00000060: d112 cb3e aaf7 eebe ade7 093f d43f 2a3f
00000070: f30d bbbe 4778 ea3e f8e2 803d 4464 f2bd
-0.43765187 0.7694889 -0.15212801 0.51232606 -0.65312445 0.35484868 0.50559884 -0.5400885
-0.37365118 0.521535 -0.7688054 0.3310777 0.68456054 0.0622854 -0.2651115 -0.17744073
0.02387467 0.289351 -0.64601773 0.627704 -0.4781076 -0.28972375 0.68781155 -0.17493679
0.39662793 -0.46673328 0.53869134 0.66503644 -0.3653408 0.4579489 0.06293291 -0.118355304

module.graph_layers.0.mlp_msg.0.weight f4 [32, 64]
00000000: 4c42 2a3d 1348 37bd 47a3 b3bd 029a e6bd
00000010: 2238 9fbc 8cc9 063c cce6 e33c 254e c73d
00000020: 01e9 e7bd f3cd 1c3d d645 963d 58db 023e
00000030: 7e7e 3f3d 2c23 123d e502 573d 363a 2abc
00000040: 1ca3 8bbd 0fd3 aebd 6358 b43c 3d53 cf3d
00000050: 7db0 033e 897a e2bd 00f7 863c 9f44 f9bc
00000060: 5bd6 c1bc d9bd c5bd 4d2a 4d3d 9c67 973c
00000070: a4ea 053e c5b1 c9bd b714 c53d 0f95 0a3c
00000080: 6c23 683c 643d 9bbd 79b4 663c 5ecd d53e
00000090: 02d5 573e 0f3d 3c3c ad1f 133d 897d a33d
000000a0: d50c 66bd b654 8c3e f43f c7bd 3073 0cbf
000000b0: 1547 b7bd ce98 f63e 99c9 87be 96db 91be
000000c0: c7e6 e43e 481c 09bd 01a0 0cbd ed15 f1bd
000000d0: eaaf 793e cc08 e6bd 6d03 8c3d ef03 04bf
000000e0: 681a a1be fd75 313e 2c45 303e 01bc 0abe
000000f0: 42fd 70bd 3d15 3f3e 9f4c d63e 3dd2 60be
00000100: 00db 72bd 7886 abbd dca7 bc3d 8b40 573d
00000110: ff90 123e 9de5 b93c 77b4 62bd 4d3b 863d
00000120: dd73 f93c 0052 cdbd af9e d93d 4fc4 f33c
00000130: 68c2 093e c082 043c ac64 13bc 81c7 353d
00000140: 3428 793d 8034 77bd b31e 6fbb 341b b3bb
00000150: eb6f 94bd d41c ca3d df2b 123d 9a8c 1d3c
00000160: 7a2f c73d f90b adbd 366f 943d 91d3 7d3d
00000170: 9a4e fa3d 0ab0 22bd ecf3 593d cf74 6f3a
00000180: fb96 12bf 5e1e 3b3f 416a 73be abb3 a93e
00000190: fd7a 1dbe db26 ac3e 96cd 613e 990f 26bf
000001a0: 91ba 83be 2055 2c3e 492a bcbd 5e67 4f3c
000001b0: 0cfe 2dbd 1db3 173e dcb8 e8bd 813d eabd
000001c0: 7573 313d b4da 0cbe 7b68 95be da46 07be
000001d0: b9b8 643d 812c c8bd 57a5 70bd 7a40 f7bd
000001e0: 8385 ce3c 3b2c 9e3d 522e 1e3e 6abc 14be
000001f0: 92aa 19bf 3765 523e 8364 0a3e d667 4e3e
00000200: 1e39 ca3c 5782 083e 352a 093d 9dd4 2c3d
00000210: 8674 75bd 3ccd bcbd 23df f83d dd7e f33d
00000220: aef7 7f3d e20d 013e e02e 503d e639 8e3d
00000230: 0b2b afbc 325f 9abd 51cf 1dbd 4b6c 853d
00000240: 75e4 c6bc 14b4 6fbd 4e47 353c 32f1 4bbd
00000250: af94 6b3d 6fa2 dcbc 7354 c73d 5376 2bbd
00000260: 9a0b 793d 3bab 80bd ea96 093e 6962 e73d
00000270: a03a bdbc 0d77 d33d 7004 043e 69f3 523d
00000280: 902b 4fbd fab7 4a3e 138f 283e 4301 37be
00000290: 3fc9 023e a8c2 adbd bf2f d3bc d5df 31bd
000002a0: 3862 0ebf 6511 bdbe 65a5 44bf 5d60 dd3d
000002b0: c85a 9bbd 025d cd3d 82b3 bdbe 5379 ce3e
000002c0: 3ce8 f8bd 0753 243e 1c75 473e 1248 503c
000002d0: 9676 80bc 69f3 f2be 928c 613e cf43 743e
000002e0: df27 34bc 62e3 a4be bdd9 47be 2244 743c
000002f0: fae7 3d3d 10bb 53be eb64 f2bc a7af d13e
00000300: 62ce 9fbc 3f34 f4bd 31c6 c6bd 75b3 163c
00000310: b6c8 d03d 49a1 a1bd cfbc b4bd ac37 4fbd
00000320: 43b8 463d 62cf 713d 2ac4 e2bd be42 3dbd
00000330: 2848 a83d 63f3 d8bd f0e8 513d 7088 1dbd
00000340: 6f96 0dbe 5b29 9b3c 32e1 05be 3f70 10be
00000350: d2f5 c83d 177f 97bc 0bdb c5bc 20c3 983d
00000360: cae7 5ebc f8b0 91bd 7864 a0bd 704a f7bd
00000370: 297f f2bd 3894 fabc dc55 03be 58fa dabd
00000380: 9f31 bdbb 72ec 443e 6682 2a3e 48c9 b1bc
00000390: 76db 9d3e 4942 f53d c5f8 6f3e 4d5b ebbd
000003a0: fc60 a4be feab 583d 0b4b 79be fadf c4be
000003b0: e882 21be 2452 183f 814d 4ebe 836f 24be
000003c0: 51e8 14be 7ea0 933c 29d7 393e 6d2d 203d
000003d0: 68fe 953e a2d3 92bd 7c10 8b3e a631 46be
000003e0: 485f 00bf 8c3e e7bd 0893 55bd 61e9 193e
000003f0: 5ed9 c1bd ae6a 25be c308 053c 737b 393d
0.041567132 -0.04474647 -0.08771377 -0.112598434 -0.019435946 0.008226763 0.027820013 0.09731702
-0.11323739 0.038282346 0.07337539 0.12778986 0.04675149 0.035678074 0.052492995 -0.010389855
-0.0681822 -0.0853635 0.022014802 0.10123298 0.12860294 -0.11058528 0.0164752 -0.030428229
-0.023661783 -0.09655351 0.05008917 0.018482022 0.1307779 -0.0984836 0.09623092 0.00845839
0.0141686015 -0.07580069 0.014081114 0.41758245 0.2107735 0.011489167 0.03591888 0.07982928
-0.05616458 0.2740838 -0.09728995 -0.5486326 -0.08949105 0.48163456 -0.26520994 -0.28487843
0.4470732 -0.033474237 -0.03433228 -0.1177176 0.24383512 -0.112321466 0.06836591 -0.515685
-0.3146546 0.17330165 0.17213887 -0.1354828 -0.058835275 0.18660446 0.41855332 -0.219552
-0.059290886 -0.08375257 0.09211704 0.052551787 0.14313124 0.022692496 -0.055347886 0.065542795
0.030450756 -0.10025406 0.106259696 0.029756693 0.13453066 0.008087814 -0.00899617 0.044379715
0.060829356 -0.060352802 -0.0036486804 -0.0054658893 -0.07247909 0.0986878 0.03568637 0.009616042
0.09725852 -0.08449549 0.07247774 0.061969344 0.12222023 -0.039718665 0.053211138 0.00091345323
-0.5726163 0.7309321 -0.23771001 0.33144888 -0.15378948 0.33623394 0.22051081 -0.6486755
-0.25728276 0.16829348 -0.09187753 0.012658922 -0.042478606 0.1481442 -0.11363384 -0.11437512
0.043323 -0.13755304 -0.29181275 -0.13210621 0.055840228 -0.097741134 -0.05875143 -0.12072845
0.025210148 0.0772328 0.15447357 -0.14525 -0.60025895 0.20546423 0.13514905 0.20156798
0.024685439 0.1333097 0.033487517 0.04219495 -0.05992558 -0.09218833 0.12151935 0.118894316
0.062492065 0.12602952 0.050825953 0.06944637 -0.02138283 -0.07537688 -0.03852779 0.06514796
-0.024278859 -0.058521345 0.011064364 -0.04979057 0.057514843 -0.026932923 0.09732904 -0.04186089
0.06080208 -0.062826596 0.13436475 0.11298067 -0.023099244 0.103254415 0.12892318 0.051501665
-0.050578654 0.19796744 0.16460828 -0.17871575 0.12772082 -0.08484393 -0.025779603 -0.043426353
-0.5561862 -0.36927333 -0.7681487 0.108093955 -0.075856745 0.100275055 -0.37051016 0.40326938
-0.1215367 0.16047297 0.19478267 0.012712495 -0.015681546 -0.47451332 0.2202628 0.23853992
-0.010995834 -0.3220473 -0.19516654 0.014908822 0.04636381 -0.20676827 -0.029589137 0.40954325
-0.01950759 -0.11924028 -0.09705771 0.009198059 0.101945326 -0.07892091 -0.08825075 -0.050590202
0.04851557 0.059035666 -0.110725716 -0.04620623 0.08216888 -0.10593297 0.051247537 -0.038460195
-0.13826917 0.018940618 -0.13074186 -0.14105318 0.098125115 -0.018493218 -0.0241523 0.07459092
-0.0136050675 -0.07113832 -0.07831663 -0.12074745 -0.1184066 -0.030588254 -0.12825722 -0.106922805
-0.0057737376 0.19230822 0.16651306 -0.021702424 0.30831498 0.119755335 0.23434742 -0.114920236
-0.32105243 0.0528984 -0.24345033 -0.3845213 -0.15772593 0.59500337 -0.20146753 -0.16058163
-0.14541747 0.018020865 0.18148483 0.03910582 0.2929566 -0.07169272 0.27161014 -0.19354877
-0.5014539 -0.11291227 -0.052142173 0.15030433 -0.094652876 -0.16153976 0.008119765 0.045283746

module.graph_layers.0.mlp_msg.0.bias f4 [32]
00000000: 369e 67bb 15d0 68bd 60a6 cfbd 3e37 8d3d
00000010: 873c a93d 99a1 09bd 0133 173d fcf9 073e
00000020: 6409 80bd 7983 d1bb a5e1 46bd 7c51 9dbc
00000030: c1c1 94bd 3f4a c4bd 9d4a 18bd f9a3 9bbd
00000040: bee3 9cbd 682d b73d 9975 91bb 6a74 a0bd
00000050: be72 f1bd 1274 cf3c 62ce f0bc 9de0 40bd
00000060: 917a 83bd 62f1 08be e5f9 ecbc b747 c23d
00000070: e5ab d4bd 5b06 a1bd f70a ad3c 3341 e03c
-0.0035342104 -0.056839067 -0.101391554 0.06895302 0.08263498 -0.033601377 0.036913875 0.13278955
-0.06251791 -0.0063938466 -0.048555035 -0.019203894 -0.07263518 -0.09584474 -0.03718053 -0.07599635
-0.07660626 0.089442074 -0.0044390676 -0.07834704 -0.117894635 0.025323901 -0.029395286 -0.047089208
-0.06419862 -0.1337333 -0.028927753 0.09486335 -0.10384349 -0.0786254 0.021123393 0.02737484

module.graph_layers.0.mlp_upd.0.weight f4 [32, 64]
00000000: 1fcc 103c ab23 b1bb 462f 09be 7f8f b53d
00000010: 0f9c f13c d72e d2bd 96eb 05be b0d8 bd3a
00000020: 98e0 f5bc 8ef3 ea3c 3879 0cbe e458 9b3d
00000030: dfdc 143c 39f9 403b 74ef 993d 81a4 65bd
00000040: d3b3 373d c77a 03be 5f75 fdbd 9545 dc3d
00000050: 0e65 563d 310d eebd f569 ffbd 67cb 8e3d
00000060: 71f9 eabc 0af2 103d 84e6 ebbd a633 ffbd
00000070: 1f18 383d a3df 393d 27c3 8d3c f2eb 57bd
00000080: b4fc 4c3e 88e4 0bbe b4a8 d4bd 8b59 933d
00000090: d192 73be 2172 113d 74fd 13bd 9d3c 973e
000000a0: 5da8 32be 8648 b4bd 741a c9be 1349 2cbe
000000b0: 4d6d afbe 975a 1a3e ec63 9fbe 7e4a cb3d
000000c0: eeb8 8dbe c223 273d d176 22be 9855 823d
000000d0: b0c8 24be be23 2fbe f2ed edbc 2e99 0c3e
000000e0: 4e81 ce3d 9243 c03e c909 fb3c 0dd9 3abd
000000f0: 346e 163e 9210 043e 649d aa3d 2602 7dbe
00000100: 34cf 413d bc13 45bd 494c c13c d451 1f3d
00000110: a67c 8dbd aff6 fa3b bea1 91bd 363e 9fbd
00000120: f0fa fdbc f68b 223d 9e7a 9e3d 683c 043e
00000130: 6f73 08bd ca9c 643d b864 913d 7ffa 003e
00000140: 498b 113d 6e22 e0bc b665 c93d d4a2 a93d
00000150: e49e 513d 3946 c3bd 4e38 86bd af02 9ebd
00000160: 84db cf3d 6b39 8f3d 1a0c ff3d 7437 903d
00000170: 3d0b 6f3d dbfd da3d 171d 0dbd 0e9c a1bd
00000180: fa76 6f3e 8671 3bbd ff56 543d f598 9ebd
00000190: 2d37 ff3d 76c4 c43c 59e6 debc c8c0 b83d
000001a0: 2ff5 1dbb f389 8cbc 878b 38be 76fd 8c3e
000001b0: 5700 343e 3514 163d f11a 843d f6e1 253d
000001c0: 6e7b 233e 8859 85bc 9834 b0bd b575 b6bd
000001d0: f0f2 293e bc28 883d 9d6b 19be 6284 0ebe
000001e0: 7ed9 d33d 8196 90bc 8384 3bbe 0936 de3c
000001f0: 260c b83d 5f03 31bd 47a2 ddbc 6689 e3bb
00000200: 9d15 75bd 89fb 13bd bf89 dbbc d279 163d
00000210: 5273 913d 7766 103e 4c9c db3d d47d b53d
00000220: e5a0 36bd 342b 9fbc bf15 aebc 0908 0bbd
00000230: f5ae 8f3d 9649 91bd aadb ae3d d161 2dbc
00000240: 79e3 863d eff1 cc3d 3a69 54bd 57a5 bdbd
00000250: 845e 6fbd a22e 82bd c706 c13d f4a0 a93d
00000260: f390 5d3d 7276 5cbd cc55 883d 0495 853d
00000270: d6f1 003d f520 2c3d 387d 003b ce6b 72bd
00000280: 2c25 d23d 494c 0bbe 1b77 a73d 776c b63d
00000290: 41fb a93d dea6 5d3c 55ec 283e 3e72 1dbb
000002a0: 1182 cebd 5761 c93d 1245 2a3e 117a 1d3e
000002b0: 7681 a2bd 1158 16be 2cc1 3c3d 2c5a 143d
000002c0: f53d fabc d457 05bb 7a18 f13d 8b97 cc3d
000002d0: 1723 723e 06f6 dcbc becc a93c 317a 6c3d
000002e0: 80be f2bc 40e7 20bc 6a71 5abd 70ee a1bd
000002f0: 154d 99bc 7e78 b03d 3808 a4bd aac2 823d
00000300: e237 043d d212 55bd 001c 2ebc ac7f 05bc
00000310: 2d92 b7bd a19f cc3d 9707 6ebd bc80 95bd
00000320: 15ed d43b 8fc7 123e af28 d53d 1f4f aabd
00000330: cb99 223c 534b d4bd cda2 be3d 8cb1 443d
00000340: 2580 053e 0d7a f03d 1afe bbbb a49c 7fbd
00000350: 266e aabd 8eff 0d3e b097 62bd af6c 9dbd
00000360: 939e cdbd e692 f93b c069 e93c faa5 55bd
00000370: e26b d53d 416c 7abd 9ebe dabc bf3e 5dbd
00000380: f879 513e c5de b5bc 026c 0abe 7bde d03e
00000390: a81b e7bd 7927 e03e bc63 36be e489 1bbe
000003a0: 19b9 573e f988 623e 9399 36bd a390 50bd
000003b0: 358a 753e 8975 82bd 091f 773e bdcf 893e
000003c0: 66c1 ae3c abe5 e3bd 31d9 0c3e c074 023e
000003d0: 1fc6 083e 29d9 b9be fb84 643e 35be 82bd
000003e0: a748 29bd 7468 c63e 5f35 02be 6f20 a33e
000003f0: 8e68 53be 6ffb c33d 77d3 913e b9a4 cbbe
0.008837729 -0.0054058633 -0.1339694 0.0886526 0.02949336 -0.1026284 -0.1307815 0.0014484134
-0.030014321 0.028680589 -0.13718116 0.07585314 0.009085863 0.0029445423 0.07516375 -0.056065086
0.044849228 -0.12839805 -0.123759024 0.10755459 0.052342467 -0.1162361 -0.124713816 0.0697239
-0.028683396 0.035387076 -0.11518577 -0.12461023 0.04494488 0.045379292 0.01730497 -0.05271525
0.20018274 -0.13661397 -0.1038374 0.07194813 -0.23786475 0.035509232 -0.036130384 0.29538432
-0.17447038 -0.08802895 -0.39277995 -0.1682475 -0.34263077 0.1507362 -0.31130922 0.09926318
-0.27680153 0.040805586 -0.15865637 0.06363982 -0.16092181 -0.17103478 -0.029044125 0.13730308
0.10083257 0.37551552 0.030644314 -0.045617152 0.14690477 0.12896946 0.08330801 -0.24707851
0.047316745 -0.048114523 0.023595946 0.038896397 -0.069085404 0.0076588015 -0.07110928 -0.07775538
-0.031003445 0.03968426 0.07738231 0.12913668 -0.03331321 0.05581359 0.07099289 0.12595557
0.035533223 -0.027360167 0.09833853 0.0828301 0.05117692 -0.09534878 -0.06553708 -0.077153556
0.10149291 0.069933735 0.1245348 0.07041827 0.058360327 0.1069295 -0.03445157 -0.07891093
0.2338523 -0.04576256 0.05184078 -0.07744018 0.12461696 0.024019461 -0.027209448 0.09021145
-0.002410244 -0.017155623 -0.18021975 0.27537125 0.17578255 0.036640365 0.06450451 0.040498696
0.15965053 -0.016278043 -0.086037815 -0.089091696 0.1659658 0.066483945 -0.14982457 -0.13917688
0.10344218 -0.01764989 -0.18312268 0.027125375 0.08986692 -0.043216106 -0.027054919 -0.0069438694
-0.059835065 -0.036128554 -0.02679908 0.03673727 0.07102074 0.14101587 0.10723171 0.088618904
-0.044587035 -0.01942978 -0.021250604 -0.03394321 0.07015792 -0.070941135 0.08537991 -0.010582403
0.06586356 0.10007083 -0.051858164 -0.09260052 -0.058439746 -0.06356551 0.09425121 0.082826525
0.054093312 -0.053823896 0.066569895 0.06522563 0.031480633 0.042023618 0.0019605886 -0.05918484
0.10260996 -0.13603319 0.081770144 0.08907407 0.08299876 0.013528554 0.16496404 -0.0024024392
-0.10083402 0.09833019 0.1662791 0.15378596 -0.07934849 -0.14682032 0.04608266 0.036218807
-0.030547122 -0.002034654 0.11772247 0.09989842 0.23646198 -0.026972782 0.020727511 0.05773372
-0.029631853 -0.009820759 -0.053330816 -0.079068065 -0.018713513 0.08616732 -0.0800938 0.063847855
0.032279857 -0.0520199 -0.010626793 -0.008148115 -0.08963428 0.09991384 -0.058112707 -0.07299945
0.006497989 0.14333938 0.104081504 -0.083158724 0.009924362 -0.103659295 0.093083955 0.048020884
0.13037165 0.11742029 -0.0057370784 -0.062405244 -0.083217904 0.13867018 -0.05532044 -0.076867454
-0.10040011 0.0076163886 0.028492808 -0.05216024 0.10420968 -0.061138395 -0.026702221 -0.054014917
0.20456684 -0.022200951 -0.13517764 0.4079474 -0.11284572 0.43780115 -0.17811483 -0.1518932
0.21066703 0.22122563 -0.044580054 -0.050919186 0.23978503 -0.06370074 0.24132933 0.26916304
0.021332454 -0.1112779 0.13754727 0.12739849 0.13356827 -0.36298493 0.22316353 -0.06383935
-0.041329052 0.38751566 -0.12715672 0.31860682 -0.20645353 0.095694415 0.28481647 -0.3977411

module.graph_layers.0.mlp_upd.0.bias f4 [32]
00000000: 5a78 983d c5ba 9ebd 593e 93bd 6b99 b13d
00000010: 42f2 7c3d 7398 253d f66b a13d b537 a5bd
00000020: 25f6 013e f687 f3bd be9e 793c 94e9 e1bd
00000030: 176d 143d 0d75 2b3c 7996 ad3d 2f7d bebd
00000040: 7400 533c 6542 e5bd 7a06 19bd fc21 733d
00000050: fd2f b13d 6cba 0e3b 455c 263e c7b3 c9b9
00000060: 86bd c53d 3669 57bc bafd e9bb 4354 92bc
00000070: f12a bdbd 24ca 36bd aeba 98bd 4860 4dbd
0.0744483 -0.07750467 -0.07189626 0.0867184 0.061754473 0.04042859 0.0788192 -0.08067266
0.12691553 -0.11891167 0.015235601 -0.110308796 0.03623685 0.010464919 0.08475966 -0.093012206
0.012878526 -0.111943044 -0.037359692 0.059358582 0.08651731 0.0021778597 0.16246136 -0.00038471652
0.09655289 -0.013147643 -0.0071408423 -0.017862445 -0.09236706 -0.04462637 -0.07457481 -0.05014065

module.graph_layers.1.mlp_msg.0.weight f4 [32, 64]
00000000: 52f6 f33c 3006 2abd b2cc 083e 17f9 eebc
00000010: 6aaf a83d 5c15 86be d987 1abe 31fa ac3d
00000020: 9f00 083d 0aab ffbd d9d8 473e da18 04be
00000030: 9174 333e bfb6 53bc aeba 19be bf8b e33c
00000040: 56df 5d3d 7a08 3cbb 4e56 cbbd f2d6 a2bc
00000050: b24f e03d 6936 b43e 7b92 493e 8d5a 3e3c
00000060: 5eee 143e 6ae7 9dbc 36aa 0abe 7f6b bd3b
00000070: f70c 1abe 172c 2d3e 06fa 3cbe da15 493e
00000080: acea 1b3d b963 7a3e 0767 4c3e 69aa af3e
00000090: 7ecd ed3d bca4 6d3c a825 be3c 0fa3 4fbe
000000a0: 2d75 d73d 9663 403e 7df8 b83b 7fee d83e
000000b0: 4854 913c 0fd5 b3bd d835 733e 06cb 3fbd
000000c0: acb0 473e 7759 36be 0876 203e e71c a43e
000000d0: 78e0 09bd 5d19 21be 2a45 e4bc bcce 93be
000000e0: 8278 8b3d bff6 763e f617 80bc bd2f 85ba
000000f0: 0af6 253e eed6 e53c 83fa 743c 54ba a7bd
00000100: 96f3 57bd 60aa 853c fa56 c5bc af03 2a3e
00000110: 3371 50bd 4494 c6bb 0252 643d 8b4a a33c
00000120: 7975 bd3d 63be b83c f59d c13d f819 1c3f
00000130: ed6b a93d fa31 893d 9931 eabb 8668 bfbe
00000140: 92e9 f7bd ddcf 363e 61cc 173c b59d 483e
00000150: d7bb 063e 1717 b13d 9693 59bd 8ee1 84bc
00000160: 59f1 11be d2eb d23c 9e6f eebd da68 6dbd
00000170: 84af 1e3d c07f 1fbe 3d10 d0be 8f0e 8dbd
00000180: 6961 493e 8d40 4d3d aa0a c63d 55ce fa3d
00000190: 2841 2b3e e8e4 b73e 426d 6f3d 2743 833d
000001a0: afa2 373e e7e0 16be 2bea 78be dfbd 6bbe
000001b0: bfeb 01be 3b76 113e e886 a7be 6d8c 47bd
000001c0: ad62 47be 3c7b eabb c5ce dabd cf71 77be
000001d0: a1f9 a4bd 55d6 49be 5a31 bfbd 92b0 393e
000001e0: b949 adbe 7a71 683e c73d 843e dd6b 663d
000001f0: afc4 80be b812 5b3c 98d6 6b3e 7de9 33bd
00000200: b290 0c3b 01fb 733c 7835 353d e673 403e
00000210: d413 c7bd 0caa de3d 0cc4 663e 3058 683e
00000220: 4739 91be 8584 fa3b 90f6 a2bd 56bd 683e
00000230: 86fd 17be aa4e 7d3d da6b f9bd 794d 4bbe
00000240: e693 493e 5b50 15be 5312 95be 8e6c 483e
00000250: eaeb 9c3d 544f 99bd 0c78 9fbd 9273 153d
00000260: f07b 59bd be20 29bd 7b74 d2bd 5c3d a4be
00000270: cd8e 153e 36fb 68bd 0f29 98bb 9cb7 35bd
00000280: b559 08be f6a1 23bd db59 dd3c 3f4e 82be
00000290: 5835 fabe 578b 4b3e 0d1b 093e 7cdb 9dbc
000002a0: e8f7 9fbe c9b1 443e 993b 3fbe f602 863d
000002b0: 6f92 d63d 75b0 343b c141 a0be ac66 bf3d
000002c0: 3cfa ecbd 4844 133e d0a1 ca3d 9bfa c73e
000002d0: b83e 073d f9f4 903d 14de 7abe b81f 8bbd
000002e0: f072 d73e 4dfb 09be 0f08 18be b8ec 463e
000002f0: 59f9 14be e72a 9b3d adff 383e fd1a 5ebe
00000300: 7ff4 9bbd 028a c5bc e980 46be e480 5fbd
00000310: c32a dcbd 42ee 083e ee34 e73b 00cc 073e
00000320: 75f2 973d ef24 703d 6673 dcbd db81 c9be
00000330: c8fb 233d 92ef 6cbe bad8 3fbd a7db 1e3e
00000340: 30fc 97bd a2d8 e2bb e495 6ebe 96e3 b5be
00000350: 3a42 e63d 3ed4 123c 662f 21bd 1792 2bba
00000360: a10f a5bd e6b2 0e3d 71db 50bd 31ea 94bd
00000370: 770e 20bd 5d34 383d d9b0 f83d a9a1 943d
00000380: 479d 913e 6fc6 153e a8f8 84be efce 5c3d
00000390: 3570 90bc e62c b13e 346f 023e 037f ef3c
000003a0: b312 50be 0f08 e73c ed5f 05be 7ab0 cabd
000003b0: 5080 9dbe d364 09be f051 2fbc 663b 133e
000003c0: 4f22 11be be59 5dbd 95db 913d c4c5 9fbe
000003d0: 07f4 ffbd cbe1 f9bd 79ec 963e 2743 ac3e
000003e0: 1492 9cbe 8e61 acbb c44e 80be dd07 4f3e
000003f0: 5b1b c03d 73fa c1bd f589 093e d28b 85bb
0.02978054 -0.041509807 0.13359335 -0.02917151 0.082365826 -0.2618817 -0.15090884 0.08446158
0.033203717 -0.12483795 0.19516315 -0.12900105 0.17524935 -0.012921988 -0.15012619 0.027776597
0.054168068 -0.0028691576 -0.09928571 -0.019877885 0.10952701 0.35197762 0.19684784 0.011618269
0.14544055 -0.019275386 -0.13541493 0.005780637 -0.15044008 0.1691135 -0.18454751 0.19637242
0.038065597 0.24452104 0.19961177 0.343097 0.1161146 0.014504608 0.023211315 -0.20277046
0.105203964 0.18787989 0.0056448565 0.42369458 0.017740384 -0.08780872 0.23751009 -0.046824478
0.19500989 -0.17807566 0.15670025 0.320533 -0.033661336 -0.15732332 -0.027865011 -0.28868663
0.068100944 0.24117564 -0.015636425 -0.0010161322 0.16207138 0.028056588 0.014952305 -0.08189836
-0.052722536 0.016316593 -0.024089325 0.16602968 -0.050889205 -0.006060155 0.05574227 0.019933006
0.09250922 0.022551721 0.09453956 0.60977125 0.08272538 0.066989854 -0.007147026 -0.37384433
-0.12105097 0.17852731 0.009265036 0.1959141 0.13157593 0.08646982 -0.053119265 -0.016220834
-0.14252223 0.025747214 -0.11642383 -0.057961322 0.038741603 -0.15576077 -0.4063739 -0.068875425
0.19666065 0.05011039 0.09670003 0.12246386 0.16724074 0.3591683 0.058453806 0.06409293
0.17933153 -0.14734231 -0.24308078 -0.23021649 -0.12687586 0.14205258 -0.32720113 -0.048717905
-0.19471236 -0.007155804 -0.106839694 -0.24164508 -0.080554254 -0.19710667 -0.09335585 0.18133762
-0.33845308 0.22699538 0.25828382 0.05625521 -0.25150058 0.013371162 0.2303108 -0.043923844
0.002144855 0.014891387 0.044240445 0.18794212 -0.09720579 0.108722776 0.22535723 0.22689891
-0.28364012 0.007645192 -0.07957184 0.22728476 -0.14842805 0.061842598 -0.12178774 -0.19853772
0.19685325 -0.14581434 -0.29115543 0.1957266 0.076621845 -0.07485834 -0.07786569 0.03648717
-0.05309671 -0.04129099 -0.10276123 -0.32078063 0.14605255 -0.0568802 -0.0046435664 -0.044364557
-0.1331547 -0.03994938 0.027020385 -0.25450322 -0.48868823 0.19877373 0.13389225 -0.019269697
-0.31243825 0.19208445 -0.18675078 0.065435335 0.10477149 0.0027570997 -0.31300166 0.09345755
-0.11571166 0.14381516 0.098941445 0.39058384 0.033018798 0.07077975 -0.24498779 -0.06793159
0.42079878 -0.1347477 -0.14846824 0.19426239 -0.14548244 0.07576542 0.18066283 -0.21689983
-0.07614993 -0.024113659 -0.19385113 -0.05456628 -0.10750344 0.13372138 0.0070558703 0.13261414
0.07419292 0.058628973 -0.10764198 -0.39356884 0.04003504 -0.23138264 -0.046837546 0.15513478
-0.07421148 -0.0069227973 -0.23299366 -0.35525197 0.112431005 0.008961735 -0.039351843 -0.00065449014
-0.080596216 0.03483858 -0.050990526 -0.07271231 -0.039076295 0.044971813 0.12143106 0.07257397
0.28440306 0.14626478 -0.2597096 0.053908285 -0.01763163 0.34604567 0.12737733 0.029235369
-0.20319633 0.028202085 -0.13024874 -0.098969415 -0.30761957 -0.13417368 -0.010700688 0.14378127
-0.14173244 -0.054040663 0.0712196 -0.3120557 -0.124977164 -0.1220127 0.2947729 0.33644983
-0.305802 -0.005260653 -0.25060093 0.20217843 0.09380218 -0.094715975 0.13431533 -0.004075506

module.graph_layers.1.mlp_msg.0.bias f4 [32]
00000000: a761 c7bd 4e2b 4abd 60b8 0b3d edf5 7abc
00000010: d334 b2bd 6218 5d3c 68b7 ecbc 9824 973d
00000020: 8ba7 cfbd 7f17 ae3c 63ee 083d c0d6 d3bc
00000030: 296d 643e 1129 b1bc a793 c03d 0884 85bd
00000040: 377b f5bc d02d fa3d a149 73be 9483 843d
00000050: bf7e 593a 5f4f 993d 9f83 0cbd aac4 9ebe
00000060: da94 55be b928 07be 9424 42bd a1eb d6bd
00000070: b575 65bd bcd7 29bd 427a 04be 9230 0b3d
-0.097354226 -0.049357705 0.03411138 -0.015317422 -0.08701482 0.013494583 -0.028896049 0.073800266
-0.10139378 0.021251438 0.03343047 -0.025859237 0.22307266 -0.021626027 0.094031624 -0.065193236
-0.02996598 0.12215769 -0.23758556 0.06470409 0.00082967797 0.07485842 -0.03430521 -0.31009418
-0.20857564 -0.13199128 -0.047398165 -0.104941614 -0.056020457 -0.041465506 -0.12937263 0.033981867

module.graph_layers.1.mlp_upd.0.weight f4 [32, 64]
00000000: 7538 59bd e9da 863d aa98 e1bc 2e47 cbbd
00000010: dd45 ef3d 940b 773d 8cf5 5d3e 35fb 1b3e
00000020: 8bab f4bd b764 3ebd 2e88 f9bd 7871 ecbc
00000030: b118 fe3d 1044 71bc 8b25 1abd 23fe 0b3e
00000040: 9383 62bc 9a95 b53d ea0d 9cbe 6ec2 4abd
00000050: 2308 cb3d bd92 0abe cdab 7d3c 2ee8 883d
00000060: ea4f b1bc e3ab ea3d 2d76 0bbc b9e7 4e3d
00000070: 73cc 67be 793d ab3d 3cf3 94bd f9a1 f13b
00000080: 0c04 d73d 3e38 60be fa27 c5bd dc2f 8ebe
00000090: 2117 63bd 0a2f 1c3e 1225 603e 558c 1cbd
000000a0: 5546 5dbe 0232 8bbe 2c5a b9bd fc52 c8bd
000000b0: 5c64 bdbd 9f5e acbd d556 78be 9969 12be
000000c0: 1d6e 6c3e a3fd 8d3d dc0e 2bbc fd83 10bd
000000d0: 5d55 9fbd 5086 9ebd 883e 283d e7f5 bf3d
000000e0: e61d 9f3e 89ba 8ebc 4077 583d 735f 0abe
000000f0: baaa dc3d 6fa4 f4bd 058f 493e d26e f9bd
00000100: 3035 183e 0abf 01be 7c8c 08be 2db2 e93d
00000110: 50f0 8e3e 8cf2 263c 1207 153c 4450 27bc
00000120: 7802 a53d 7fb9 4abe 79bd 90bc 3613 4e3d
00000130: 1ed2 45be d6b6 8a3e defa b93d 15f8 dbbc
00000140: 41db bebd 122a f5bc c070 153e 1b49 ba3c
00000150: ce99 9a3e 69a8 debd 08b1 04be 6d33 bbbd
00000160: 36cc 543e 398e f03d 208a 0a3e 9e05 45bd
00000170: a27e 403e 6627 ff3c 8a35 a0bd e382 ffbd
00000180: 2565 ac3b 0392 2c3e 387e 953d f988 ac3e
00000190: bb1d 9fbd a6fe 1fbe 0fa0 35be 8b07 00be
000001a0: 8de3 1d3d 022a 8d3e 4b98 52bd fc12 7abc
000001b0: 3897 613d dc49 a9be d7f9 d83d 5ab1 be3d
000001c0: 619c bcbd 81ad b3bd 1afc 993d 4c40 00bf
000001d0: 56de 0ebe b2c9 213d 17f5 c4bd f55a cc3d
000001e0: f9de 913d b704 eabd 4693 24be dd9f 52bd
000001f0: a107 953d 258b 0d3e b2a1 4bbe 3334 6e3e
00000200: 8cf1 2c3d e04c 963d 3c6c 0e3e f070 54bd
00000210: 9c67 283e 7d9e db3d c922 98bd 5b1c 273d
00000220: 5c67 273e 12e8 2b3e c71f 833a 1585 023e
00000230: d276 90bc 8b3d acbd a55c 623d db6a 8e3d
00000240: d42f cb3e 27b0 183e a6a4 87bd 4194 10be
00000250: 806b 01be 715c bfbd 4243 87bd 237d 8bbd
00000260: e90a 03be 981d 2b3d 2415 08bd 4d40 2bbe
00000270: 1dcb 923d f1b3 563e 5933 483e efc2 0e3d
00000280: abce 69bd 6e53 1cbd 3e82 583e 12cc 01be
00000290: 19ea bbbd 9f9c cabd 936e 2fbd e5e8 343e
000002a0: fb58 e2bd 83f0 fd3d 0462 a73d 6619 6bbd
000002b0: cb98 3dbc 3159 633d 6c75 b03d 0e3a 103d
000002c0: 6a1f 8bbd 0a61 9dbd 247b b9bd a317 66bd
000002d0: 2558 2cbe c559 c13d adce 173e 491d 4f3d
000002e0: dc4c 343d ddca b63b 7a48 3d3b 1ee5 d43d
000002f0: 7624 b0bd e9b1 14bd dfb6 bd3d 4910 04be
00000300: ede7 2f3d 6e08 873d 7bee 383d 3824 7c3d
00000310: 786a b2bd fea3 6ebe 620c 26be 29fa cabd
00000320: 8c56 ed3c 22b9 0abe e6ee b03e 0b3a 243d
00000330: 42ea 053e dded f63d ea74 783d d827 2cbd
00000340: d28a 673e a3a4 99bd 1a8a f33c 5c19 9cbc
00000350: ea6a 37be c623 2bbd 3ac6 003e 706f 31be
00000360: 1f43 603e 0a6e b9bd e836 c23d 6570 063e
00000370: 3e5a d73a c9ce d93d 7c71 9bbd baa3 bd3d
00000380: 51d3 e8bd 4696 0abe f32e fabd 6230 78be
00000390: 9a3f d03d 1afe af3c 4799 533e dd73 22bc
000003a0: 2159 c73c 6813 7fbc 1900 2b3d e006 133e
000003b0: 082a afbe 5eb1 e13d 9ccf 3d3d 4985 07be
000003c0: 4bf2 6f3e 5fe0 99bc aa7d 6e3c 1506 e53e
000003d0: 3194 81be 6ed1 ccbd 5ebe fa3d efb2 223c
000003e0: d775 403d 21e9 b1bc 0add 423d 162e 8b3b
000003f0: 9a2a 2abd 671e 3abe 12c0 583e 2812 50be
-0.053032357 0.065847225 -0.027538616 -0.09925686 0.11683247 0.060313776 0.216757 0.15232547
-0.11946782 -0.046482768 -0.12184177 -0.0288627 0.12407053 -0.0147257 -0.03763346 0.13671164
-0.013825315 0.08866425 -0.30479366 -0.04950183 0.09913661 -0.13532539 0.015482855 0.0668491
-0.021644551 0.11458566 -0.008512062 0.050513957 -0.22636585 0.08361334 -0.07272956 0.007374045
0.10498819 -0.21896455 -0.096267655 -0.2777089 -0.05544198 0.15252319 0.21889141 -0.03821977
-0.21608861 -0.2718659 -0.09050402 -0.09781453 -0.09247658 -0.08416485 -0.24251874 -0.14298095
0.2308888 0.06933143 -0.0104405545 -0.035282124 -0.07779954 -0.07740462 0.04107526 0.09373074
0.31077498 -0.017422931 0.0528481 -0.13512973 0.10774751 -0.11945426 0.19683464 -0.121793404
0.1486404 -0.12670532 -0.1333484 0.114109375 0.2791772 0.010189664 0.009095924 -0.010212008
0.080571115 -0.19797324 -0.017668473 0.05031129 -0.19318435 0.27092618 0.09081052 -0.026851693
-0.09319163 -0.029927287 0.14593792 0.022739938 0.3019547 -0.108719654 -0.12958157 -0.09140668
0.20781025 0.11745877 0.13529253 -0.04810106 0.18798307 0.031146716 -0.07822712 -0.124761365
0.005261081 0.16852574 0.07299465 0.33698252 -0.077693425 -0.15624484 -0.17736839 -0.12502877
0.038547087 0.27571112 -0.05141477 -0.015263315 0.055075854 -0.33064163 0.10594528 0.09311171
-0.092095144 -0.087733276 0.07518788 -0.5009811 -0.13952002 0.039498992 -0.0961706 0.09978286
0.07122607 -0.114266805 -0.16071805 -0.05142199 0.07276846 0.1382261 -0.198859 0.232621
0.042222545 0.073388815 0.13908476 -0.051865518 0.16445774 0.107235886 -0.0742851 0.040798526
0.16348022 0.16787747 0.0010003977 0.1274608 -0.017634783 -0.08410176 0.055264134 0.06953975
0.39684927 0.14910947 -0.06623201 -0.14119054 -0.12638664 -0.09343804 -0.06604625 -0.06810977
-0.1279713 0.04177627 -0.033223286 -0.16723748 0.07167647 0.2096708 0.19550838 0.034853872
-0.05708186 -0.038165502 0.21143433 -0.12675503 -0.0917551 -0.09893154 -0.04283006 0.17666967
-0.11052128 0.123993896 0.08172992 -0.05739727 -0.011572073 0.05550498 0.086161464 0.035211615
-0.06793101 -0.07684524 -0.0905669 -0.056174885 -0.168305 0.0944095 0.14824934 0.050565038
0.04401861 0.0055783824 0.002888231 0.10395263 -0.08600704 -0.03630248 0.092633955 -0.12896837
0.04294579 0.06593405 0.045149308 0.06155798 -0.087117136 -0.23304746 -0.16215661 -0.099109955
0.028971933 -0.13547185 0.34557265 0.040094417 0.13077644 0.120570876 0.060658373 -0.042030185
0.2261155 -0.07502105 0.029728938 -0.019055061 -0.17911878 -0.041782163 0.12575617 -0.17327666
0.21900605 -0.090541914 0.09483129 0.13128813 0.0016430093 0.10635144 -0.07590005 0.09259744
-0.113684304 -0.13533887 -0.12215986 -0.24237207 0.10168381 0.02148347 0.2066394 -0.009915319
0.024334492 -0.015568592 0.04174814 0.14358091 -0.34211755 0.11020158 0.04634057 -0.13234438
0.23432271 -0.018783746 0.014556328 0.44731203 -0.25308374 -0.10000883 0.12243341 0.009930356
0.04698738 -0.02171761 0.04757408 0.004247437 -0.041544534 -0.1817566 0.21167019 -0.20319426

module.graph_layers.1.mlp_upd.0.bias f4 [32]
00000000: 197c 3c3b 4611 2fbe 5ef2 a9bd 061b ca3d
00000010: eaa0 143d 8005 8a3d 70ae 0d3e d5a1 84bd
00000020: d39d 853d 939e 873e 78f0 85be 69c7 953d
00000030: 6fcc 243d 68c5 92bd 39d8 b83d 6d9a c0bc
00000040: f3b6 92bc dcc2 00be cb02 953d c8b7 1bbe
00000050: aa32 983d 9816 0a3e 9db8 cd3d 56d3 033e
00000060: 1154 bbbc 4c20 453c 97ac 573e dfe7 503d
00000070: a8a8 283e dee8 d3ba 6d65 42be 127e 01be
0.0028760491 -0.17096433 -0.08298181 0.098684356 0.036286272 0.0673933 0.13836074 -0.064761795
0.06524243 0.2648817 -0.26160026 0.07313425 0.040234026 -0.071665585 0.09025616 -0.023511136
-0.017909503 -0.12574333 0.07275923 -0.15206826 0.074315384 0.13485181 0.10044978 0.12873587
-0.022867234 0.012031626 0.21061932 0.05100238 0.16470587 -0.0016167422 -0.18984003 -0.12645748

module.graph_layers.2.mlp_msg.0.weight f4 [32, 64]
00000000: f265 ca3c 2da8 0d3e 4033 86be 553d b13d
00000010: 4d59 983e 9cf3 523e 7f37 96bd 6812 efbc
00000020: 6522 81bd 40a7 383d 0930 283c 4f56 46be
00000030: ce4d 02be ce6a 933d 85e1 de3d 2c6c 09be
00000040: 487d aabb efee 67be 0c67 a3be da28 ce3c
00000050: 0955 02bd f1a2 e4bc 3ecc a7bd 196c 82be
00000060: f07f 1ebe 8473 4b3d fd71 4bbe 4cd4 a1bd
00000070: 0d88 a23e e7ed b2bd ca16 d23e 4480 92be
00000080: 0d47 95be 777d c4bb 0d90 debc 9165 3dbe
00000090: 9e71 1bbe 8030 213c ce8e 12bd 50ed ec3d
000000a0: 87a9 1b3e b792 b73d 4707 803d 84a7 573e
000000b0: 03e2 293c 0273 2fbd b045 413e 7872 f03d
000000c0: b89b bd3d b60f f5bc 51dd 463d e120 933c
000000d0: c64b 81bd 72c8 92bd 959f 4a3e c6de fdbd
000000e0: 80ee 20be 0341 05be 1709 14be 5cea dcbd
000000f0: 5b6c 533e 7fb6 8abe 9d3e 513e fb17 9b3d
00000100: 8b0c e13c bd81 733d 490b 84be 878c 193e
00000110: 6605 e8bd 6c79 e4bd 6d7a 2c3d 95f1 69be
00000120: a341 be3d 5ae0 a33d f94b 493d 87d5 57bc
00000130: 3836 a83e 2e55 df3a 87e6 f2bd 5cb3 0a3d
00000140: a2fa 78bd de57 1c3e 3c35 06be c9a6 04bd
00000150: f17d 3bbc 83ac b2bc 0332 dc3b 893d 333e
00000160: 756d 1cbe ccf8 963d 48d0 bfbd 1420 4e3d
00000170: e386 fb3c e280 56be bda7 aabe ddbd 69be
00000180: fd92 afbc 466f 133d a110 e0bd 9ebe a13d
00000190: 4c13 a03d 9b61 0fbe fa62 273e 0194 6d3e
000001a0: 63e8 563d 43ec e5bd b2f9 98b9 7027 c13a
000001b0: 63f2 36be 7716 c63d cbd3 e1bd e747 a4bd
000001c0: d2c9 863d 1f7d c23c a2df fb3c 500b 9bbd
000001d0: 3c85 84bd c8f1 183e 9604 0a3e d3cf 6dbd
000001e0: 876a b23d 32ba 9b3e f25a b1bc c9d3 9cbd
000001f0: 1fa4 113d c0e5 1dbe 808c 5b3e d936 cf3d
00000200: 9e6b a0bc 9fd5 fd39 5ea7 0d3e a2bf 143e
00000210: 5f7c 863d 81ba 093d d924 ecbd b9fd 22bd
00000220: 33df eebc 8bbf d8bd 595f d7bd b23e b13d
00000230: 2f31 dbbe c1a4 33bd 59b6 9cbe 059f 1bbe
00000240: 5519 bc3d 9cae 34be e5a3 c13d be79 81bc
00000250: 6021 8cbd f89d be3b e49e 52bd 6b63 78be
00000260: ad6f 453e 303d bcbc 9d53 8a3d 60dc 3a3e
00000270: 09c0 e63d c93f 2f3d 2954 f33b 427f 433e
00000280: 734e f0bd d555 22be 17fc c13d 2792 283e
00000290: 0acd fd3d 5e52 9cbd 7e3e 23be 94ae 3d3e
000002a0: 10cc 68bd 5bf2 603e 67c9 9d3d fe8d b63d
000002b0: 4b12 433e 48f4 b2bd 96b0 a43d cf79 f0bd
000002c0: 2c22 ffbd 8498 f1bd e628 96bd 8ecb bcbe
000002d0: 094a 823e 7dca 903b 73e2 78bc c8dc 803e
000002e0: 0a1f e63d 0fe1 1a3e 2acf 82be 26d9 98bd
000002f0: bcb7 79bc 2e36 903e ae7e afbd 066d ec3d
00000300: 1425 a73d d346 433d a884 e1bd b4b0 2ebd
00000310: 75ec 4cbd 8f53 e63c cf78 ccbd e21a 473d
00000320: 5876 31be d6ba d0bd b9e7 fd3c b5a5 adbe
00000330: 602f 80be 0513 41bc abcb a13c ad04 9c3d
00000340: 667e 09be 3d78 b73d 0124 2dbd 01b0 0cbd
00000350: 0cc9 b23d 8712 35bd 4491 9bbc 7481 1bbd
00000360: 756f 6fbd 7439 1a3a 8f3c 0e3e bf26 92be
00000370: 8900 b13d 3dea 9bbe 6735 3abd 4b2d 16be
00000380: 861c ff3c b9de a3bd 7494 ff3d 85cb 2bbd
00000390: 05ab 4bbd b21c febb a280 053e e5b3 aabc
000003a0: 0ae2 47bd 52c2 10be 883a f73d 5f44 09be
000003b0: 38e3 8fbd 00ce 193e a5e5 d83d 6c02 2f3e
000003c0: a7c1 073e cfc3 333e e164 5fbe d650 d4bd
000003d0: a030 b5bd 3a62 583d 6ada 333e d7de 593d
000003e0: 2b34 4ebd 59df b93c 0581 9f3d eb55 ac3d
000003f0: 4779 de3b 751b 98be 93da 123e 657d f53d
0.024706814 0.13833685 -0.26210976 0.08654276 0.2975563 0.20600742 -0.07334804 -0.029183581
-0.06305388 0.045081377 0.010265359 -0.19368862 -0.12724993 0.07198106 0.10882858 -0.1342017
-0.005202923 -0.2264974 -0.31914556 0.025165964 -0.031819377 -0.027909728 -0.08193253 -0.25473097
-0.15478492 0.04967071 -0.19867702 -0.079018205 0.31744424 -0.087367825 0.41033012 -0.28613484
-0.2915577 -0.005996402 -0.027168298 -0.18495776 -0.1518006 0.009838223 -0.03578072 0.11568701
0.15201388 0.089635305 0.06251388 0.21059996 0.010368827 -0.04283429 0.1887424 0.11740583
0.092582166 -0.029914718 0.048550908 0.017960014 -0.06313281 -0.07167138 0.19787438 -0.12396006
-0.1571598 -0.13013081 -0.14456593 -0.10786888 0.20646803 -0.27092358 0.20434041 0.07572933
0.027471801 0.0594499 -0.2578986 0.14995013 -0.11329155 -0.11155972 0.04210894 -0.22846062
0.09289863 0.08001776 0.04914472 -0.0131734675 0.32853866 0.0017038935 -0.11860376 0.033862457
-0.060785897 0.15267894 -0.13106245 -0.03238562 -0.011443601 -0.021810776 0.006719829 0.17503943
-0.1527613 0.07371673 -0.09365898 0.05032356 0.030703967 -0.20947602 -0.333311 -0.22826333
-0.021432394 0.03599479 -0.10940672 0.078976855 0.078161806 -0.14002077 0.1634635 0.2320099
0.052467715 -0.11226704 -0.00029177737 0.0014736485 -0.178659 0.096722536 -0.110267244 -0.08021527
0.06581463 0.023741303 0.030746285 -0.07570517 -0.06470725 0.14935982 0.13478312 -0.058059525
0.08711725 0.30415493 -0.021649811 -0.07657582 0.03555691 -0.15419674 0.21440315 0.10117883
-0.019582566 0.0004841508 0.13833377 0.14526227 0.06566691 0.03362513 -0.11530466 -0.03979275
-0.029159164 -0.10583409 -0.10516233 0.08654536 -0.42810962 -0.043858293 -0.3060787 -0.1519738
0.09184519 -0.17644733 0.094550885 -0.015805122 -0.06842303 0.005817171 -0.05142106 -0.24256675
0.19280882 -0.022978395 0.06754229 0.18248129 0.112670965 0.04278544 0.007425804 0.19091514
-0.11733713 -0.15853055 0.094719104 0.16462003 0.12392624 -0.07632898 -0.15941808 0.18523628
-0.056835234 0.21967451 0.0770443 0.089138016 0.19049947 -0.08737999 0.080414936 -0.11741983
-0.1245769 -0.11796668 -0.073320195 -0.3687405 0.2544711 0.0044186697 -0.015190708 0.25168443
0.11236389 0.15124916 -0.2554868 -0.07463293 -0.01524156 0.28166336 -0.08569084 0.11544232
0.08161369 0.047674965 -0.1101163 -0.042648986 -0.05003019 0.028116016 -0.0998398 0.04860962
-0.17330301 -0.10191886 0.030994283 -0.33915487 -0.25036144 -0.01178432 0.019750437 0.07618079
-0.13427123 0.089584805 -0.042270664 -0.034347538 0.08729753 -0.044207122 -0.018990166 -0.037965253
-0.058455903 0.0005883195 0.13890289 -0.28545186 0.0864268 -0.30452147 -0.045461085 -0.14665715
0.03114153 -0.08001465 0.12479487 -0.04194214 -0.049723644 -0.0077548856 0.13037351 -0.020837734
-0.048799552 -0.14136627 0.12071711 -0.13404988 -0.070257604 0.15019989 0.10590676 0.17090768
0.13257466 0.17555164 -0.21815826 -0.10366981 -0.08847165 0.05282805 0.17563787 0.053191032
-0.05034272 0.022689508 0.077882804 0.08414825 0.0067893597 -0.29708448 0.14341192 0.11986808

module.graph_layers.2.mlp_msg.0.bias f4 [32]
00000000: 168a a1bd 7381 dd3c 7a95 6abc c230 f6bd
00000010: b6f4 9dbd 4907 6b3b df0a fb3d 3c1b 80bd
00000020: 4c02 0fbe c7aa 65bd 4de5 0d3e 369f e63d
00000030: 19aa 17be 8376 97be 4db4 403c 77e0 ffbd
00000040: 6566 e73d c3a7 8e3d 45d6 453c eaeb 92bc
00000050: 09c5 2b3d 65d0 23be 4963 793d 0077 f03d
00000060: 1802 4e3d 47b8 ca3d 4650 a53d 5f02 b33d
00000070: 9cc1 80bd 8ffb f13d 859d ec3d 44eb 343d
-0.07887666 0.027039265 -0.014317865 -0.120210186 -0.077126905 0.0035862497 0.12257933 -0.062551945
-0.1396572 -0.05607107 0.13857003 0.11260836 -0.14810981 -0.29582605 0.011761737 -0.12493985
0.11298827 0.06965592 0.012075012 -0.017934758 0.041935954 -0.15997465 0.0608857 0.117414474
0.050294966 0.09898429 0.080719516 0.087406866 -0.06286928 0.11815559 0.11553482 0.04416968

module.graph_layers.2.mlp_upd.0.weight f4 [32, 64]
00000000: f548 cbbd 3a99 053d b0b2 b0bd b349 093d
00000010: 682a 023e d037 c1bc ed57 16bd a212 563c
00000020: 4f2b 33be d296 58bd d966 02bd cb3d dc3d
00000030: 5ab4 5abc b91f 71bd d23c cdbd c622 d63c
00000040: 80a2 c93d 4a28 853d 4dc0 233d f440 d5bd
00000050: 6742 95bd 06a7 aebc 1f0e 24bd 0a9e 103e
00000060: b613 b1bd 6c26 adbd daa8 5cbd bc13 4a3d
00000070: 0655 febd 7ddf 8dbd 1b98 bfbd d876 c0bc
00000080: ff8c 243d 1053 8dbd 25ab 12bb bcec 20bd
00000090: 1456 ac3b 7fd0 5dbd d351 963d c874 19bd
000000a0: 1a49 01be e476 55bd 2c05 4e3e 22e0 1bbd
000000b0: 1472 a83d b32e 24be 3c6e 803d 52eb c63d
000000c0: ebfb 6c3c cb10 043e 1ab8 043d 1e3b b1bd
000000d0: 5f3c 343d 2a14 bbba 06a2 1b3d d752 c13d
000000e0: 32ee d0bd 0e00 263d 8a65 f2bd 8e84 a3bd
000000f0: e0d5 1fbd 9fa8 203e 8eae 29bd 07df feba
00000100: 4742 8c3e 1255 25be 5ef6 a13d 1073 e8bd
00000110: ebbf 9b3d bd64 e3bd c26d febd 7dc3 0a3d
00000120: 1f85 c7bc 4913 9f3c a2d0 d5bc 7bd4 2c3d
00000130: aabe 9e3d 6faf 93be 24f7 82bd fb6f c73c
00000140: 81d4 8bbc a7ee 413d cdf8 3e3b b357 563d
00000150: bdc6 ddbc 602d 9b3d 5a0e 5abd 323d f83b
00000160: be59 e7bd 0db2 ed3d 4ade 8dbe 6fc0 5d3c
00000170: e2c0 81bd 1009 3cbd 29d4 893d c941 c63d
00000180: 26ce 3b3c 82d1 3cbc 17d0 5cbd d828 b13d
00000190: 0440 493d d21f 063a 1b4c a137 9946 ae3c
000001a0: 8336 3c3e 0cbe 1ebd 2da8 0fbe 9994 92bd
000001b0: 9ea7 f73d 8848 ad3d 3c30 e6bc 1abe 94bd
000001c0: d673 9f3d 74db 283d b3a4 d23b a67a 293d
000001d0: e228 623a 33bc 263e 3ba6 823d 3c4b 6fbb
000001e0: 70aa 95bc 03aa 64bd 29cc 463d cc4a 5bbd
000001f0: 38b9 e3bb 87b5 1abd d10d 443d bdd7 d1bc
00000200: 9a64 75be ff2a 4b3e 9cb7 e1bc d1b2 93bd
00000210: 5914 99bd f560 c83c d9c3 8cbd 11f7 e8bd
00000220: ff24 2f3d 2795 5e3d 4fe6 9cbd a560 67bd
00000230: c1b6 9bbd 5047 8a3e 3d62 963d aa5f 70bd
00000240: 7d6c 0dbe ad92 fb3d 65da b2bc f5c8 863b
00000250: c9af b33d 5edd e83d e100 5c3c 4271 89bd
00000260: 912c a9bd d8a8 ddbd f12d 9c3d 5c46 b3bd
00000270: 290f a33d e53a 0fbe 8d3f 81bd ecd0 09be
00000280: 6400 90bc 8610 19be ac2e 2cbe 7c8f 9f3d
00000290: 00ec 863d 75b2 ebbd a3e7 193e 3c59 6c3c
000002a0: 0aac 85bd d0bf 2dbc ba0e 363e d190 6ebd
000002b0: 1ad4 01be fc21 9bbd c164 ed3a 93a5 a9bd
000002c0: 27c0 bcbd 8d97 a23d d0b0 16bd a54d a2bb
000002d0: e1a0 783d 2399 47bd 9ab9 043e 7cd7 37bd
000002e0: 5dc2 813c 4138 c63c 8fce 1a3e 1bac 853d
000002f0: 8ec7 71bd 8167 023d 8b19 1c3c 4581 12be
00000300: 47f2 9abd dadd a33c b074 213d 9929 213d
00000310: 70e4 51bd dc8a 76bd 9e27 d33d 6bf2 3abd
00000320: 0d6f 443d eed6 babd 7c0e 74bb 09a3 85bc
00000330: e5aa 773c 24cc 483d 5ff0 ffbd 6361 78bd
00000340: d90d 8e3d 24a2 76bc e947 f73d 3775 af3d
00000350: 3d80 9b3d 0c32 8a3d df75 c4bd c8cd 363e
00000360: d915 39be 98bb 25be c0c0 2dbd 78e7 3c3e
00000370: 0ee9 ba3c 3e1c 80bd 11b6 d4bd 9610 5e3d
00000380: f4a4 a03d ed90 3e3d cca4 7e3d 394d b8bd
00000390: 62c3 52bd c7a6 613d 3fc8 6b3d cb22 d5ba
000003a0: 16bb 20bd e618 ef3b 9a7e fc3d 4ed5 a13d
000003b0: 8426 25bd 8c9b 433d 8143 7e3d 4bf4 533c
000003c0: 4b8b cd3b c95e 4abc a4a3 efbd 64d7 79bd
000003d0: 0392 233d 98a1 233d 94da 67bd 3577 843d
000003e0: 1232 363d c645 013e 77e8 d9bb 9a7b 03be
000003f0: 0e78 fbbc f884 a13c c149 8fbd cb6e 833c
-0.09926025 0.03261683 -0.08627832 0.03351755 0.12711489 -0.023586184 -0.036704946 0.013065966
-0.1749699 -0.05287821 -0.031836364 0.107539736 -0.013348663 -0.058868144 -0.10021366 0.026139628
0.098454475 0.06501825 0.039978314 -0.104127795 -0.07288056 -0.021319877 -0.04005253 0.14122787
-0.08646338 -0.08454594 -0.053871967 0.049335226 -0.12418561 -0.06927393 -0.09355184 -0.02349417
0.040173527 -0.069006085 -0.0022379842 -0.039288267 0.0052592847 -0.054153915 0.073398255 -0.037464887
-0.12625542 -0.052115336 0.2011916 -0.038055547 0.08224884 -0.1603344 0.062710255 0.097128525
0.014464359 0.12897031 0.032402135 -0.08653854 0.044002887 -0.0014272977 0.037996314 0.094396286
-0.10201682 0.040527396 -0.11835773 -0.07984267 -0.039022326 0.15689324 -0.041426234 -0.001944513
0.27394316 -0.16145733 0.07908319 -0.113500714 0.07604965 -0.11103199 -0.124232784 0.03387784
-0.02435547 0.019418376 -0.02610046 0.042194825 0.0775121 -0.28844783 -0.063947946 0.024345389
-0.017069103 0.047346737 0.0029139996 0.05232973 -0.027072305 0.07577014 -0.053236343 0.0075756544
-0.11296414 0.11606226 -0.27708656 0.013534649 -0.063356176 -0.04590708 0.067299195 0.09680516
0.011462724 -0.01152456 -0.053909387 0.086503685 0.049133316 0.0005116436 1.9228135e-05 0.021273898
0.1838017 -0.03875546 -0.14028998 -0.07157249 0.12092517 0.084611 -0.028099172 -0.072628215
0.07785766 0.04122491 0.006428325 0.041376732 0.0008627308 0.1628273 0.06379362 -0.003651335
-0.018269747 -0.0558262 0.048534546 -0.05353813 -0.00694957 -0.037770774 0.04786474 -0.025615567
-0.23964158 0.1984062 -0.027553372 -0.07211841 -0.07474584 0.024460295 -0.068732925 -0.11375249
0.04275989 0.05434146 -0.076611154 -0.05648865 -0.07603217 0.27007532 0.07342956 -0.058684982
-0.13810916 0.122838356 -0.021832654 0.0041133114 0.08773763 0.113703474 0.013427944 -0.06711055
-0.082604535 -0.1082322 0.0762595 -0.08753654 0.07961876 -0.1398731 -0.063109495 -0.13458604
-0.017578311 -0.1494771 -0.16814679 0.07791039 0.06587982 -0.11508647 0.15029769 0.014425572
-0.065269545 -0.010604814 0.17779055 -0.058243576 -0.12678567 -0.075748414 0.0018111692 -0.08283534
-0.09216338 0.07939062 -0.036789715 -0.0049531036 0.0607003 -0.048730027 0.12961426 -0.044883236
0.01583975 0.024196746 0.15117858 0.06526967 -0.0590282 0.03183699 0.009527574 -0.14307125
-0.07565742 0.020003248 0.039417922 0.03934631 -0.051243246 -0.06019102 0.10310291 -0.045641344
0.04795747 -0.09123026 -0.0037240079 -0.016313093 0.015116428 0.04902281 -0.12497019 -0.06063975
0.06936235 -0.015053306 0.12074263 0.08567279 0.07592819 0.06747827 -0.095927946 0.17851937
-0.1807474 -0.16184843 -0.04242015 0.18447673 0.022816207 -0.06255387 -0.10386289 0.054215036
0.07843962 0.04652493 0.06216888 -0.08999104 -0.051455863 0.055090692 0.057564016 -0.001626098
-0.03924092 0.0072966693 0.12328835 0.07902013 -0.040319934 0.047755763 0.062076095 0.012936662
0.0062727085 -0.0123517 -0.11701134 -0.060996428 0.03993417 0.03994903 -0.056604937 0.064680494
0.044481345 0.12624273 -0.0066500264 -0.12840119 -0.030696895 0.019716725 -0.06996489 0.016044041

module.graph_layers.2.mlp_upd.0.bias f4 [32]
00000000: 1405 e5bd bec6 efbd e20d f3bc cba3 28be
00000010: 86a5 123e 01ae 5e3d 8351 86bd 3362 eab9
00000020: c6ad 16bd bc22 333d 6dc4 aabd 509c 003d
00000030: 333c 8b3c 0d48 36bd 5153 dbbd 0680 42be
00000040: 73a9 8cbd 8b12 0c3e dfe9 ed3c d2a4 92be
00000050: 7c53 73bb 796c 05bc bf26 0c3e b037 523d
00000060: 751a 19be 3962 093e 623f 813c cd93 2f3d
00000070: 0b31 ffbd 178d 04be 7efa f23d 29f0 18bd
-0.11182609 -0.11707829 -0.029669706 -0.16468732 0.14320955 0.05436516 -0.06558516 -0.00044705122
-0.036786817 0.043734297 -0.083382465 0.03139907 0.016996479 -0.044502307 -0.10709251 -0.1899415
-0.068682574 0.13678949 0.029042182 -0.28641373 -0.0037128618 -0.008143538 0.13686655 0.05132264
-0.14951499 0.13416375 0.015777294 0.042865563 -0.12460526 -0.12944447 0.11864184 -0.03733841
