gnn/trained_model/attrs6.pth (torch, 974606 bytes, 87 tensors)

module.embedding.0.weight f4 [64, 2]
00000000: 952b f0be f35d ef3e 4ca1 c73e b890 75bf
00000010: e8e6 00bf b3a2 e5be 0adc da3e 349f 29bf
00000020: 787a 8d3e 707d 5bbf 8e8f 043f 079b 6bbe
00000030: e3c2 303f ef27 b9bd 791a 16bf 276d 22be
00000040: e222 8e3e 5bca 663f 9136 603f fc5a 98be
00000050: 24dd 203f 051d 583f 9c82 f7be 634f 4b3f
00000060: 10de c2be 5d05 403f 8e4d ca3d e841 36bf
00000070: 1c43 17bf ad99 f83d 5495 34bf 28e5 bf3e
00000080: cf1b 443f 9ce9 fd3e 76da 13bf ec56 253b
00000090: f3a6 733d 2b12 46bf a33d 4abf df5e 5abe
000000a0: 15b7 033e dc0e 31bf 1c6d a23e 855f 923e
000000b0: 996a 0ebf 6df5 20bf fff9 5abf 3a0c ab3e
000000c0: f85b 12bf 76ce 0a3f 1192 553f 6b9d be3e
000000d0: 8115 5e3e 0c67 913f a40c 6dbf 4c90 f8bd
000000e0: 0950 18bf a042 6cbe 5934 d23e a8a3 5f3f
000000f0: 3b2c 443f d076 e43d 61a0 1dbf 7ac0 26bf
00000100: 1a7f f8be 35fa 5e3f ad89 1fbe 9be8 323f
00000110: a1b5 1dbf 3942 383f 5765 273f d08d e2be
00000120: c1d3 f2be 66d3 763f 0090 41bf 27c2 b23e
00000130: 27e3 3f3f 807f 22bb f288 3bbe 35a0 f4bd
00000140: 9b9c b0be 87b3 d93e 392e 55bf da86 3c3f
00000150: dd50 2dbf 6e17 2abf 17dc 5e3f 38a4 c8bd
00000160: ea2b d53e ccac 1dbf 5a55 063f f417 3d3f
00000170: 059e dfbe bee0 223f 5e8f 88bd a7be 183f
00000180: e2cf 5b3e 5ff0 e3be de85 1cbf 684d 69bf
00000190: ecc4 06bf 2f1b 233d a082 873d 3251 563f
000001a0: 1d78 6ebf d5bb 143e 06dd cd3e 3e34 643f
000001b0: 6425 103f b4ec 873e 1b5d 133f 736e 24be
000001c0: 1001 20bf af0d 3fbf 1121 3c3e 178b 4b3f
000001d0: 646f 273f d263 3cbf dc9a 17bb a1a6 b0be
000001e0: dc48 aabe 3f66 60bf eb7b f63e cf8e 9d3d
000001f0: 65bf 483f 225c efbe 0ff2 473f dd63 1e3d
-0.4690825 0.46751365 0.38990247 -0.9592395 -0.50352335 -0.44850692 0.42746 -0.6625855
0.276325 -0.8573828 0.5178155 -0.23008357 0.69047374 -0.0904082 -0.58634144 -0.15861951
0.27760988 0.9015252 0.8758326 -0.29756916 0.62837434 0.8441928 -0.48341835 0.7941801
-0.38060045 0.75008184 0.09878074 -0.71194315 -0.59086776 0.12138686 -0.70540357 0.3747952
0.7660493 0.49592292 -0.5775522 0.0025228811 0.059485387 -0.7737147 -0.790003 -0.21325253
0.12862809 -0.691633 0.3172387 0.285885 -0.55631405 -0.6287449 -0.85537714 0.33407766
-0.57171583 0.54221284 0.83426005 0.37229475 0.2168789 1.1359572 -0.92597413 -0.121368974
-0.59497124 -0.2307229 0.41055563 0.87359095 0.7662999 0.11155474 -0.61572844 -0.65137446
-0.4853447 0.87100536 -0.15579863 0.6988618 -0.6160527 0.7197605 0.6538901 -0.4424882
-0.4742718 0.9641632 -0.7561035 0.3491375 0.7495598 -0.0024795234 -0.18313959 -0.119446196
-0.3449448 0.4251978 -0.83273655 0.7364327 -0.6770151 -0.66442 0.8705458 -0.09796947
0.41635066 -0.6159179 0.52473986 0.73864675 -0.43675247 0.6362418 -0.0666797 0.5966591
0.2146602 -0.44519326 -0.61141765 -0.9113374 -0.5264423 0.039820846 0.066167116 0.83717644
-0.9315203 0.14524777 0.4020769 0.89142215 0.56307054 0.26547778 0.5756394 -0.16057758
-0.6250162 -0.74630255 0.18371989 0.7950911 0.65404344 -0.73589814 -0.0023133075 -0.34502128
-0.33258712 -0.87656015 0.48141417 0.07693254 0.78417045 -0.4674998 0.7810373 0.038669456

module.embedding.0.bias f4 [64]
00000000: 469c d83e 1770 1dbf 0923 113f 4668 cf3e
00000010: 979d 043f aefd b1be cb8c 7bbe 9f33 253f
00000020: 9a19 663e a929 473d 200d c83e c396 1fbf
00000030: 873d dc3e 5cb2 e63e ef50 8ebe d8fd 693e
00000040: 7eea 093f 236a 043f 8460 45be ea0a b8be
00000050: 00ea cf3e 3410 14bf 673f e13e 5cd4 363f
00000060: 5248 9a3e 1772 a23e 39de 023e 8f94 c8be
00000070: a5b3 dbbd 88ff 2b3f 765a 193f 0d2d 923e
00000080: 200f 12bf e18d 1bbf 0887 053f 7765 5d3e
00000090: f7ce 323f caa6 173e 6978 dbbe bcce 2b3e
000000a0: 1b71 743c 9264 44bf 1f66 113f 0b85 abbb
000000b0: 8ff8 213f b989 68be 3788 4abe 0777 493e
000000c0: 2d36 803e c6d1 1ebf 00cf 2abe 4582 7fbd
000000d0: caec 1fbf 2c5b 023f 16d5 843c 7871 9dbd
000000e0: 5728 0b3f 7338 23bf eb3e c73e 8bbe 3b3e
000000f0: 0bf5 1c3f c564 bdbe f914 273e 696e 2bbe
0.42306727 -0.6149916 0.56694084 0.40509242 0.51802963 -0.34763855 -0.24565427 0.6453189
0.22470704 0.048623715 0.39072514 -0.6233942 0.43015692 0.45057952 -0.27796122 0.2285074
0.5387343 0.5172445 -0.19275099 -0.35945827 0.40608215 -0.57837224 0.43993685 0.71417785
0.301333 0.3172767 0.12780084 -0.3917584 -0.10727624 0.67186785 0.5990366 0.28549996
-0.5705433 -0.60763365 0.52159166 0.21620737 0.69847053 0.14809719 -0.42865303 0.16778082
0.014919545 -0.7671596 0.5679645 -0.005234366 0.63269895 -0.22708787 -0.19778524 0.19674312
0.25041333 -0.6203884 -0.16680527 -0.062380094 -0.62470686 0.5092037 0.016214889 -0.07687658
0.5435843 -0.6375801 0.3891519 0.18334405 0.61311406 -0.36990944 0.16316594 -0.16741337

module.graph_layers.0.attention_aggr.gate_nn.0.weight f4 [64, 64]
00000000: 5308 d0bd 0cce ea3d 9726 75bb f93e 94bd
00000010: 90cb b9bd c237 61bd bc0b c6bc c463 c6bd
00000020: b4de 3cbe 5d6e f93a 0325 bd3c 9564 5f3c
00000030: d5ea 903d dc74 42be 27c6 62bd b068 38bd
00000040: 824f e73d eba4 903d 48fa f73c 063b 87bd
00000050: ddb6 1e3e b698 6bbd 0a61 983d f95d 33bb
00000060: 9e23 193c 70a2 d03d 9b7c 82bd 708f d6bd
00000070: 53b8 5cbe 1234 4bbc 6b69 e6bd dd24 f03d
00000080: 1500 bfbd 804e b13d a0c5 59bd c3d8 09bd
00000090: e41e 07be e619 0abe f785 e1bb ca72 0abe
000000a0: b915 113d af59 903d d5fc 72be a1d4 3d3e
000000b0: 1839 a1bd e987 2d3e 90d5 d8bc 3e69 983d
000000c0: f422 1b3e 8d58 85bd 5fe5 05bd 31b7 b4bd
000000d0: f989 cfbb 04e2 aa3b 517f 5e3d 4482 6abc
000000e0: ee90 a63e 8380 3f3c 097c d43d 291f 093e
000000f0: 8e15 edbd 944c b0bc e3dc b23d dca3 01bd
00000100: 0527 0e3e a181 2e3e 09db 0fbd 2d22 55bf
00000110: d670 463a 8196 e1bd 4998 6bbc c0dc 76be
00000120: c5d4 b63d 3c33 f83b 3d1a 00be fbbc b43b
00000130: 1e09 283d e95a c13d e3d1 28bd d087 c4bc
00000140: da2f a23d c346 6c3d d0dd 333e 3831 a3bd
00000150: b29a a4bd c293 acbd c432 b8bd e47d 82bc
00000160: 5890 783e a0f5 82bd abf9 0abf d96a 4ebd
00000170: 987c 52bd 7791 95bc ec94 89bc 6000 973e
00000180: ecdb 02bd 3b0b 98bd 0a43 c03b f031 af3d
00000190: 95af fe3d d4a3 4d3a a205 5cbc cd8d b9bc
000001a0: fc6f fabc ee23 113d 73e7 5fbd 2837 793e
000001b0: 7c82 b93b dbf5 1ebd 01db c23d 7407 d43d
000001c0: d348 acbc c1c4 a1bc bbe8 08be b6f2 bc3d
000001d0: 333d fa3c ccd4 f33d 8a14 3bbd 3ab3 323d
000001e0: 52a4 433d 90e3 c1bd 8946 b5bc f656 82bd
000001f0: f5f4 1cbe ce35 75bd 90cf ccbd 81cc 5ebe
00000200: 4f2a 083e 9026 8d3f 9387 24bc 62ee 8abc
00000210: c7f4 023e 48ec 183e fbb4 833e 0c2b b03c
00000220: b6bf e3be f57d 283f 1314 663e 375d 313f
00000230: 45b7 db3d 2696 e4be ee90 3dbd cab9 f6bd
00000240: df4e 6cbe c935 fb3d 3c5e ffbd 57f6 82be
00000250: 3f1b 063f 4c9d e23d bd06 1ebd 0109 3abd
00000260: c698 0ebe df4c 373d 2763 763d c531 bd3d
00000270: 621d 5f3e aba6 32bd 7b26 e6bc 03f5 1bbe
00000280: 532e ba3e 6ca8 a2bb d89d 43be bf07 d3bc
00000290: 328a 12bf 04bf 94bd a628 acbd c60e 4ebe
000002a0: f70a 003e 832e a9be 3ee5 b3be 1d76 a9bd
000002b0: 3e21 2c3e 8f54 38be 63a7 0d3f cf8c 7a3e
000002c0: 231b 1e3e f548 7e3e 8550 2e3d fee8 e6bd
000002d0: 8fb0 ca3c 4139 b93c 8fc3 a0bd e746 6bbe
000002e0: 0099 b83d f469 b6be 3f39 f93d 1d3f 90bd
000002f0: 9087 efbd e1f6 343e fb89 d0bd 3e6c 003d
00000300: 061e 233d ca74 90bd 5de3 bcbc 96d3 10be
00000310: c8fa 01bf d092 a0bd 6ee1 0fbf b7d0 4fbd
00000320: fdbc bb3d d854 0c3e 1f19 28bd fcfc 303d
00000330: 47fd b2bd 1dca ca3d c40f d03e 4185 de3c
00000340: 7793 be3d 0e34 90bd 2f3d 3bbc 5729 9339
00000350: bbf3 9dbd 0ad1 08be c783 94bd 5c9e babe
00000360: cd2c 51bd 7591 1f3e 83e5 ebbd 7301 d43d
00000370: 30ff 8e3d 1edc 453d 2feb 06bd 3f1b 3a3d
00000380: dbba 033e c6d9 18bd 0132 2cbe 4c22 313e
00000390: 4232 d03a 384a 31bd 6e4c 2ebd 79f5 cebd
000003a0: f8c4 90bd e220 3dbe 3629 d6bc 4949 20bd
000003b0: 99c5 a3bd 1add b53b 1e0d cbbd 33db 8e3d
000003c0: 2879 b9be 5290 a2bd 0d47 823b 7d6d a7bc
000003d0: 77a7 243e 9ee9 62be 3094 ffbd 502e 86bc
000003e0: b0fb f13c 088a 08bc ffb6 263e 0302 423e
000003f0: 0dcc c03e 38f5 48bd 65c2 cfbc ff84 e3bd
-0.10157838 0.114650816 -0.0037407035 -0.072385736 -0.090720296 -0.054984815 -0.024175517 -0.096869975
-0.1844433 0.0019030083 0.023088938 0.0136348205 0.07076041 -0.18989891 -0.055364754 -0.045021713
0.11294462 0.070627056 0.03027071 -0.06603055 0.15499444 -0.057518683 0.07440384 -0.0027369244
0.009346871 0.101872325 -0.06371423 -0.10476577 -0.21554689 -0.012402551 -0.11250576 0.11725781
-0.093261875 0.08657551 -0.053166986 -0.033653986 -0.13195378 -0.13486442 -0.006882425 -0.13520351
0.035421107 0.07048356 -0.2372926 0.18538143 -0.07872218 0.16946377 -0.026469022 0.07441948
0.15150052 -0.0651103 -0.03268945 -0.088240035 -0.0063335863 0.0052149314 0.054320637 -0.014313284
0.32532448 0.011688354 0.1037522 0.13390793 -0.11576377 -0.02152089 0.08733537 -0.03165041
0.13882072 0.17041637 -0.035120998 -0.83255273 0.00075699145 -0.110150345 -0.014379569 -0.24107647
0.08927301 0.007574467 -0.12510009 0.0055156923 0.04102432 0.09441168 -0.04121579 -0.023990542
0.07919283 0.05768467 0.17565084 -0.07968372 -0.08037318 -0.0842662 -0.08994058 -0.01592917
0.24273813 -0.063945055 -0.54287213 -0.050394867 -0.051388353 -0.01825784 -0.016794644 0.29492474
-0.031948015 -0.07424017 0.0058673667 0.08554447 0.12435833 0.00078445417 -0.013429077 -0.022650624
-0.030570976 0.035434656 -0.054664087 0.24337447 0.005661307 -0.038808685 0.09514428 0.10352984
-0.021030819 -0.01974714 -0.1337003 0.09225981 0.03054676 0.11905822 -0.045673884 0.043627955
0.04776413 -0.09467232 -0.02212836 -0.06364243 -0.15327819 -0.059865765 -0.10000527 -0.217577
0.1329739 1.1027393 -0.010042089 -0.016959373 0.12788688 0.14933884 0.25724015 0.021504901
-0.444822 0.65817195 0.22468595 0.6928286 0.10728315 -0.44645804 -0.046280794 -0.12047155
-0.23076962 0.12266118 -0.12469146 -0.25578567 0.52385324 0.11065158 -0.038580645 -0.045418743
-0.13925466 0.044751044 0.060153153 0.092380084 0.21788552 -0.04361598 -0.02809452 -0.15230183
0.36363468 -0.004963925 -0.19103181 -0.02576053 -0.5724212 -0.07262996 -0.084061906 -0.20122823
0.12504183 -0.33043298 -0.35135835 -0.082744814 0.16809556 -0.18001007 0.55333537 0.24467777
0.1544004 0.24832518 0.04255726 -0.112749085 0.024742393 0.022610309 -0.078498 -0.22976266
0.090135574 -0.3562771 0.12169122 -0.07043288 -0.11695778 0.17672302 -0.10182568 0.031353228
0.039823554 -0.07053526 -0.023057634 -0.14143214 -0.50773287 -0.07840502 -0.56203353 -0.050736155
0.09166906 0.1370424 -0.041039582 0.043210015 -0.08739715 0.09901831 0.40637028 0.02716315
0.093054704 -0.07041179 -0.0114281615 0.00028068825 -0.077125035 -0.13360992 -0.07251697 -0.36448944
-0.051068116 0.15582831 -0.11518385 0.10351839 0.06982267 0.048305623 -0.032939132 0.04543614
0.12864248 -0.03731706 -0.1681595 0.1729824 0.0015884119 -0.04328367 -0.042553358 -0.10105414
-0.07068819 -0.18469575 -0.026142698 -0.03913239 -0.07996673 0.005550039 -0.09914611 0.06975403
-0.36225247 -0.07937683 0.003975755 -0.02043795 0.16079508 -0.2215943 -0.124794364 -0.016379505
0.02953896 -0.00833369 0.16280745 0.1894608 0.37655678 -0.049061984 -0.02536125 -0.11109351

module.graph_layers.0.attention_aggr.gate_nn.0.bias f4 [64]
00000000: a858 96bd 2af9 b83d c2e7 ca3d b83a 783d
00000010: 2256 a53d c65b b73b abbe 813c ba76 fe39
00000020: 6b03 f5bc 4491 ba3d 17fc 73bd b008 803d
00000030: 04e0 42bd 6570 a33d b54f 8c3d c580 f2bd
00000040: 7430 9b3c b965 5dbd 5720 6a3d 90c1 f53d
00000050: a195 46bd 1cb5 d1bc ce41 1abd ac1a ebbd
00000060: 5f31 24bc 0d10 813d cc64 0abd 6206 373d
00000070: 3892 96bd d926 ad3d 2a2f 803d b8c6 7f3d
00000080: 7463 95bd c34c d13d 3990 b7bc 0e08 ee3d
00000090: 68da eabd 11ec 9cbc 300c d33d 782b 513c
000000a0: 5f61 91bd 9f75 993d 4712 af3d 70a2 f73d
000000b0: 4460 523d 1047 fc3c d37e 86bc f5aa 383d
000000c0: 208d a9bc 8bb1 f63d eecc 6fbd ff6f 83bd
000000d0: 6257 c6bc 5946 dc3d 38a6 da3d 9267 56ba
000000e0: f714 e1bd b0a1 ddbd 64c7 923d 9c5e cebd
000000f0: 41fe 3e3d 63b8 003a 5434 273c 086c 593d
-0.073411286 0.09031899 0.099074855 0.060602874 0.08073069 0.005595657 0.015837988 0.00048535113
-0.029908856 0.091097385 -0.059566583 0.06251657 -0.04757692 0.07980422 0.068511404 -0.11840967
0.018944003 -0.05405209 0.057159748 0.1199981 -0.04848254 -0.025599055 -0.037660412 -0.11479697
-0.010021537 0.063018896 -0.033787534 0.04468382 -0.07352108 0.08454675 0.06258996 0.062445372
-0.0729436 0.10219719 -0.022407638 0.1162263 -0.11467439 -0.019155534 0.10305059 0.012766711
-0.0709865 0.074931376 0.08548408 0.12091529 0.051361337 0.030795604 -0.016417896 0.045084912
-0.020697176 0.120455824 -0.058545046 -0.06417846 -0.02421159 0.10755605 0.10676235 -0.00081788853
-0.10990327 -0.10821855 0.07166937 -0.10076639 0.046629194 0.0004910288 0.010205347 0.053081542

module.graph_layers.0.attention_aggr.nn.0.weight f4 [64, 64]
00000000: 07ca f53c bf3e e43c 0cd5 5ebd e801 3abe
00000010: d62b 0c3f 5ad5 acbc e5c0 923e e4db 3cbd
00000020: 2581 f93d ca9a 90bc c585 11bd 8266 9e3d
00000030: f7ef 1abd 5dba 3a3c a7b7 62bf a44b a3bd
00000040: e3ec b03e b433 06bd 0481 093e 8554 8a3e
00000050: 1c52 8dbd ec70 18bb 38ba 57bc c41d 723e
00000060: 38f8 87bd e925 a63c 799b c73d 3eb6 f0bc
00000070: d450 b0be e425 093d 17f4 d23c f5fc b3bd
00000080: 9ab1 bbbe 2d7d 67bb b188 c0bc 08e4 cf3d
00000090: 51ac 1abd 119d 373e 38dc cf3c 3832 0fbe
000000a0: 98a5 55bd 979b 33bd 5aae e93c d261 cabb
000000b0: fcd7 b53d 9871 c5ba 894c 83be bb1a 5f3d
000000c0: ca6d 243e 239f 89be 8490 c73d 9bfe 243e
000000d0: 3321 bf3d ae4a 0a3f ebee e0bc 4360 0d3c
000000e0: 6343 2abd ac75 89bd 37cf d9bd e939 47be
000000f0: 377f 72be ee0f 5ebe 3161 523c a6df 70bd
00000100: 50bf d4bc 8a13 58bd aa7c 7dbb 6e1b a93b
00000110: 5a5a c73d d004 9f3c 7e2a 893e 2ced 583e
00000120: 8c9a bbbd f8a8 ae3d 4cec 8ebd 5c39 95bd
00000130: c63a 0ebd b7b4 413e 8901 b8be 413e 603d
00000140: 70ad 97be e4a4 873d 00ec d53d 3fad a4bd
00000150: 7c54 bdbc 8afb 043c 06cf aabc 1591 c43d
00000160: 23d3 d0bb 9c52 a93d 66a3 1b3d 8f2a 02bc
00000170: 48c1 223e efae 2a3d ffa4 8cb9 dff9 39bd
00000180: 12a3 863e ad56 943c 809f 2c3b 60b1 13be
00000190: 23e8 2ebb b61e 65bd a0c6 603d acf8 bcbe
000001a0: 33ba cb3d dcaa 043e 13a9 923d 86a5 0ebe
000001b0: bda7 943d 7fb4 3ebe 27a8 043f c325 6d3d
000001c0: d641 943c 808d cc3e ce0f 81bd c43f a5bc
000001d0: 7672 e7bd a8f1 123e 1beb 9bbb 41ab 983d
000001e0: 993a 033d e5a8 843c 1199 4bbd 82b5 86be
000001f0: 8ea0 56be a145 133e 714e 8c3b 554b f3bc
00000200: c2e8 983b 255a 333e 2ce3 1bbe d07b 5c3e
00000210: d877 18bf ea50 f23c 326c 28bf e36a 40be
00000220: 2771 edbd c7ec abbd 35b5 a13d 1a48 403d
00000230: a245 11bd eb7b 51bc 8323 a03e 7d28 9dbc
00000240: c938 e13d a279 b4bc e04c 04bf 88b8 063d
00000250: 6c45 ff3d 1e43 ef3c d46c bd3d 8632 16be
00000260: 9cf6 7fbe fd21 85bc dd17 59bc c8a3 ad3d
00000270: 46d4 1b3e f576 9dbd 51b7 6f3c 5340 333d
00000280: 29da 283e 8b01 c03b 9c1f 4f3d b701 2e3e
00000290: 3d39 0fbd 2134 653e ed66 9abd e7ba 41bb
000002a0: d9b4 b73d 9681 1dbe f12a b1bc 6f60 7c3c
000002b0: fc2e a9bb 263f ea3d d3c4 37bd 1ea9 17be
000002c0: 8770 453d 09b4 23be d24c 143e d533 37be
000002d0: 751d 3b3e 62f1 b6bd 0ad4 4bbc c2f7 01bd
000002e0: 172c d2bd c4ae 22be fe94 9bbc bf72 eb3e
000002f0: 3339 083e 76af 883d c34e ce3c 82b3 c23d
00000300: db0d babd 6b00 97bd c905 d0bd e607 5ebe
00000310: d2b4 0dbe 2a34 81bd c0f7 f03d b016 a9bc
00000320: 23b5 05bd 0a1f a2bd 16cf df3d f33e babd
00000330: 5638 79bc 0f95 95bc 2fdd 82bd b94a 1cbd
00000340: a705 0b3f 1d61 64be f775 933d 3af6 223f
00000350: 0169 d93d fbfe bcbd a9e9 873d 6900 9bbd
00000360: cbea f9bc 38db 3f3c 139c 85bd 4dbb 2e3e
00000370: ce02 a8be 652e 8cbd 4bee 003c 0fa6 4abc
00000380: d633 d4be 959b c83d 21fc 883d 021f b53e
00000390: 515a 66bd 1085 043e 2bcc dabb e2dd de3d
000003a0: e4ac 1b3d d104 edbc 3f61 ba3c 3af3 163e
000003b0: 7c3b 9d3b f033 463e 8ccb 07be bc24 923d
000003c0: 1fbe b33c 3a75 f3be 9a6e 013e c5cd ea3d
000003d0: 48d0 cf3c 7822 833e 0dd4 85bd 06a6 593c
000003e0: 7d56 87bd 8bba 5abc f7fe 94bd 2470 e9bc
000003f0: aef5 2fbe c4a9 50be 8f7f 0abd f5f2 853d
0.03000356 0.02786195 -0.054402396 -0.1816479 0.5475439 -0.021097828 0.28662792 -0.04610814
0.121828355 -0.017651934 -0.035527963 0.077343956 -0.037826505 0.0113969715 -0.8856148 -0.07973412
0.3455573 -0.03276415 0.13428122 0.27017608 -0.06900427 -0.0023260666 -0.013166957 0.23644167
-0.06639141 0.020281749 0.09746451 -0.029383775 -0.34436667 0.0334834 0.025751157 -0.08788482
-0.36658937 -0.0035322413 -0.02350268 0.101509154 -0.03776199 0.1793101 0.025373563 -0.13984
-0.052159876 -0.043849554 0.02852552 -0.006176212 0.088790864 -0.0015063761 -0.2564433 0.05446885
0.16057506 -0.26879224 0.09744361 0.1611275 0.09332504 0.540202 -0.027457675 0.008628908
-0.04156817 -0.06711897 -0.10635226 -0.19455685 -0.23681341 -0.21685764 0.012840555 -0.058807038
-0.025970131 -0.05275301 -0.0038679042 0.0051607406 0.0973403 0.019411474 0.2679023 0.21184224
-0.09160337 0.08528322 -0.06978664 -0.07286331 -0.03472402 0.18916593 -0.3593867 0.05474687
-0.2962451 0.06623247 0.10445404 -0.080408566 -0.023111574 0.008116612 -0.02085067 0.09597985
-0.0063728257 0.082677096 0.037997626 -0.007944717 0.15894043 0.041670736 -0.00026825813 -0.04540431
0.26296288 0.018107736 0.0026340187 -0.14423132 -0.0026688657 -0.05593749 0.054876924 -0.36908472
0.09947624 0.12955803 0.071611546 -0.1393033 0.07258556 -0.18623541 0.5181908 0.05789734
0.0180978 0.39951706 -0.06301843 -0.020172007 -0.113011286 0.14349997 -0.0047582514 0.07454539
0.032038305 0.016193816 -0.049706522 -0.26310354 -0.20959684 0.1438203 0.004281812 -0.029699007
0.004666419 0.17514856 -0.15223378 0.21531606 -0.5955787 0.029579598 -0.6579009 -0.18790774
-0.11593848 -0.08394771 0.078958906 0.04694376 -0.035466798 -0.012785892 0.31277093 -0.019184345
0.10997159 -0.022030655 -0.516798 0.032890826 0.12464413 0.029206809 0.09249273 -0.1466771
-0.24996418 -0.016251558 -0.013250318 0.084785044 0.15217695 -0.07688705 0.014631108 0.043762516
0.16489471 0.005859559 0.050567254 0.16992842 -0.034966696 0.22383167 -0.07539163 -0.0029560865
0.08970041 -0.15381464 -0.021626921 0.015403851 -0.0051630717 0.11437826 -0.04486544 -0.14810607
0.048203018 -0.15986647 0.1448243 -0.17890866 0.18272956 -0.08932759 -0.012440691 -0.03173042
-0.10262316 -0.1588698 -0.018991943 0.45985982 0.1330307 0.066740915 0.02518404 0.09506895
-0.09084674 -0.073731266 -0.101573534 -0.216827 -0.13838509 -0.06308778 0.117660046 -0.020640701
-0.03264345 -0.079160765 0.109281704 -0.09094038 -0.015211185 -0.018259553 -0.06389844 -0.0381572
0.543055 -0.22302671 0.072002344 0.6365696 0.10615731 -0.09228321 0.06636364 -0.075684376
-0.030507466 0.011709981 -0.065239094 0.17063637 -0.3281464 -0.068447866 0.0078693135 -0.012368693
-0.41445798 0.097953 0.06688715 0.3537522 -0.056238476 0.12941384 -0.0066771707 0.108821645
0.03800668 -0.02893296 0.022751449 0.14741221 0.004798351 0.1935575 -0.1326124 0.07135913
0.021941243 -0.47550374 0.12639847 0.11465029 0.02536787 0.25612235 -0.06534586 0.013284212
-0.06608293 -0.013350139 -0.07275193 -0.028495856 -0.17183563 -0.2037726 -0.033813056 0.06540481

module.graph_layers.0.attention_aggr.nn.0.bias f4 [64]
00000000: bf96 0abe 3e36 f5bd b23d 5b3d 0130 22be
00000010: 1460 17bd b2ac 823d c832 d1bd 5f7b 4f3d
00000020: 8234 a7bd 6995 003e ba9a e73c 8ab5 273e
00000030: 13e1 96bd 7728 e5bd 566a a43d 4eeb fc3d
00000040: 7d04 39bc fd42 873d 52ac bc3d 31a2 9cbc
00000050: 43a1 033d 79b9 b3bd 1893 a73d 22bc 0f3d
00000060: 61b9 d9bd 537b 433d 1ab5 89bd 7103 c3bc
00000070: 77dc a03d 8d52 c4bd bda2 913d 045a 923d
00000080: e4da 983d a834 4a3d 698e 55bd d6eb cd3d
00000090: b5db 16bd 0215 f73d cf00 c13b 8ed8 b83b
000000a0: d4d5 0abb bfe6 2d3e 5ea2 4e3c 9f54 a4bd
000000b0: e6dc 4cbd 29bb a7bd c59c 17bd b3fa b3bd
000000c0: 9fde 543d d9bd c13d e532 50bd 066b 0c3d
000000d0: be2c 9bbd 9305 72bd 91dc d737 0899 303d
000000e0: c2b5 6ebd 2915 923d 70fb 63bd b581 b13d
000000f0: 60f4 c53c 6d9b 03be c952 303c 292b 7fbd
-0.13534068 -0.119732365 0.053525634 -0.15838625 -0.03695686 0.06380595 -0.10214764 0.050654765
-0.08164312 0.12556995 0.028272022 0.16377845 -0.07367148 -0.11189359 0.080280945 0.12349568
-0.011292574 0.06604574 0.09212555 -0.019120308 0.032136213 -0.087756105 0.08182353 0.035091527
-0.10631061 0.047725033 -0.067239955 -0.023805352 0.0785455 -0.09586058 0.07111118 0.07146075
0.07463625 0.049366623 -0.052137766 0.10054748 -0.036830623 0.12064554 0.005889989 0.0056410497
-0.002118458 0.16982554 0.012611954 -0.08023953 -0.050015353 -0.08189995 -0.03701474 -0.087880515
0.05197012 0.09460039 -0.050829787 0.034281753 -0.07576893 -0.059087347 2.5732706e-05 0.043114692
-0.058278807 0.07132942 -0.05565971 0.08667318 0.024164379 -0.12852259 0.010761925 -0.06229702

module.graph_layers.0.mlp_msg.0.weight f4 [64, 128]
00000000: 4a13 4fbc 4d16 243d f4c7 b7bd 38ab 863d
00000010: 41de 5abd c2a9 a7bd 1306 5b3d af47 f73b
00000020: 153d 97bd 1cb0 1a3d b104 5f3d 37d3 28bc
00000030: 32e9 3bbd 858e 503d eac3 ac3d d08c a2bd
00000040: b657 5c3c 5405 9a3d 8314 6ebd 2f5c dd3c
00000050: 5094 7fbd 0f47 a6bc dbe7 cd3c b116 82bd
00000060: ec34 a03d 5e4c 2b3d e532 9cbc 1511 223d
00000070: 3339 e03a 3239 f2bc 12d6 b03d 3441 c93a
00000080: 9907 a1bd 5cf2 8bbd bd11 15bc 0e09 1f3d
00000090: c168 08bd e907 a2bc 8047 943d 4399 9ebd
000000a0: 2923 5fbd 7700 76bd e5bc 7ebd 20e2 993d
000000b0: e97f 253d d710 9fbd e2c8 f0bc f73c 6dbd
000000c0: 81d0 983d 80db 2f3d ac12 61bb c696 14bd
000000d0: fae3 6a3d fc96 21bd a86e 59bd 3eed f7ba
000000e0: badc a23d 6cf3 4fbb 967b fabc 9974 723d
000000f0: b5c2 2f3d f696 8b3d 951f cf3c b220 5e3d
00000100: eaa7 bdbd 89da f7bd 220a a9bc 8e22 893d
00000110: ed90 a33d 8bab bcbc f981 dfbd 241c 62bd
00000120: 2682 9fbd 23f8 543e 030a d43d a149 6d3d
00000130: bd86 1b3d f879 adbc 70f9 dd3d 6542 f2ba
00000140: 545f b33c cd3c 8c3c 5187 e03c f149 37bd
00000150: d68c cebc ab0d 1a3e 6210 833b 8fcb 0b3e
00000160: f532 a13d f67c a33d fd15 c9bd 6d57 e8bd
00000170: 0419 f23d e3b0 953c 4364 99bd 7847 f03d
00000180: 5af3 68bd 75b8 0a3e 9229 993b cf37 d7bb
00000190: c4e7 653d 9195 f4bb f017 acbb cc79 f5bd
000001a0: 3756 91bd 50f8 2ebe d681 733d ac2b a5bc
000001b0: 45e2 17bd ae15 32bd fb6d a23c 8e1a a6bd
000001c0: 4a22 27be 42d5 04be 7e43 db3d b069 753c
000001d0: 9f5d b4bd e4b7 b63c 15c3 edbd f605 153c
000001e0: 56f6 373e aecd b63d ab5d ef3d 9db5 60be
000001f0: 62a6 38bd 5ac4 c63d 85c0 743d 4699 bcbd
00000200: 5445 d53d 0aa8 46bd 7d4f ecba 19e8 3e3d
00000210: e96c d53d d411 20bc 4a1e e93d a09a 98bc
00000220: 080f 573d cb8a 26bc 51b8 b5bc dc58 e3bc
00000230: 448b 513d 45a8 d13d 13c3 9bbc f854 d83d
00000240: def0 833d 724d b83d 9d92 57bd ad95 803d
00000250: 40e5 7e3c 99a6 403d bf2d e83d 2f90 bf3c
00000260: 380d 72bd 78b7 1abd 2d95 9d3d bfe9 76bc
00000270: 29d2 43bd 2867 13bd 3a58 ea3d f944 ae3d
00000280: 593a 373d 8761 1e3c ee27 973c 8eea 1b3d
00000290: 08c1 38bc d31f 94bc 660d 71bd d7c3 3dbd
000002a0: ac2b 583d 92c1 0fbc 1503 b63d fc12 e23d
000002b0: 9183 83bb 46ce babc a143 b63d 837a 7e3d
000002c0: d88d 893d 9a9a c83d 8a51 a63d bb62 cbba
000002d0: 9564 a13d 4238 e63b a561 a03d 2270 ac3d
000002e0: df32 23bd 4678 da3d e0ad 1f3d df42 2abd
000002f0: bbdd 873d ef0e a53b 2f5e ee3c b80f 55bd
00000300: b786 cf3c 18fd d53c d79a 1d3e 318d d03d
00000310: 20f3 323e 4ee1 95bd 66b6 94bd 6bae 7dba
00000320: b366 e0bd 26b3 f13d 16c0 9f3d b8b3 aebe
00000330: 7f17 7b3b 9a40 b53e db70 46be b416 f33c
00000340: 64a4 963b 661e 1abc 30b9 9f3d c5da 72bc
00000350: 2ba5 8e3e a98e d2bd 200b e53d 9641 c83c
00000360: b386 873d e380 6b3d 222f a9bd 48a2 e3bc
00000370: 48f5 8f3d 1519 4c3d 64e1 fd3d 12c6 263e
00000380: 8ad6 57be 87f7 3fbf 551b 9d3d fd25 0e3e
00000390: 5cb7 bdbc e481 37bd 200f 74bd a947 713d
000003a0: cc21 20be 2fba 93be 4b75 073e d048 8ebc
000003b0: 4e8d 053f 43a2 65bd 99ef d2bd 476d 1fbb
000003c0: ee9b 253e 3de3 f1bc 372c 0fbe 5bcf c6bc
000003d0: d3f7 23be 9383 9f3d 01ad acbd d5de be3c
000003e0: ceca 4e3e 6519 9dbe bde1 2d3d 272a 843e
000003f0: 98ef a13e df29 343c bd08 c9bc cc31 693d
-0.012638876 0.04006033 -0.08973685 0.06575626 -0.053434614 -0.081866756 0.05347259 0.007546387
-0.07384697 0.037765607 0.054447833 -0.010304264 -0.04587669 0.050917167 0.08435805 -0.07937014
0.013448646 0.075205475 -0.05812503 0.027021496 -0.0623973 -0.020297555 0.025134971 -0.06351984
0.07822594 0.041820876 -0.019067237 0.039567072 0.001710689 -0.029568288 0.08634581 0.0015354515
-0.07862777 -0.06833336 -0.009098467 0.038826995 -0.033303026 -0.019779162 0.072402 -0.07744076
-0.05447689 -0.060059037 -0.062191863 0.07513833 0.040405188 -0.07766884 -0.029392663 -0.05791947
0.07461644 0.04293394 -0.0034343405 -0.0362766 0.05734632 -0.03945063 -0.053084046 -0.0018915308
0.079522565 -0.0031730784 -0.030576508 0.059193227 0.042910296 0.06815903 0.025283614 0.0542304
-0.09260543 -0.12102229 -0.020634715 0.06696044 0.07986627 -0.023031017 -0.10913462 -0.05520262
-0.07788496 0.20797782 0.10353472 0.057931546 0.037970293 -0.021176323 0.10838592 -0.0018482922
0.021896042 0.017118836 0.027408274 -0.04474825 -0.02521364 0.15044276 0.0039997557 0.1365187
0.078710474 0.07982819 -0.09818647 -0.113448 0.118211776 0.018272823 -0.074898265 0.117323816
-0.056872703 0.13546927 0.004674145 -0.006567932 0.056129232 -0.007464119 -0.005251877 -0.119861215
-0.07096522 -0.17086911 0.059449993 -0.020162426 -0.03708102 -0.043477707 0.019827833 -0.08110534
-0.16321674 -0.12971976 0.107062325 0.014978811 -0.08806919 0.022304483 -0.116094746 0.0090956595
0.17965063 0.08925949 0.116877876 -0.2194428 -0.04508055 0.0970542 0.059753913 -0.09208922
0.10413614 -0.0485001 -0.001802906 0.046608064 0.104211636 -0.009769876 0.1138273 -0.018628418
0.05250457 -0.010164927 -0.022182615 -0.027752332 0.051158205 0.10237173 -0.019013917 0.105630815
0.06442426 0.089991465 -0.052630056 0.062785484 0.015557587 0.04703388 0.113368504 0.023384182
-0.059094638 -0.037772626 0.07694469 -0.015070378 -0.047807846 -0.03598705 0.11442609 0.08509249
0.04473338 0.009666807 0.018451657 0.038065486 -0.011276491 -0.018081581 -0.05885067 -0.046329346
0.052776024 -0.008774178 0.088873066 0.11038777 -0.0040134867 -0.022803437 0.08899618 0.062128555
0.06716508 0.09795113 0.08121021 -0.0015517095 0.078805126 0.0070257494 0.07831124 0.08419825
-0.039843436 0.106674716 0.03898418 -0.04156768 0.066340886 0.0050371806 0.029097645 -0.052016944
0.025332792 0.026121661 0.15391098 0.1018318 0.17475557 -0.07318364 -0.07261352 -0.00096771744
-0.10957088 0.11801748 0.07800309 -0.3412149 0.0038313565 0.3540085 -0.19378988 0.029673912
0.0045972336 -0.009406662 0.077989936 -0.0148226665 0.27860388 -0.102811165 0.111837626 0.024445336
0.06617489 0.057495963 -0.08260943 -0.027787343 0.070292056 0.049828608 0.123965055 0.16286495
-0.21077934 -0.7498707 0.07671229 0.13881679 -0.023158722 -0.044801608 -0.059584737 0.05890623
-0.15637892 -0.28852984 0.13228337 -0.017368704 0.5216874 -0.056062948 -0.10299606 -0.002432661
0.16172764 -0.029527301 -0.1398171 -0.024268797 -0.16012506 0.07788768 -0.084314354 0.023299614
0.20194551 -0.30683437 0.04245161 0.2581341 0.31628108 0.010996311 -0.0245403 0.056932256

module.graph_layers.0.mlp_msg.0.bias f4 [64]
00000000: 17bf 45be 2874 b13d d29f 083e 47e5 00be
00000010: 31f1 3b3e fbf6 a93d ea12 32bc 35b0 97bd
00000020: 01b3 4dbe 954f 8fbd 33a0 fdbd 9103 6cbd
00000030: 9a27 acbd 8e5a 7b3e 34db e63d 41c3 7a3c
00000040: fdf0 37bd a286 33bd 2885 16bb bb04 09be
00000050: 0a20 81bc 49e5 bb3d 35a8 51be fa79 46be
00000060: 7d0c c93d e111 14be f9a9 c8bd 31f8 92be
00000070: d365 e6bd 2c5b 833e 70b8 ec3b c145 0bbe
00000080: 02dd a5bd 99ff a7bd 9276 e0bc 35d5 c5bc
00000090: 0b29 6bbe 71a8 963c 0f05 633e 50f6 bf3d
000000a0: 8607 fd3d da59 a93d 7dcf 0e3e fb76 1b3e
000000b0: 9ed5 ed3c 05d6 35bd 943a 403c dfef f93d
000000c0: b737 e4bd 07fb 1b3d 1a65 11be cb1f 173e
000000d0: 5221 0bbe 1953 d6bd d290 d6bd 8b97 873c
000000e0: 614a 7f3e 54f9 3c3e 1e85 55be 8d3e 343e
000000f0: 0bde d93d 2acf 373e 9d96 213e 6b00 16be
-0.19311176 0.08664733 0.13342217 -0.12587462 0.18353726 0.08299061 -0.010868767 -0.07406656
-0.20087816 -0.06997601 -0.12384071 -0.05762059 -0.08405991 0.24546263 0.112722784 0.015305341
-0.04490756 -0.043829568 -0.002296755 -0.13380711 -0.015762348 0.09174592 -0.20474322 -0.19382468
0.09816835 -0.14459945 -0.09798045 -0.2870498 -0.1124989 0.25655496 0.007224135 -0.13600828
-0.080987945 -0.08203048 -0.027400289 -0.024149517 -0.22964875 0.018390866 0.22169898 0.09373152
0.123549506 0.08269091 0.13946338 0.15182106 0.029032525 -0.044393558 0.011732716 0.12203955
-0.11143439 0.038081195 -0.14198723 0.14758222 -0.1358693 -0.10465068 -0.10476841 0.016551754
0.24930717 0.18454486 -0.20851561 0.17601986 0.106380545 0.1795012 0.1578011 -0.14648597

module.graph_layers.0.mlp_upd.0.weight f4 [64, 128]
00000000: 7ff1 84bd 3e7d 0f3c b0df 9abc db2c a8bd
00000010: 6c15 463b 6ec2 05bd bf85 1abd e7b8 c0bd
00000020: dc80 97bd b7d7 b53c 5a80 c8bd 0015 d4bd
00000030: 4136 053c 74c9 18bb 5b00 cbbd ac51 99bd
00000040: a2cb 703d 8a10 1dbd 2573 9ebc 56e0 c0bd
00000050: 87ad 023c 4a4f 51bd 2843 dcbd 3aea 1bbd
00000060: c14f e13c bafa dfbd 50fa 0dbd a133 41bd
00000070: 3964 2bbd 1fca 453d 3f9a 5abd 1457 5c3a
00000080: a532 49bd 2705 54bc a701 c6bd 6c4c 0a3d
00000090: fc97 b13c a226 a23c abcb d1bc 702a 733d
000000a0: 7cfb 2f3d 9700 aabd 9284 e3bc 4a76 c03c
000000b0: d061 87bd 7065 a2bd 2afe 9dbd ef6e 00bd
000000c0: 4f6b 253d bf11 0fb9 c5f5 92bd 8b70 57bd
000000d0: 9094 2dbd 1478 e3bc f23a 9bbb 718e 6fbd
000000e0: 2faf cb3c 3665 b1bd 2f11 5d3d bff8 bcbd
000000f0: 80a7 42bd ac9b 9fbd 9497 d4bb 1278 ab3c
00000100: ea84 66be 6fac 63bc bd4f d73c 00aa aebd
00000110: dca7 d5bc bee8 fb3d fb70 9f3e 8370 213b
00000120: bcf2 03bd a8a9 483d 1b33 713d 8895 8bbd
00000130: 6067 8d3d e832 0f3e 1819 2fbd 5ee2 893d
00000140: 6e05 e1bd 29dd a43d 0755 c03d 346e 413d
00000150: 4eee 73ba a3d4 23be 5fb4 2fbd a0f2 703d
00000160: 49c0 bfbd 93a7 c23b cb5a bebe 58b6 8d3c
00000170: b952 cd3d acb7 36bd d68e 23bc a2d6 10bc
00000180: 181f af3e b182 97bd 9b96 663e 8f8b 3ebd
00000190: d998 253e 3164 2a3d 03c9 d53b 4d6d 26be
000001a0: 2532 9f3d ced2 8b3e 780e 00be dfef 3d3d
000001b0: 9e6c 773e bfad 943e 9517 293e db06 57bd
000001c0: c290 e13d 9cac 33bd 78fb 64bd 72b5 693e
000001d0: c074 21bb 38f3 d93d aa49 ca3c 8acf 3e3d
000001e0: 7768 40be 7679 9ebe cb71 5dba cf1c c43d
000001f0: a4e3 e9bd e474 65bd eff5 c7bc c4d5 bcbd
00000200: d153 af3c 1071 79bd fffe e9bc a6ac e9bd
00000210: ef70 68bd c186 f1bd 5950 7abd 577c 973b
00000220: 37fd ebbd 4ae5 fb3c 79f0 e7bc 6819 91bd
00000230: cd14 ffbd 555c e6bc 07bf b0bb 9458 8abd
00000240: 8026 93bd 16e7 1abd 6bd9 d3bd 081c cbbc
00000250: 14d0 e83c c6e7 34bd 5007 87bd 6132 10be
00000260: 82ba 39bd da35 823b d893 eabd 0439 54bc
00000270: c3b9 f93b aa51 b5bc da76 e1bd bb7c bcbd
00000280: 7b1f c3bb fd94 f9bc 2729 d0bd 2875 41bd
00000290: 5f14 b0bd cd48 90bc 33ae d5bd 4d7f 92bd
000002a0: eee4 edbc c293 3d3b eacd 973c ac8f f4bd
000002b0: 457f d2bc 3117 01be 6d80 4fbd a824 b5bd
000002c0: 766d c9bd 0b80 92bd 0fc1 0bbe 25e9 e9bd
000002d0: 3d37 c3bc 1f6d 01be 1ba3 cc3a c63a 9f3c
000002e0: 8b0b 59bd e887 cebd 9dce a4bd d4dd 49bd
000002f0: 47dd 1ebd 1d01 05be 5814 27bd 3016 e6bc
00000300: 3bb1 c3be 5aa2 77be 9250 c4bd 3430 04be
00000310: 8a55 0bbe ebbf 613e 7ecf 173e 8887 72bd
00000320: abe9 09be 5788 6d3e 2e4d 64bd 3d5b 9e3d
00000330: 0ab2 243e e155 a0bd b573 45bd ecb5 963d
00000340: 6ced 98be aa9f 843e 2f05 95bd 456e 003e
00000350: 7a9b bebd 6b06 29bd ce19 d73d f120 993d
00000360: f582 10be 1dc7 5ebd 0439 08be e0d6 f7bd
00000370: 8184 ffbd c081 eebc 1999 bbbe 9e44 813d
00000380: f0fe ac3e 8fa3 c83d 5a03 e53d 9fee febb
00000390: 98f1 dc3d e504 a1bc ad6b 503a 6989 583d
000003a0: c7ee cbbd 4357 e13d 7d14 f13c bba6 7bbd
000003b0: 7e91 cdbd e32c 453b 7aad 083e 095d a03d
000003c0: 2835 613e aa1f 9abe f74f 4cbd 059b 393e
000003d0: 78a4 9ebd 3cda 31bd 9c30 35be ec84 f0bd
000003e0: 3fb1 babc 1074 a4bd 5ba9 1abe 7664 a33d
000003f0: 71b1 97be 6c78 863d 1eef a6bd e796 943b
-0.06491374 0.008757887 -0.01890549 -0.082116805 0.003022517 -0.032656126 -0.037725206 -0.09410267
-0.07397625 0.022197587 -0.09790106 -0.10355568 0.008130611 -0.0023313435 -0.09912177 -0.07486281
0.05878795 -0.03834585 -0.019342015 -0.09417789 0.007975942 -0.051101007 -0.107549965 -0.038065173
0.02750385 -0.10936494 -0.034662545 -0.047168378 -0.041843627 0.04828846 -0.053369757 0.00084053096
-0.049120564 -0.012940682 -0.09668284 0.033764288 0.021678917 0.019793812 -0.025609812 0.059366643
0.042964444 -0.08300894 -0.027773175 0.023493905 -0.06610453 -0.07929504 -0.077144936 -0.031355795
0.04038554 -0.00013644154 -0.07175783 -0.052597564 -0.04237801 -0.027767219 -0.0047372514 -0.058485452
0.024863807 -0.086618826 0.053971466 -0.09227132 -0.04752302 -0.07793364 -0.006487796 0.020931277
-0.2251164 -0.013896092 0.02628314 -0.08528519 -0.026081018 0.123002514 0.31140885 0.0024633713
-0.03221391 0.04898992 0.05888663 -0.0681563 0.06904483 0.13984263 -0.04274854 0.06732629
-0.10987364 0.080499955 0.09391218 0.04722424 -0.00093052245 -0.15999083 -0.042896625 0.058825135
-0.09362847 0.0059403866 -0.37178645 0.017298862 0.10025544 -0.044608757 -0.009982785 -0.008840235
0.3420341 -0.07397974 0.22518389 -0.046519812 0.16171588 0.041599456 0.0065242066 -0.16252632
0.07773236 0.2730927 -0.1250552 0.046371337 0.24162528 0.29038808 0.16512902 -0.052496772
0.110139385 -0.043865785 -0.05590388 0.22823122 -0.0024636239 0.106420934 0.024693329 0.046584643
-0.1878985 -0.30952042 -0.00084474374 0.09575807 -0.11420372 -0.05601968 -0.024409262 -0.0922046
0.021402271 -0.06089884 -0.028563974 -0.11409883 -0.056748327 -0.117932804 -0.06111178 0.0046229768
-0.11522906 0.030748982 -0.028312908 -0.07084924 -0.12455139 -0.0281202 -0.005393866 -0.06755176
-0.07185078 -0.037818037 -0.103442036 -0.02479364 0.028419532 -0.04416635 -0.065931916 -0.14081718
-0.045343883 0.0039737048 -0.1145398 -0.012953047 0.0076210215 -0.022133667 -0.11008997 -0.09203478
-0.0059546805 -0.030466551 -0.10164099 -0.04723087 -0.085976355 -0.01761284 -0.104336165 -0.07153187
-0.029039826 0.0028927182 0.018530805 -0.11941466 -0.025695452 -0.12606503 -0.050659586 -0.08844882
-0.09835331 -0.071533285 -0.13647865 -0.11421422 -0.02383005 -0.12639283 0.0015612574 0.019437205
-0.052989524 -0.10084516 -0.08047221 -0.049283817 -0.038785245 -0.12988706 -0.040790886 -0.028086752
-0.38221154 -0.24183026 -0.0958568 -0.12909013 -0.1360685 0.22045867 0.14825246 -0.059211284
-0.13468044 0.23196541 -0.055737667 0.07732246 0.16083542 -0.0782888 -0.04820605 0.073589176
-0.2986864 0.25903064 -0.07276379 0.12542064 -0.093069986 -0.041265886 0.10502969 0.07476986
-0.14112456 -0.054389108 -0.13303 -0.12101531 -0.12476445 -0.029114604 -0.36640242 0.06311916
0.33788252 0.09796821 0.1118228 -0.0077799107 0.10788268 -0.019655654 0.0007950615 0.05286542
-0.099576525 0.11002972 0.029428715 -0.061438303 -0.10037516 0.003008657 0.13347426 0.07830245
0.21992934 -0.30102283 -0.049880948 0.18125542 -0.07746214 -0.043421015 -0.17694324 -0.11744103
-0.022789596 -0.0802995 -0.15103666 0.07978146 -0.29627565 0.065659374 -0.08151077 0.0045345905

module.graph_layers.0.mlp_upd.0.bias f4 [64]
00000000: b88a 9a3d 7704 86bd 2503 9bb9 58da 66bd
00000010: 4abc fabc b7e1 98bd 9d59 93bd 60ac 8ebd
00000020: 3ad9 f93d 8265 95bd cbc0 c2bb 4658 733d
00000030: d364 f2bc 55e3 6c3e cf48 213d b6a1 903d
00000040: 8a8b b13c 0760 433c bd8e 3a3d aed6 06be
00000050: 48e2 51bd 3c7b 2eb9 1b32 a5ba 0a54 b9bd
00000060: a635 603d 32e9 9dbd c9ba 90bd 53ae e53b
00000070: b7f0 11bd d4c4 ba3d 3a1e e93c 0b73 e53b
00000080: 2426 373d 63d0 18bc 6732 a23d 4d46 023e
00000090: 2a62 2ebd e012 593d b260 c3bd 2e74 b33d
000000a0: feb1 743d 758d a33d b6d0 42bc ba43 30be
000000b0: 6cf9 a83d 5e26 673e d118 ab3d 29c9 42bc
000000c0: fc73 cdbc 1413 debd 63da 4bbc 40e3 533d
000000d0: d21e e13c 145f 2fbd e159 babd 621f cebc
000000e0: 5b24 cb3c 8a12 5fbc 20a7 f73c e1e8 9f3d
000000f0: c3d2 513d 3d64 2f3d 0fca 143d c726 31bd
0.0754599 -0.0654382 -0.00029566247 -0.056360573 -0.030607361 -0.07464927 -0.07194827 -0.06966472
0.12199636 -0.07294752 -0.005943393 0.059410356 -0.029589092 0.23133595 0.039376076 0.07062094
0.021672983 0.01192475 0.045546282 -0.13167831 -0.05124119 -0.00016639841 -0.0012603434 -0.09049232
0.054738663 -0.07710494 -0.070668764 0.0070093065 -0.035629954 0.09119573 0.028456796 0.0070022396
0.044714108 -0.009327027 0.0791977 0.1272213 -0.042574085 0.052996516 -0.095399275 0.08762394
0.05974006 0.07985965 -0.011890581 -0.17213336 0.082506984 0.2257323 0.08354343 -0.011888781
-0.02507972 -0.108434826 -0.012442204 0.051730394 0.027480517 -0.042815283 -0.09099174 -0.025161449
0.02479761 -0.01361526 0.030231059 0.0780809 0.05122639 0.042820204 0.03632551 -0.04324987

module.graph_layers.1.attention_aggr.gate_nn.0.weight f4 [64, 64]
00000000: c7c5 c63d 58f3 05be c84e 9bbe 30db a0be
00000010: 46e8 f3bd 832a 1a3d f2b8 be3e 076d 3dbe
00000020: a42a 2e3f 1a0d 88bd 98c3 c9be 9564 a6be
00000030: a61b 73be 3ff6 87be 55ba 7cbe 69f0 833d
00000040: d8e5 6bbe 1208 21be 60b4 683e 24ac 00bf
00000050: f765 31be e67a 873e f2f4 15be 11cc c1be
00000060: ef81 ff3e aa27 41bc 179a 1cbf 1ffc d73e
00000070: 7c98 a6bd 184f 6b3d 87e4 a63e f3f5 1d3d
00000080: 2529 05bf a900 433e 80df 3dbe 8ffa a2be
00000090: 4344 38be ce55 3dbe 2477 23be d354 e33c
000000a0: 2702 35be 6eb3 6a3d 328c 963e 1e73 893f
000000b0: 77ff 58bf 22e5 85be b916 e4bd 2399 88bd
000000c0: 4791 f83e 8a46 a03d a608 3dbd aff9 debd
000000d0: d33e 5cbe 5ace d3bd 4971 89bd ffa0 d13e
000000e0: 3f03 c5be 3655 673e 6707 743c 3068 0e3e
000000f0: 801d c8bc c501 f9bd 7713 553c 42d8 563d
00000100: dfbf 45be 241e 40be 6085 883d 0552 2f3e
00000110: c202 60bd f358 f6bd 9cb6 98bd b26e 883d
00000120: 60c1 8c3c c000 2bbe 35ae 893d d8c6 d8be
00000130: 7526 273d 6a82 16be a114 0dbf 0f47 163d
00000140: 7a8c 6c3e ffe8 2e3c 6e3b e83d 0072 133e
00000150: e642 de3d 6b2c 5d3d 1611 953b 774f 993e
00000160: ad69 9e3c 6ccf f7bd a306 053e 945f 44bd
00000170: 1594 373e 91d4 19be b342 3dbe 8295 d3bc
00000180: 90d0 be3d dabe 7b3d f6fa 3fbd 1bd9 e23d
00000190: bf8e 4fbd b5a5 9fbc ffbb f6bd 656b 2b3e
000001a0: 4d9f 303e 789a b5bd 72b8 5f3c 49e5 5fbe
000001b0: 6ee4 4d3c f510 48bd f93c 48bb 33aa 8b3d
000001c0: 8e60 a63d afc0 623d e171 dfbd a019 c2bd
000001d0: bd52 2a3e 6053 aa3d b502 6abd c40f 493e
000001e0: 1ef6 55bc 2558 8bbd 4b37 363e 1aa0 e4be
000001f0: df11 653d 341a 65bd d221 b93d ac5f b3bb
00000200: 85fd 01be dc88 193d 36fa 8639 368c 44bd
00000210: a2c0 063e b60e cebd 5380 c5bc 5cee 7d3c
00000220: 7881 4e3e 9a11 7e3d c3c4 5a3c 2efe c0bd
00000230: 30ea a93e f1e2 6c3d e0c8 cfbe f7d0 963d
00000240: 780e 293e 3b1d 433e 65ae 563e 5822 9d3d
00000250: 9010 2abf 0da3 903e 85b3 cebd bc5f f7bc
00000260: c740 10bd 6799 583c e898 a23d cc14 aa3d
00000270: ab3a 9abb 6254 2abe c8aa 223d d673 d73d
00000280: c19f a7bd 629f b0bd 5766 50bd b2bd ba3d
00000290: f5a7 3fbe 2bdc b63d e286 f9be 3af4 073e
000002a0: 48b7 9abd 3c1e 013e 45f8 073e 8466 183e
000002b0: b679 b1b9 02f7 d83b 6743 67be f5f3 fa3c
000002c0: f1f0 333e 4294 a2bd 327b 94bd 0f09 cebe
000002d0: 399e fdbd 9321 983e 2552 64bd 2899 fa3d
000002e0: 2c3b f5bd 63bf ea3d 83f8 ac3d 85da c4bd
000002f0: 2983 9dbc faeb 05bf 5a6c b23d d5ba 1f3e
00000300: aebd f9bd 1757 9d3b b0d7 77be 3301 5e3d
00000310: bb8f 96bd d9b5 debd d56e 16be 71bb c7be
00000320: b2f5 b8bd 8b27 09be 6449 fa3d c28d cf3d
00000330: 5b33 04be c419 01be ee48 563e 8018 9abd
00000340: 5f17 de3d 76b1 c83d 94dc d0bc 4ed0 323e
00000350: 770a 573d 4bba 083c bd9f 6ebd 702b a93d
00000360: 0c09 a13d a873 d1bd 0937 1e3e 920a aebd
00000370: ebe9 3fbf 47f5 363d caf5 243e 2bae 0dbe
00000380: 2bf3 57bd f7de 21bd d754 21bd 2a17 b0bd
00000390: 6c21 e13d 153c 14be 386b ba3d 4a4b 983d
000003a0: 2e18 a5bd 5103 50be 5a98 2b3e c3bf b3bd
000003b0: c40d 05be c00f f23b 954c 9cbe 6289 fe3d
000003c0: b14c 9a3c 3ce2 8f3d d644 73bd f5df b73c
000003d0: b3ee 713d ca5d 003d 95c4 bb3b e2c9 23be
000003e0: 9b6c bc3b d1a6 1e3c ec30 a83c f810 653e
000003f0: 6bb4 38bd 49d0 b5bc ef18 dabd 75ee 0ebe
0.09705692 -0.1308111 -0.30333543 -0.31417227 -0.11909537 0.0376382 0.37250477 -0.18498622
0.68033814 -0.06643124 -0.3940704 -0.32498613 -0.23741016 -0.26555058 -0.24680455 0.06442339
-0.23036897 -0.15725735 0.22725058 -0.50262666 -0.17324053 0.26460952 -0.1464422 -0.37851003
0.4990382 -0.011789242 -0.6117262 0.4218454 -0.08134553 0.057448477 0.32596228 0.038564634
-0.52015907 0.1904322 -0.1854229 -0.31831786 -0.1799479 -0.18489763 -0.15963417 0.027750408
-0.17676602 0.057300024 0.29403836 1.0738256 -0.8476481 -0.26151377 -0.111371465 -0.066698335
0.48548338 0.07825954 -0.046150826 -0.10887467 -0.2150834 -0.10342093 -0.067110606 0.40943143
-0.3847904 0.22591099 0.014894343 0.13906932 -0.02442813 -0.12158541 0.013005129 0.052452333
-0.19311474 -0.18761498 0.06666064 0.17121132 -0.05469013 -0.120286845 -0.07456705 0.066617385
0.017182052 -0.16699505 0.067226805 -0.42339206 0.04080816 -0.14698187 -0.551096 0.03668886
0.23100463 0.010675668 0.1133946 0.14398956 0.108526036 0.05399744 0.004549156 0.2994344
0.0193375 -0.121001095 0.12990813 -0.047942713 0.17927583 -0.15022494 -0.18482475 -0.025828127
0.09317124 0.061461307 -0.046870194 0.11076566 -0.050673243 -0.019488195 -0.12047576 0.16740187
0.17248268 -0.08867353 0.013654815 -0.21864809 0.012566669 -0.048844296 -0.003055392 0.06819572
0.08123885 0.05535954 -0.109103926 -0.09477544 0.16633125 0.08316684 -0.057131488 0.1963492
-0.013059167 -0.068039216 0.1779453 -0.44653398 0.055925246 -0.055933192 0.09039654 -0.0054740515
-0.12694366 0.037484035 0.00025744893 -0.047985278 0.13159421 -0.100614 -0.024109041 0.015498724
0.20166576 0.062028505 0.013352576 -0.09423481 0.33186483 0.057833616 -0.40582943 0.07364076
0.16509426 0.1905412 0.20964964 0.07672566 -0.6643152 0.28249398 -0.100928344 -0.030197017
-0.035218026 0.013220168 0.07939321 0.08304748 -0.004706701 -0.16633752 0.03971365 0.10520141
-0.081847675 -0.0862415 -0.05087885 0.09118213 -0.18716414 0.089287125 -0.4873572 0.13276759
-0.075544894 0.1260919 0.13278301 0.14882857 -0.00033850753 0.0066212425 -0.22584306 0.030633906
0.1757238 -0.07938434 -0.0725006 -0.40241286 -0.12383694 0.29713115 -0.0557424 0.122362435
-0.11974177 0.11462285 0.08445837 -0.09611992 -0.019227581 -0.52313197 0.08712073 0.15598615
-0.12194382 0.0048016417 -0.24203372 0.054200362 -0.07351633 -0.108745284 -0.14690717 -0.39010194
-0.09031238 -0.1339399 0.122210294 0.1013446 -0.12910216 -0.12607485 0.20926258 -0.07524204
0.108443014 0.09799473 -0.025495805 0.17462274 0.052500214 0.008345197 -0.058257807 0.08260238
0.07863054 -0.10227138 0.15450682 -0.0849811 -0.74966305 0.04466751 0.16109386 -0.13835971
-0.052722137 -0.039519276 -0.03938755 -0.08598168 0.10992703 -0.14476044 0.091024816 0.07436235
-0.080612525 -0.20313765 0.16757336 -0.0877681 -0.12993532 0.0073871315 -0.30527177 0.124285474
0.018835397 0.07025573 -0.05939182 0.022445658 0.059065532 0.031339444 0.0057302215 -0.15994981
0.0057502515 0.009683327 0.02053114 0.22369754 -0.045093935 -0.022194045 -0.10649287 -0.13958152

module.graph_layers.1.attention_aggr.gate_nn.0.bias f4 [64]
00000000: 14fc d5bd 7b6c 8dbc 2140 06bc 3d76 253c
00000010: 2dea 9fbc b0b9 ec3d fc54 653d 3011 e93d
00000020: b406 703d bf04 cbbd a283 89bd edc4 e2bc
00000030: 2d14 5a3d 6182 b6bd 0b8c fdbd fb82 d63d
00000040: c27b 683d 63f6 a2bd 52c7 2dbd 2327 123c
00000050: f406 c83d b72a fdbd 3166 c5bd e758 98bd
00000060: c80b d23d 6284 243d 789b 81bd 3c0c 8ebd
00000070: fbf5 323c d2a5 4dbd 47e3 79bc 6ad3 103d
00000080: 79ae af3c b8b0 37bd 7a1d fe3c 71fa 55bd
00000090: 5832 edbd f392 863d ceef ed3c 015f 6fbd
000000a0: 704c 083d 9080 ba3d 6d1d a93c 6151 5bbd
000000b0: 9055 a8bd 2da0 c93d e6da b9bd 413b aa3d
000000c0: 59c7 a0bd 2a99 d6bc bd87 91bd a53c 80bd
000000d0: 8a56 bcbc ab6b b9bd e305 8dbc 3f80 0b3d
000000e0: f235 fabc 23fa 89bb 05a7 813c 6143 e5bd
000000f0: f2a1 ecbd 8609 bf3c 7e69 213d 8564 cabd
-0.10448471 -0.017263642 -0.008194 0.010098991 -0.019520843 0.115588546 0.05598925 0.113802314
0.058600143 -0.099130146 -0.0671456 -0.027681792 0.053241897 -0.089115866 -0.12380227 0.10474201
0.05675865 -0.07957151 -0.042426415 0.008920464 0.09766951 -0.12361663 -0.09638632 -0.07438832
0.10256153 0.040165313 -0.063284814 -0.06935927 0.010922904 -0.050206967 -0.015251941 0.03535787
0.0214455 -0.044846267 0.031019915 -0.052240793 -0.11581868 0.06570997 0.029045012 -0.058440212
0.03327602 0.091065526 0.020643914 -0.053544406 -0.08219445 0.09845004 -0.09074955 0.08312083
-0.078505225 -0.026196081 -0.07105968 -0.06261567 -0.022990484 -0.09053739 -0.017214721 0.034057852
-0.030543301 -0.004210727 0.015826711 -0.11194492 -0.11554326 0.02331997 0.039407246 -0.09882454

module.graph_layers.1.attention_aggr.nn.0.weight f4 [64, 64]
00000000: 4d0b 38bd 7e98 c83d 1f42 313e 98a5 163e
00000010: cd69 f1bd f541 10bd bca6 89be e7c2 2a3d
00000020: 739d c03c 3e57 51bc a9dc 0a3e 71a4 353d
00000030: c697 723d a159 bdbd 46d6 cb3e 77f8 e93d
00000040: d283 c8bd 1514 8fbd eb52 0a3e c19f 5e3d
00000050: d048 843e eaa1 e9bd 5643 1a3d b4d3 d63d
00000060: 5752 fcbd 4173 df3d 9619 12bd 2c87 15be
00000070: 1a55 863e f5ed eabd 198c 51be a3a8 9d3c
00000080: 49a1 223e a735 a1be 7392 b1bd 8c0f 603e
00000090: 649a 7e3d 1f5c 303d 125b 41bc 840a bcbd
000000a0: bd52 75bd 4565 00bd 6346 b73d 644f efbc
000000b0: 183d 413e 190b 383e 74fa b7bd 3316 953d
000000c0: 2205 c9bc 3537 3cbe 51a5 bebb ad51 8e3d
000000d0: ab93 46bd 08fc 903c a67f 723e e56c 82be
000000e0: b855 843e a995 bb3d 52fd 32bd 1cf7 04be
000000f0: 761f e03d 32ee aa3d 3233 fdbc 7564 85bd
00000100: d70c 083e 760b 713d 84bd 80be 8217 213e
00000110: 5da9 603d 83e3 94bd a4c7 f13c b813 6a3b
00000120: f6ad a33c 504e dbbb f4dd ea3e 4b5f e43d
00000130: 45c3 8fbd 87a1 62be e4bf f93d a071 0f3e
00000140: 8511 bf3d c9d0 873e 8b91 81be 9407 4a3c
00000150: a295 ad3d 85ae 883e 66b3 0abd b00b fb3d
00000160: 482d 253e efa5 573d 9504 ca3d d331 34bd
00000170: 2985 bdbc 47d7 f0bc 4a5c edbc dd10 d33d
00000180: 4830 9e3e ac96 a2bd ae3f 53be 44a6 89bd
00000190: 5211 2dbe 28b3 51bd a340 87be 41be a5bd
000001a0: 6b76 7f3d c2df 983d bbec 903d 8836 fabd
000001b0: 6497 9c3e 874d 643a 30ab 793d c126 a1bd
000001c0: 9fd3 4f3e 32e4 b1bc 5340 a43d 6848 b1be
000001d0: f181 0b3b 1ee3 743e 6ce1 f5bb 546c 033e
000001e0: 0832 823d 39b0 553e 5c4c 3cbb f31c edbc
000001f0: 09af e8bd b3ee f9bc 7055 68bd d323 8b3e
00000200: b83d c53d f918 203e 7d89 403d 50b4 ff3d
00000210: 3094 26bd 44bd dc3c d53b c8bd 3447 77be
00000220: bd70 6dbd 2770 50bd 9bd7 02bd 079b a5bd
00000230: 3a70 bfbd 05b9 493e 77e5 86be 1c17 b13d
00000240: 4a3c 43bd 9968 31be 53e2 e6bb 29ac 8ebd
00000250: 1452 8cbd d0e9 473e fb6e 44be 06c6 453b
00000260: e85e ddbd 2eb3 96bc 4eb9 46bd 28d4 d53c
00000270: 594c bc3b 010e b4bd 85c5 993d 68f3 343e
00000280: ec03 32be 199c 633e 6945 74be 8716 d93d
00000290: d5dd a43d e5a9 39be d1e1 16bd e267 69be
000002a0: 0561 cf3e 722a 4bbe 50a3 983e a20b edbd
000002b0: 8bf0 663d 435d 633e a923 523e 92d2 ae3d
000002c0: 306a fcbd e7a1 b33e 2efe 83be 10d1 0d3e
000002d0: d573 18bd 7228 c53c bf74 6abd b2c4 18be
000002e0: 4c70 31be cd92 4a3e 841b 4d3e b4ff 203e
000002f0: fee6 803e c49d 873d 22cf 753e 0a12 e13d
00000300: 339d 223e 8fa8 a93d 1138 303e 7dec bb3d
00000310: 80a3 223e a75f b1ba fae9 cc3d 8136 ed3d
00000320: 90ca ebbc 7b84 ca3d 7fb9 583e 2470 bfbd
00000330: 389f 5abb d2c2 27be 7cfe babb e529 9f3d
00000340: 714f f93c 2c27 a23c 2ee7 373e 2eb7 debd
00000350: cb13 a8be 3d21 d83d 387b f43d dd90 08be
00000360: 8be3 233e 9812 093e 634a cb3d 8545 ed3d
00000370: 6028 38be e680 cd3c 4053 213e cd8e 27bd
00000380: 337f 3c3e 3b0a 2dbd 7e6c 4ebd 0d08 d2bd
00000390: c6bf 14be 8c85 41bd bbff bfbd 46d5 2cbd
000003a0: 6661 0cbd d0d8 42be 7328 38bd 78ac 673d
000003b0: 2826 94bd 4c96 8cbe f8f9 43be 47a4 3c3e
000003c0: 8793 51bc 90e1 cebd 285a 123e 1335 cfbe
000003d0: aa8d 11be 37cb 9a3e 7d05 093c 6cd1 d03d
000003e0: 72d8 22be 8ff0 fa3d f341 723c 00c8 c8bb
000003f0: 4334 a1be 7c62 b9bd c715 b4be dc76 3a3c
-0.044932652 0.097947106 0.1731038 0.14711607 -0.11787758 -0.03521915 -0.2688502 0.04168978
0.023512578 -0.012777148 0.13560738 0.044346277 0.059226774 -0.09245611 0.39811915 0.11424344
-0.09790768 -0.06986252 0.13508193 0.054351572 0.25836802 -0.11407836 0.037661873 0.10489598
-0.123203926 0.10910655 -0.035668932 -0.14602345 0.26236802 -0.11471168 -0.204636 0.019245451
0.15881838 -0.31486246 -0.08670511 0.2188093 0.062158957 0.043056604 -0.011801498 -0.09181693
-0.05989336 -0.03134658 0.08948972 -0.029212661 0.18870962 0.17972983 -0.08983317 0.07279625
-0.02453858 -0.18380435 -0.005818047 0.06949172 -0.04848067 0.017698303 0.23681507 -0.25473705
0.25846648 0.09159405 -0.043698616 -0.1298489 0.10943501 0.083462134 -0.0309082 -0.06513301
0.13286148 0.05884882 -0.2514459 0.15731624 0.054849017 -0.07269957 0.029514141 0.003571732
0.019980412 -0.006692685 0.45872462 0.11150988 -0.070196666 -0.2213193 0.12194803 0.14008188
0.093295135 0.26526478 -0.25306353 0.012330908 0.08475806 0.26695648 -0.033862494 0.122580886
0.16130555 0.05264848 0.09864155 -0.04399283 -0.023134785 -0.029399527 -0.02897467 0.10305951
0.3089621 -0.07938895 -0.2062976 -0.06721166 -0.16901138 -0.051196247 -0.264165 -0.08092929
0.06236879 0.074645534 0.07076403 -0.12217432 0.30584252 0.0008709062 0.060954273 -0.0786872
0.20295571 -0.021715257 0.08020081 -0.34625554 0.0021287168 0.23914763 -0.007503679 0.12834293
0.06357199 0.20868005 -0.0028732037 -0.028944468 -0.1136151 -0.030509328 -0.056722105 0.2717577
0.096309125 0.15634526 0.04700612 0.12485564 -0.040668666 0.026945718 -0.09777037 -0.24148256
-0.057968844 -0.050888207 -0.0319439 -0.0808621 -0.093475774 0.19699486 -0.26346943 0.08646986
-0.047664918 -0.17325057 -0.007046023 -0.06966431 -0.06851593 0.19522786 -0.1918296 0.0030177846
-0.108091176 -0.018395986 -0.048516564 0.02610214 0.005746406 -0.087917335 0.07508377 0.17670977
-0.17384309 0.22227515 -0.23854603 0.106 0.080501236 -0.18131216 -0.03683645 -0.22793534
0.40503708 -0.1984041 0.29812098 -0.115744844 0.056381743 0.22203545 0.20521416 0.08536257
-0.12324941 0.3508446 -0.2577986 0.13849282 -0.03721984 0.024067137 -0.057240244 -0.14918783
-0.17327994 0.19782563 0.20030028 0.15722543 0.25176233 0.06621888 0.24004796 0.10989769
0.15880279 0.08284103 0.17208888 0.09175966 0.15882683 -0.0013532535 0.10005565 0.115826614
-0.028783113 0.0988855 0.21164511 -0.09347561 -0.0033359062 -0.16382912 -0.0057066064 0.077716626
0.030433388 0.01979407 0.17959282 -0.108747825 -0.328276 0.10553215 0.119375646 -0.13336511
0.1600477 0.13385999 0.099262975 0.115855254 -0.17984152 0.025085878 0.15754414 -0.04090767
0.18407898 -0.042246085 -0.050396435 -0.10255442 -0.14526281 -0.0472465 -0.093749486 -0.04219558
-0.034272574 -0.1902802 -0.04496045 0.056560963 -0.0723384 -0.27458417 -0.19138324 0.18422042
-0.012791521 -0.101016164 0.14292204 -0.4047018 -0.14214197 0.30233166 0.008363125 0.10196194
-0.1590288 0.12252914 0.014786231 -0.0061273575 -0.31485185 -0.090519875 -0.35172865 0.011380877
