gnn/trained_model/attrs1.pth (torch, 186169 bytes, 51 tensors)

module.embedding.0.weight f4 [32, 2]
-0.6459939 0.36053738 0.41850013 -0.832359 -0.4802741 -0.39155123 0.519962 -0.54619026
0.3271983 -0.77577156 0.6078625 -0.39594564 0.7910704 0.007523614 -0.7049907 -0.2874672
0.31210947 0.8187434 0.78707594 -0.6412788 0.500971 0.899053 -0.57960075 0.6545451
-0.37328714 0.7211089 0.0041591385 -1.2310388 -0.33070442 -0.24425536 -0.83390874 0.298088
0.91896576 0.09959433 -0.62443036 0.060679343 -0.16299912 -0.7987667 -0.8348331 -0.082528286
0.44215384 -0.6697826 0.3256048 0.11255776 -0.4952559 -0.6722726 -0.83863187 0.2091778
-0.53542227 0.5892194 0.74345684 0.26139733 0.32882935 0.9763503 -0.7138089 -0.3523149
-0.50589824 -0.34022444 0.48533052 0.7313381 0.7707608 0.06679623 -0.22004858 -1.1258625
00000000: db5f 25bf 5b98 b83e a645 d63e 7b15 55bf
00000010: 7de6 f5be 6779 c8be 3b1c 053f 20d3 0bbf
00000020: 8986 a73e f798 46bf e09c 1b3f 63b9 cabe
00000030: 9783 4a3f a688 f63b 457a 34bf e72e 93be
00000040: d0cc 9f3e 2b99 513f cf7d 493f d92a 24bf
00000050: a33f 003f 5628 663f b760 14bf 4590 273f
00000060: 7e1f bfbe 989a 383f 6249 883b ae92 9dbf
00000070: 1752 a9be 141e 7abe 0b7b 55bf fe9e 983e
00000080: 5741 6b3f 1df8 cb3d abda 1fbf e78a 783d
00000090: 3ee9 26be f97b 4cbf 9fb7 55bf 9704 a9bd
000000a0: fd61 e23e df76 2bbf acb5 a63e af84 e63d
000000b0: 2e92 fdbe 0f1a 2cbf 94b0 56bf b532 563e
000000c0: 6f11 09bf 15d7 163f 3053 3e3f dfd5 853e
000000d0: 525c a83e 18f2 793f 2ebc 36bf 9e62 b4be
000000e0: 8c82 01bf e631 aebe 3e7d f83e f938 3b3f
000000f0: 9450 453f 76cc 883d 6a54 61be 431c 90bf

module.embedding.0.bias f4 [32]
-0.4852262 0.7584359 -0.27003855 0.5148431 -0.62503815 0.5415359 0.4942562 -0.6429231
-0.52368194 0.7813825 -0.8061739 0.5992642 0.6411963 0.10250387 0.05130916 -0.17225239
-0.25966984 0.2719528 -0.6741928 0.62117255 -0.59228325 -0.25216773 0.76779383 -0.2786065
0.5502093 -0.54881656 0.61995906 0.6959869 -0.46741334 0.6068136 0.14731856 0.0966686
00000000: 926f f8be db28 423f 7e42 8abe c2cc 033f
00000010: 8002 20bf 19a2 0a3f 260f fd3e 9c96 24bf
00000020: 0510 06bf af08 483f 6a61 4ebf 6169 193f
00000030: 7125 243f 8ded d13d 8e29 523d ee62 30be
00000040: 72f3 84be 663d 8b3e e697 2cbf 2a05 1f3f
00000050: e09f 17bf 211c 81be 238e 443f 83a5 8ebe
00000060: 84da 0c3f 3e7f 0cbf a3b5 1e3f 332c 323f
00000070: cd50 efbe 2358 1b3f adda 163e 30fa c53d

module.graph_layers.0.mlp_msg.0.weight f4 [32, 64]
0.087572835 0.0012578475 -0.04170949 -0.06659337 0.02656899 0.05423125 0.07382561 0.14332068
-0.0672323 0.084287874 0.11938048 0.17379172 0.09275686 0.08168316 0.098498695 0.035614513
-0.022177571 -0.03935933 0.06802025 0.14723533 0.17460571 -0.064580195 0.0624804 0.015577018
0.022343358 -0.050549213 0.09609472 0.06448749 0.1767814 -0.05247916 0.14223419 0.05446293
0.27104017 -0.2625839 0.10395252 -0.11395169 0.14464846 -0.24410301 -0.27928925 0.3565774
0.12644246 -0.26079774 0.17714751 -0.22652037 -0.008608896 0.17198007 -0.16302338 0.16226724
0.30200464 -0.07427124 0.009456158 -0.36860934 0.15308075 -0.06335805 -0.08040979 0.31707004
-0.07947759 0.3265318 -0.050312366 -0.3417875 0.0863906 0.04950817 0.080603205 0.005388155
-0.08668304 -0.111144654 0.06472523 0.025161434 0.11574218 -0.0046985648 -0.08273985 0.03815236
0.0030604498 -0.12764505 0.07886764 0.0023664122 0.10714067 -0.019303013 -0.03638719 0.016989743
0.033439502 -0.08774481 -0.031039322 -0.032856304 -0.09987109 0.07129575 0.008296373 -0.017775
0.06986647 -0.11188756 0.045086652 0.034579325 0.09482723 -0.0671103 0.025820835 -0.026477117
-0.20867474 0.12740025 -0.08508136 0.05194765 -0.097620435 0.059078112 0.016077239 -0.10697113
-0.14178507 0.13016173 -0.03129356 -0.0279931 -0.05552865 0.025613278 -0.056829996 -0.22725798
0.07085144 -0.13368075 -0.14149085 -0.19557324 0.1214175 -0.021198608 -0.07607117 -0.21926571
-0.10998306 0.11012768 0.021223152 -0.17014815 -0.15678076 -0.040813595 0.07795955 0.13863215
0.004563758 0.11319022 0.013365543 0.022072585 -0.08004834 -0.112311214 0.1013961 0.0987712
0.042369984 0.10590717 0.030703675 0.04932516 -0.041504122 -0.095499754 -0.05864989 0.045025535
-0.044400312 -0.07864432 -0.009057428 -0.06991394 0.037392728 -0.047054805 0.077206165 -0.061983228
0.04067997 -0.08294949 0.114245564 0.09285773 -0.043220676 0.08313155 0.10880105 0.031379204
-0.16342032 0.48314622 0.086708754 0.19159551 0.034992654 0.06840915 0.057528287 -0.06352347
-0.9367395 0.18833339 -0.8042321 0.02296851 -0.014583453 0.5427098 0.15353045 -0.13897604
-0.04606701 0.1258674 0.16986604 0.07867872 -0.10539075 -0.037904654 0.3891186 -0.14400154
0.041356232 -0.34801564 -0.15466715 0.22033763 0.060925994 -0.17845772 0.09542951 0.32865113
0.006759747 -0.092972636 -0.07078977 0.0354654 0.12821463 -0.05265208 -0.06198189 -0.024322396
0.0747825 0.08530249 -0.08445807 -0.019939004 0.10843684 -0.079665065 0.07751399 -0.012193086
-0.11200442 0.045208547 -0.104477495 -0.114787616 0.12439309 0.007774201 0.002114985 0.100858614
0.012662202 -0.044869 -0.052047726 -0.09447983 -0.092139006 -0.0043210494 -0.101992786 -0.08065499
0.042123955 0.13675182 -0.064820334 -0.031886477 0.30942035 0.093451135 0.21046516 -0.12446407
0.0020799167 -0.016745193 0.22214499 -0.6105983 -0.31240174 0.14557171 -0.21423194 -0.16221227
0.47883317 -0.50796753 0.034956377 -0.5895267 0.3273747 0.13619113 -0.018007245 -0.24205084
-0.71971816 0.39420637 0.03390738 -0.19923377 -0.12300004 -0.06463415 0.29122022 -0.11520171
00000000: 6359 b33d 5cde a43a 92d7 2abd 1b62 88bd
00000010: 36a7 d93c 9621 5e3d e231 973d a8c2 123e
00000020: 17b1 89bd 1f9f ac3d c17d f43d 75f6 313e
00000030: 4ff7 bd3d 8049 a73d afb9 c93d 86e0 113d
00000040: bdad b5bc 4037 21bd 334e 8b3d dcc4 163e
00000050: d7cb 323e 9f42 84bd 73eb 7f3d c036 7f3c
00000060: 6b09 b73c b10c 4fbd 4fcd c43d 0412 843d
00000070: 2f06 353e 63f4 56bd d7a5 113e 8514 5f3d
00000080: c7c5 8a3e 6671 86be 0fe5 d43d 815f e9bd
00000090: ba1e 143e 24f6 79be 00ff 8ebe 5091 b63e
000000a0: 227a 013e 4887 85be 2866 353e f5f4 67be
000000b0: 540c 0dbc 8b1b 303e 9aef 26be 6229 263e
000000c0: 5aa0 9a3e 851b 98bd 00ee 1a3c 5dba bcbe
000000d0: 33c1 1c3e dec1 81bd e3ad a4bd 0157 a23e
000000e0: 26c5 a2bd 2d2f a73e 5714 4ebd c5fe aebe
000000f0: 8eed b03d 14c9 4a3d 4b13 a53d 1f8f b03b
00000100: e186 b1bd cf9f e3bd a98e 843d 5a1f ce3c
00000110: 3c0a ed3d 6bf6 99bb 8373 a9bd a645 1c3d
00000120: d491 483b 62b5 02be 5b85 a13d cf15 1b3b
00000130: 916c db3d 5a21 9ebc bc0a 15bd 132e 8b3c
00000140: dcf7 083d 8db3 b3bd 2d46 febc 5594 06bd
00000150: 3789 ccbd 8203 923d 83ed 073c e09c 91bc
00000160: 2716 8f3d 4e25 e5bd c8ac 383d 0da3 0d3d
00000170: c734 c23d 2071 89bd 3786 d33c 8ae6 d8bc
00000180: d5ae 55be 3675 023e 233f aebd 0fc7 543d
00000190: 39ed c7bd e4fb 713d 6ab4 833c ae13 dbbd
000001a0: 1b30 11be 1e49 053e ad2d 00bd c951 e5bc
000001b0: 0272 63bd f0d2 d13c 92c6 68bd 51b6 68be
000001c0: 8f1a 913d 9be3 08be fae2 10be 5a44 48be
000001d0: bda9 f83d b4a8 adbc 34cb 9bbd 3187 60be
000001e0: cc3e e1bd 9f8a e13d 2ddc ad3c 513b 2ebe
000001f0: 238b 20be 282c 27bd 42a9 9f3d 96f5 0d3e
00000200: 948b 953b 46d0 e73d 27fb 5a3c 91d1 b43c
00000210: 62f0 a3bd 6c03 e6bd c2a8 cf3d 8e48 ca3d
00000220: 268c 2d3d dce5 d83d 4686 fb3c 2e09 4a3d
00000230: 3a00 2abd 6095 c3bd de3a 70bd b26c 383d
00000240: 1add 35bd 4610 a1bd 9b65 14bc 0a2f 8fbd
00000250: 1e29 193d 8abc 40bd 441e 9e3d 20e2 7dbd
00000260: 0aa0 263d 6ce1 a9bd 94f9 e93d 322c be3d
00000270: 2a08 31bd e040 aa3d 16d3 de3d 7b87 003d
00000280: a857 27be f15e f73e 5c94 b13d 9d31 443e
00000290: 7554 0f3d 191a 8c3d c8a2 6b3d 9818 82bd
000002a0: 29ce 6fbf 78da 403e 28e2 4dbf 7528 bc3c
000002b0: 6fef 6ebc 08ef 0a3f 1637 1d3e bc4f 0ebe
000002c0: c3b0 3cbd 62e3 003e 5df1 2d3e 4f22 a13d
000002d0: 1bd7 d7bd e941 1bbd 8e3a c73e 2475 13be
000002e0: 2765 293d 1b2f b2be 1161 1ebe 30a0 613e
000002f0: 898d 793d 9fbd 36be 8c70 c33d f644 a83e
00000300: de80 dd3b 7068 bebd 3afa 90bd 2b44 113d
00000310: b24a 033e b5a9 57bd b9e0 7dbd c33f c7bc
00000320: 9127 993d 12b3 ae3d 5af8 acbd 1f57 a3bc
00000330: 2214 de3d 7027 a3bd a8bf 9e3d 82c5 47bc
00000340: 9362 e5bd 992c 393d 4cf8 d5bd c515 ebbd
00000350: cec1 fe3d babe fe3b 8f9b 0a3b f68e ce3d
00000360: 2075 4f3c 8ec8 37bd ff2f 55bd a47e c1bd
00000370: 60b3 bcbd 9797 8dbb 98e1 d0bd 722e a5bd
00000380: 2b8a 2c3d ab08 0c3e 86c0 84bd 659b 02bd
00000390: 586c 9e3e 4f63 bf3d 2e84 573e 05e7 febd
000003a0: 364f 083b 372d 89bc fa79 633e 2c50 1cbf
000003b0: 1ff3 9fbe c010 153e 9e5f 5bbe f91a 26be
000003c0: 9f29 f53e 290a 02bf 6b2e 0f3d 39eb 16bf
000003d0: a89d a73e b075 0b3e ee83 93bc 2ddc 77be
000003e0: 733f 38bf 6bd5 c93e 77e2 0a3d f003 4cbe
000003f0: 72e7 fbbd e95e 84bd d11a 953e e0ee ebbd

module.graph_layers.0.mlp_msg.0.bias f4 [32]
0.04250488 -0.08419176 -0.12151154 0.09520481 0.095810406 -0.0739053 0.084074385 0.1303297
-0.12340291 0.004965445 -0.054665964 -0.028345512 -0.11002208 -0.13490824 -0.051286813 -0.065773495
-0.07007421 0.06677204 0.03541819 -0.10258295 -0.12467544 -0.027432986 -0.044822097 -0.11730574
-0.03717154 -0.12298354 0.028901024 0.060415648 -0.08633259 -0.071570426 0.03035142 0.005695358
00000000: 9919 2e3d bb6c acbd 0bdb f8bd bdfa c23d
00000010: 3f38 c43d a95b 97bd 312f ac3d 2675 053e
00000020: aaba fcbd 2cb5 a23b 6be9 5fbd d934 e8bc
00000030: 4253 e1bd 6325 0abe 1f12 52bd 41b4 86bd
00000040: 1183 8fbd c8bf 883d aa12 113d 0217 d2bd
00000050: d655 ffbd 24bb e0bc 6097 37bd fe3d f0bd
00000060: 2f41 18bd cbde fbbd d7c1 ec3c 6676 773d
00000070: 24cf b0bd 8493 92bd 8ba3 f83c 20a0 ba3b

module.graph_layers.0.mlp_upd.0.weight f4 [32, 64]
0.03405405 0.019810362 -0.10874976 0.11386998 0.05470832 -0.077411026 -0.105562165 0.02666446
-0.0047977553 0.053895626 -0.11196094 0.1010707 0.03430227 0.028160725 0.100381315 -0.03085118
0.07006415 -0.10317908 -0.09854123 0.1327687 0.07755892 -0.091018304 -0.09949587 0.09494124
-0.0034670122 0.06060167 -0.089967996 -0.099392354 0.07015979 0.0705943 0.04252147 -0.027501356
0.11235001 -0.09771404 0.09764353 0.09367632 -0.15699184 0.0683645 -0.026963005 -0.15990937
-0.44706923 -0.14419003 -0.17214462 0.07666996 -0.04847521 0.40971532 0.11844378 0.012700686
0.078114666 -0.16905418 -0.2025951 0.18249543 -0.0036640405 0.21205539 -0.2123528 -0.084144846
0.06603863 0.0032010314 0.011404681 -0.20170923 0.007523144 -0.14974658 -0.3265566 -0.016491264
0.025885956 -0.06954443 0.002163884 0.017464954 -0.09051766 -0.013772844 -0.09254164 -0.09918777
-0.052433457 0.018253133 0.055950142 0.10770806 -0.054742854 0.034383986 0.049559344 0.10452718
0.014101339 -0.04879032 0.07690596 0.061397728 0.029746704 -0.116780974 -0.086969234 -0.098585986
0.08006034 0.04850028 0.1031032 0.048984952 0.0369307 0.08549688 -0.05588111 -0.10034337
-0.014731156 -0.0136668105 -0.06471778 -0.2052668 -0.021777185 0.14037172 -0.04007177 0.011039639
-0.21865267 0.057367377 -0.032415327 -0.027935797 0.24031621 0.046719104 0.14584732 0.0032227305
0.20321569 -0.10886252 -0.11194448 0.13354565 -0.13739896 -0.058574185 0.21229729 -0.23535372
-0.045692503 -0.18491553 0.08479072 0.030866666 -0.0976705 0.17707519 0.091866724 -0.028514449
-0.24131179 -0.2176046 -0.2082756 -0.14473605 -0.1104575 -0.04045725 -0.07424809 -0.09285931
-0.22606331 -0.20090522 -0.20272654 -0.2154194 -0.11131962 -0.25241992 -0.09609812 -0.19205691
-0.11561439 -0.0814081 -0.23333418 -0.2740797 -0.23991637 -0.24504294 -0.087226905 -0.09865141
-0.1273825 -0.23529978 -0.11490809 -0.11625243 -0.14999527 -0.13945025 -0.17951341 -0.24066137
-0.015109452 -0.111983895 -0.027882403 0.03230877 0.13665985 -0.02917631 -0.003879164 -0.0725052
0.14193991 0.014023734 -0.12525426 0.12776159 -0.022257358 0.19078603 0.16553706 -0.13025768
-0.21489084 0.14229046 0.010763021 0.13304512 0.012878026 -0.035323896 0.122097865 0.1137179
-0.08907786 0.02169187 -0.060282007 -0.020435581 -0.21914068 0.13509591 -0.13665687 0.12858388
-0.0019374003 -0.08623651 -0.0448438 -0.04236534 -0.12384646 0.06570055 -0.09232886 -0.10721317
-0.027718522 0.1091222 0.069867566 -0.117372334 -0.024292186 -0.13787201 0.05886912 0.013803455
0.09615442 0.08320528 -0.03995419 -0.09661946 -0.11743152 0.10445304 -0.0895371 -0.111081064
-0.13461296 -0.026600119 -0.0057239337 -0.08637674 0.06999552 -0.09535368 -0.060919225 -0.088231236
0.31054044 -0.045881353 -0.06304661 0.33193937 0.30107397 0.47744521 -0.2206518 0.08326691
0.05810752 -1.0507878 -0.10733835 -0.061674587 0.02314095 0.4819681 0.41824675 -0.10755885
-0.20238468 -0.049922988 -0.11026466 0.4210807 0.02928873 -0.22279939 -0.077349275 -0.16137978
0.109345846 0.91782296 -0.115622886 -0.0010329363 0.13383757 0.2152364 0.13610229 0.0988942
00000000: 427c 0b3d 5749 a23c 32b8 debd aa34 e93d
00000010: d515 603d ac89 9ebd fa30 d8bd 6d6f da3c
00000020: 7d36 9dbb a9c1 5c3d c74b e5bd 28fe ce3d
00000030: 8980 0c3d 52b1 e63c b894 cd3d 9dbb fcbc
00000040: cb7d 8f3d 8e4f d3bd fccf c9bd 85f4 073e
00000050: 36d7 9e3d ce67 babd 7ec4 cbbd 8e70 c23d
00000060: d036 63bb 7539 783d 2441 b8bd 388e cbbd
00000070: f0af 8f3d bf93 903d fe2a 2e3d 864a e1bc
00000080: c317 e63d 4c1e c8bd 55f9 c73d 5fd9 bf3d
00000090: 78c2 20be b002 8c3d 85e1 dcbc 48bf 23be
000000a0: 42e6 e4be 8da6 13be ae46 30be 2405 9d3d
000000b0: f18d 46bd 35c6 d13e a792 f23d 8a16 503c
000000c0: 95fa 9f3d 8a1c 2dbe 1775 4fbe 15e0 3a3e
000000d0: 6620 70bb 0c25 593e 0373 59be 2254 acbd
000000e0: 433f 873d 65c8 513b b3da 3a3c dd8c 4ebe
000000f0: b584 f63b 2b57 19be 6d32 a7be b018 87bc
00000100: c90e d43c 4f6d 8ebd f3cf 0d3b aa12 8f3c
00000110: 5361 b9bd 7fa7 61bc 7986 bdbd f522 cbbd
00000120: 77c4 56bd 9887 953c fa2b 653d 0b96 dc3d
00000130: 0b3a 60bd 39d6 0c3d bdfe 4a3d 5912 d63d
00000140: 4d09 673c 5cd8 47bd df80 9d3d 2f7c 7b3d
00000150: 5caf f33c dd2a efbd ed1c b2bd 73e7 c9bd
00000160: adf6 a33d 3ba8 463d c527 d33d 72a4 483d
00000170: a544 173d fd18 af3d 97e3 64bd d380 cdbd
00000180: f25a 71bc c2ea 5fbc c18a 84bd 7631 52be
00000190: 1166 b2bc 9bbd 0f3e 4c22 24bd 9adf 343c
000001a0: 7ce6 5fbe 0efa 6a3d efc5 04bd 9dd9 e4bc
000001b0: 7415 763e 885c 3f3d 0059 153e 7234 533b
000001c0: c617 503e 50f3 debd 2643 e5bd 31c0 083e
000001d0: 50b2 0cbe 7ceb 6fbd 7664 593e 9100 71be
000001e0: 1028 3bbd 7f5a 3dbe c2a6 ad3d 17dc fc3c
000001f0: 7907 c8bd 3353 353e 9f24 bc3d 2297 e9bc
00000200: 701a 77be bed3 5ebe 3346 55be b035 14be
00000210: 8b37 e2bd 80b6 25bd 620f 98bd 062d bebd
00000220: 247d 67be 19ba 4dbe 8c97 4fbe e796 5cbe
00000230: 8afb e3bd 2f3d 81be 17cf c4bd 91aa 44be
00000240: 3dc7 ecbd 4ab9 a6bd 28ef 6ebe 2d54 8cbe
00000250: a3ac 75be 89ec 7abe 05a4 b2bd c009 cabd
00000260: 8f70 02be 6df2 70be ef54 ebbd c115 eebd
00000270: 5c98 19be 0ccc 0ebe 5dd2 37be ef6f 76be
00000280: a38d 77bc d057 e5bd a369 e4bc 3356 043d
00000290: 8ff0 0b3e 2803 efbc 9339 7ebb 9b7d 94bd
000002a0: b258 113e cec3 653c a742 00be efd3 023e
000002b0: 1055 b6bc 6a5d 433e 8c82 293e 4562 05be
000002c0: 580c 5cbe 97b4 113e 6257 303c fb3c 083e
000002d0: 5bfe 523c caaf 10bd 720e fa3d eee4 e83d
000002e0: 746e b6bd 26b3 b13c 44ea 76bd 8568 a7bc
000002f0: 6a66 60be 9556 0a3e c7ef 0bbe 7eab 033e
00000300: 5ef0 fdba c49c b0bd 22ae 37bd 4787 2dbd
00000310: 36a3 fdbd 038e 863d ea16 bdbd 9492 dbbd
00000320: f411 e3bc 767b df3d ba16 8f3d e860 f0bd
00000330: 6800 c7bc 522e 0dbe bf20 713d e327 623c
00000340: 9cec c43d 8867 aa3d 01a7 23bd 6ce0 c5bd
00000350: f07f f0bd 7aeb d53d 3a5f b7bd 787e e3bd
00000360: fbd7 09be 7ee8 d9bc d68f bbbb 4ae6 b0bd
00000370: d059 8f3d ca48 c3bd 7086 79bd 94b2 b4bd
00000380: 28ff 9e3e 16ee 3bbd 951e 81bd f5f3 a93e
00000390: 5e26 9a3e b373 f43e 8cf2 61be d787 aa3d
000003a0: 2702 6e3d 3780 86bf 35d4 dbbd 7e9e 7cbd
000003b0: 1792 bd3c 86c4 f63e 7024 d63e d047 dcbd
000003c0: ee3d 4fbe 0c7c 4cbd 70d2 e1bd e497 d73e
000003d0: ebee ef3c 8625 64be 4c69 9ebd be40 25be
000003e0: b7f0 df3d 72f6 6a3f b1cb ecbd 9763 87ba
000003f0: b70c 093e ee66 5c3e 665e 0b3e 0b89 ca3d

module.graph_layers.0.mlp_upd.0.bias f4 [32]
0.099703774 -0.09885197 -0.2533597 0.05252005 0.100433655 0.047759615 0.069259815 -0.08119556
0.050400615 -0.11515321 0.0072596995 -0.09322901 -0.04835439 0.032042757 0.12755705 -0.09030513
-0.05576012 -0.11568392 -0.06851687 0.06977284 0.07461738 -0.07367627 0.080568254 0.024369145
0.08518418 0.02920044 0.028778065 0.008557455 -0.0695387 -0.048203323 -0.076951884 -0.10210095
00000000: 7e31 cc3d e772 cabd 5db8 81be 441f 573d
00000010: 29b0 cd3d 969f 433d 17d8 8d3d dc49 a6bd
00000020: e070 4e3d 72d5 ebbd c6e2 ed3b daee bebd
00000030: 410f 46bd 443f 033d 519e 023e e5f1 b8bd
00000040: b964 64bd b1eb ecbd 9352 8cbd 10e5 8e3d
00000050: ffd0 983d 96e3 96bd f800 a53d cda1 c73c
00000060: 0b75 ae3d c335 ef3c fabf eb3c 9134 0c3c
00000070: 4e6a 8ebd d970 45bd f398 9dbd 4e1a d1bd

module.graph_layers.1.mlp_msg.0.weight f4 [32, 64]
0.115140736 -0.34650096 0.011193834 0.072535016 -0.3649264 -0.042346597 0.041573692 0.2029216
-0.14944872 -0.095742725 -0.04236284 -0.018101186 0.02355182 0.12304928 0.028735625 -0.076259606
-0.079332456 0.44370294 -0.29180762 -0.06261722 0.083402514 0.23986289 -0.0060640504 -0.12207078
0.5414517 0.0298874 0.087017454 0.116640195 -0.15092775 0.02968338 -0.008466869 -0.058008466
0.26785785 0.13901964 0.1425919 0.09353241 0.18351711 -0.0054332484 -0.07329306 0.16803992
-0.13525161 0.056959033 -0.13682641 0.26333255 -0.22451401 0.14413829 -0.04687441 -0.05377685
0.065374985 -0.20232046 0.18150449 0.039466854 -0.24473467 -0.09603123 -0.17532034 -0.2702872
0.3400231 -0.022522083 -0.03519197 0.14584032 0.52062035 0.14462303 0.19939476 0.13378634
0.024848012 -0.16682921 -0.098911665 0.10214608 -0.6008706 0.05535564 0.23172936 0.066283904
0.017902594 -0.13121928 -0.09678998 0.01227987 0.18037327 -0.111776754 -0.0070886537 -0.15468153
0.056110416 0.4593187 -0.23622842 -0.06531797 0.0009975119 0.095414825 0.090724096 -0.07169332
0.13065137 0.028526403 -0.088700525 -0.06732267 0.0434941 -0.011842953 0.14957464 0.07146053
0.17401765 -0.081500046 -0.2438718 -0.025766954 -0.034532625 0.226104 0.2099713 -0.24595895
0.19253163 -0.13012317 0.026865726 0.30705228 -0.096170485 0.10658433 -0.24815562 0.056571785
0.37355018 0.12927626 -0.07852837 -0.15849012 -0.12297913 0.1952326 0.08060669 0.33872128
-0.24434912 -0.028535584 -0.04111175 -0.21651839 -0.26314276 0.18993422 0.03728595 -0.1877385
0.048052352 -0.05825696 0.03368014 -0.013524197 -0.37422547 0.081234075 0.039138522 0.15448089
-0.21051215 0.016020354 -0.1157036 -0.13793631 0.07690305 -0.29399857 -0.15224063 0.011067544
0.10975472 0.330444 -0.31097054 0.29549363 0.22628029 -0.2465759 -0.030144146 0.0016392819
-0.05852732 0.04696437 0.09733246 -0.009010531 0.050832145 -0.13248438 0.079331204 -0.20866126
0.11854465 -0.031624593 -0.07560544 -0.03555551 -0.12621891 0.25159794 0.03721929 0.14484487
-0.139192 0.06663112 -0.24527058 0.006386986 0.27438056 0.11380511 -0.111914895 -0.0017932381
-0.45591295 0.17106245 0.030840192 -0.09683556 -0.09773163 0.0619844 0.07162395 -0.047510974
0.14912409 -0.35007787 0.13005455 0.04406137 -0.44351652 0.18540849 -0.124842145 -0.07356036
0.124125436 -0.2205305 -0.033042286 -0.040078573 -0.10271774 0.14234684 0.079126954 -0.15127727
0.193877 0.04061991 0.06294506 0.031184547 0.0706439 -0.11326857 0.010994554 0.0052945004
0.12544528 0.19289178 -0.6335858 0.0063485503 -0.16315804 -0.16119546 0.06421112 -0.012460849
0.52367634 0.020971593 0.05428377 -0.07109819 0.030161336 0.15259343 -0.026954474 0.08314038
0.05069796 0.06679314 -0.4246141 0.08641127 -0.52503735 0.3235827 0.061454598 -0.053923093
0.05477928 -0.12636623 -0.24401973 0.13489096 -0.19943272 0.14109065 -0.12530719 0.14155465
0.0908281 0.045939762 -0.065909036 -0.05330994 -0.052150223 0.061936107 0.31025186 0.30155048
-0.33224434 -0.15843722 -0.131424 0.08242616 0.41668987 0.0963135 0.0563491 -0.19404922
00000000: e8ce eb3d 9368 b1be 5866 373c 3d8d 943d
00000010: a2d7 babe a073 2dbd 2d49 2a3d aeca 4f3e
00000020: 1609 19be c314 c4bd a884 2dbd f048 94bc
00000030: bfef c03c 4301 fc3d f966 eb3c ff2d 9cbd
00000040: 0e79 a2bd 082d e33e cf67 95be 753d 80bd
00000050: f0ce aa3d 9e9e 753e f1b4 c6bb 3f00 fabd
00000060: 949c 0a3f 6cd6 f43c 3536 b23d 0ee1 ee3d
00000070: ce8c 1abe 8f2a f33c 9fb8 0abc 499a 6dbd
00000080: aa24 893e 2a5b 0e3e 9c03 123e ec8d bf3d
00000090: e9eb 3b3e 6409 b2bb ac1a 96bd a812 2c3e
000000a0: 667f 0abe e04d 693d 391c 0cbe 86d3 863e
000000b0: 00e7 65be fd98 133e 62ff 3fbd 1d45 5cbd
000000c0: 52e3 853d 182d 4fbe 50dc 393e ffa7 213d
000000d0: ba9b 7abe 06ac c4bd 2d87 33be 1563 8abe
000000e0: 8217 ae3e 3b80 b8bc 7525 10bd 2a57 153e
000000f0: 6047 053f 0f18 143e 242e 4c3e 49ff 083e
00000100: 0f8e cb3c 47d5 2abe 3392 cabd f731 d13d
00000110: a8d2 19bf 98bc 623d 764a 6d3e dbbf 873d
00000120: 76a8 923c 595e 06be d339 c6bd 8231 493c
00000130: c5b3 383e 36eb e4bd f047 e8bb d664 1ebe
00000140: 09d4 653d d22b eb3e dde5 71be 6ec5 85bd
00000150: f2be 823a d968 c33d 8ecd b93d f3d3 92bd
00000160: 79c9 053e 34b0 e93c 9fa8 b5bd 78e0 89bd
00000170: df26 323d f208 42bc 182a 193e e659 923d
00000180: af31 323e 7fe9 a6bd 87b9 79be 3815 d3bc
00000190: 1572 0dbd cf87 673e b702 573e aadc 7bbe
000001a0: 0327 453e 023f 05be 8315 dc3c f535 9d3e
000001b0: 08f5 c4bd e348 da3d 821c 7ebe d1b7 673d
000001c0: f841 bf3e ff60 043e 7bd3 a0bd 3c4b 22be
000001d0: 7bdc fbbd 0eeb 473e 1f15 a53d e06c ad3e
000001e0: a836 7abe 75c3 e9bc cb64 28bd ffb6 5dbe
000001f0: a6ba 86be 1e7e 423e 27b9 183d 853e 40be
00000200: 8bd2 443d da9e 6ebd 30f4 093d 9894 5dbc
00000210: 7b9a bfbe 0d5e a63d b74f 203d 3d30 1e3e
00000220: 7f90 57be 1e3d 833c 02f6 ecbd 2d3f 0dbe
00000230: 597f 9d3d fb86 96be f8e4 1bbe a554 353c
00000240: 15c7 e03d f52f a93e 8837 9fbe f14a 973e
00000250: 05b6 673e 657e 7cbe dbf0 f6bc 2cdd d63a
00000260: 58ba 6fbd b65d 403d 3e56 c73d e8a0 13bc
00000270: 5e35 503d fca9 07be 6678 a23d 4cab 55be
00000280: 8ac7 f23d ca88 01bd 06d7 9abd a8a2 11bd
00000290: 883f 01be 72d1 803e 4173 183d 3752 143e
000002a0: 5988 0ebe e675 883d 3628 7bbe ec49 d13b
000002b0: 9c7b 8c3e a712 e93d a333 e5bd 160b ebba
000002c0: 6c6d e9be ff2a 2f3e 92a4 fc3c b951 c6bd
000002d0: 8527 c8bd 5be3 7d3d 94af 923d de9a 42bd
000002e0: fcb3 183e 683d b3be 052d 053e b279 343d
000002f0: 9914 e3be b9db 3d3e 3dad ffbd d0a6 96bd
00000300: 7a35 fe3d bfd2 61be 5957 07bd 6e29 24bd
00000310: ae5d d2bd 5fc3 113e 500d a23d 6ee8 1abe
00000320: b187 463e 1061 263d 57e9 803d bc76 ff3c
00000330: c0ad 903d 5af9 e7bd 8022 343c 7d7d ad3b
00000340: ba74 003e 6c85 453e ae32 22bf 8007 d03b
00000350: e712 27be 6c10 25be 1f81 833d 9728 4cbc
00000360: a70f 063f 9ecc ab3c a958 5e3d ee9b 91bd
00000370: e814 f73c 7441 1c3e a1cf dcbc 8145 aa3d
00000380: aaa8 4f3d d7ca 883d 0567 d9be 64f8 b03d
00000390: d968 06bf a2ac a53e d1b7 7b3d 76de 5cbd
000003a0: 3d60 603d 2666 01be 4fe0 79be db20 0a3e
000003b0: 1738 4cbe 117a 103e 8750 00be b4f3 103e
000003c0: 1504 ba3d 552b 3c3d 51fb 86bd 865b 5abd
000003d0: 799b 55bd b7b0 7d3d 55d9 9e3e d364 9a3e
000003e0: ee1b aabe 5e3d 22be 0394 06be 0ccf a83d
000003f0: 6058 d53e 0340 c53d 50ce 663d d7b4 46be

module.graph_layers.1.mlp_msg.0.bias f4 [32]
-0.16807899 0.07323131 0.064100325 -0.08595172 -0.19417898 -0.0010396523 -0.09816864 -0.08692491
-0.1931519 0.14090571 -0.09849423 -0.002094644 0.19990043 -0.05495636 0.007406945 -0.08595242
0.0820718 0.12980284 -0.12433859 -0.15722066 0.026179807 -0.006538316 -0.11336625 -0.21486913
-0.117001295 -0.10173087 -0.032113176 -0.011855763 -0.0697969 0.026244106 -0.08219984 0.14480029
00000000: e61c 2cbe 4cfa 953d 0847 833d 7507 b0bd
00000010: dbd6 46be f144 88ba a40c c9bd b005 b2bd
00000020: 9dc9 45be 9649 103e 58b7 c9bd 4b46 09bb
00000030: b3b2 4c3e ec19 61bd f5b5 f23b d307 b0bd
00000040: 4315 a83d 09eb 043e 3ba5 febd 74fe 20be
00000050: 0977 d63c 5f3f d6bb 912c e8bd a706 5cbe
00000060: 609e efbd 4658 d0bd 1b89 03bd ad3e 42bc
00000070: adf1 8ebd e1fd d63c 6458 a8bd 8746 143e

module.graph_layers.1.mlp_upd.0.weight f4 [32, 64]
-0.10744501 0.121871464 0.030703936 -0.23473193 -0.10244007 0.02366614 0.07362114 0.12368297
0.10447465 -0.07293292 -0.119292 -0.12132904 0.28883845 -0.15002842 -0.15106411 0.09383965
0.32667303 -0.010883337 -0.14949301 -0.045228925 0.07256505 0.06647755 0.021112427 -0.15186515
0.11438693 0.15547088 -0.116684064 0.027011726 -0.16214278 0.025288539 0.06604069 0.17698134
0.040543083 -0.08781054 -0.12314363 -0.17326671 0.05208082 0.10844894 0.14307365 0.09056189
0.040929396 -0.19251955 -0.019283032 0.13296293 -0.027819334 -0.15134671 -0.16751863 -0.04098877
0.25945085 0.14491946 0.13353395 -0.0147975795 -0.0733414 0.109132856 0.13235098 0.104606315
0.1588275 -0.16429317 -0.011220462 -0.058225453 -0.18550186 -0.28731602 0.14996459 -0.17985904
0.059948754 0.15855247 0.03771734 0.22453064 0.0721501 -0.07440154 0.04331721 0.103101805
-0.14435071 -0.011586826 -0.07254884 0.08358111 -0.2605978 0.05546565 0.15173067 -0.0621437
-0.16674304 -0.22934166 0.22854589 0.16457729 -0.01185686 -0.3092851 -0.08934504 0.12669167
0.009520767 -0.07042633 -0.024607668 -0.20957394 0.2815133 -0.058678307 -0.09624029 -0.06301223
-0.14645472 0.096146286 0.18052943 0.18836223 -0.053278297 0.03839259 -0.13731726 -0.066303685
0.038609717 0.17989413 -0.05432345 -0.17314202 -0.14506839 -0.086707026 0.06596223 0.0057748696
-0.06644996 -0.24880934 -0.22005035 -0.31015703 -0.03209433 -0.04501469 -0.18437326 0.017649176
0.091966525 0.037230022 -0.13584566 0.17582552 0.29813182 0.15935999 -0.17317523 0.233071
-0.045285374 0.11367878 0.11717373 -0.04088092 -0.066596106 0.13189028 0.17371264 0.054045517
0.09566604 -0.17258073 0.058393136 -0.055919163 -0.1435808 -0.008155639 -0.11556471 -0.1803989
0.1863389 0.10531659 0.009976679 -0.30592105 -0.10660526 -0.20584315 -0.028883701 -0.07245504
-0.15843469 0.0033559161 0.056082875 -0.006418145 0.18405144 -0.103520475 0.05374223 -0.020907553
-0.0123619 -0.16423544 0.19848205 -0.21400595 0.08502056 0.047412276 -0.08198459 0.105072044
-0.015012791 0.01989832 -0.17542534 0.110087775 0.13642962 0.12497764 0.18528089 -0.16201052
-0.080592155 -0.041263916 0.050206874 -0.13031526 -0.24063548 -0.10873464 0.08880792 0.06421676
0.0814775 0.16774838 -0.04282419 0.09381313 -0.029531319 -0.03027101 0.07086921 -0.2791677
-0.05815038 -0.25092274 -0.17630695 0.22286686 -0.10511432 -0.017759841 0.08425767 -0.12099733
0.12756352 -0.19432564 0.10924333 0.1564391 -0.118310064 -0.11395837 0.087994576 0.22895046
-0.15919365 -0.25561565 0.091153435 -0.20486613 0.1503722 -0.5985358 -0.14631443 -0.0033364769
0.0264185 -0.04823945 0.07801113 0.074072234 0.21869066 -0.11339363 0.057756737 -0.13097918
0.30937374 -0.026545085 -0.29315725 -0.09081957 0.080298014 -0.22448947 0.101767935 -0.02128279
0.104379006 0.048001427 0.28623533 0.1107449 -0.13006438 -0.15883937 0.06495001 -0.36435494
0.06743187 -0.14246821 -0.07335925 0.056758814 0.041123744 -0.08898473 0.27047345 0.3555578
-0.05733654 -0.08288632 -0.21678887 0.41122472 -0.06009087 -0.099445276 0.07967224 0.30629754
00000000: 210c dcbd bf97 f93d d286 fb3c 915d 70be
00000010: 19cc d1bd 7edf c13c aec6 963d 7f4d fd3d
00000020: cef6 d53d db5d 95bd 5d4f f4bd 5c7b f8bd
00000030: a2e2 933e 0da1 19be 8db0 1abe 012f c03d
00000040: b041 a73e 0650 32bc b214 19be f741 39bd
00000050: fc9c 943d 6225 883d f8f3 ac3c 8a82 1bbe
00000060: b243 ea3d c233 1f3e 0ef8 eebd b247 dd3c
00000070: c208 26be e929 cf3c 5740 873d 993a 353e
00000080: 8110 263d 03d6 b3bd ba32 fcbd d46c 31be
00000090: b352 553d 7a1a de3d e681 123e 8378 b93d
000000a0: 95a5 273d d823 45be 73f7 9dbc 6f27 083e
000000b0: 5fe5 e3bc a2fa 1abe 018a 2bbe d7e3 27bd
000000c0: bed6 843e c465 143e 20bd 083e 8c71 72bc
000000d0: 0434 96bd 0c81 df3d 0487 073e d63b d63d
000000e0: ada3 223e 783c 28be 07d6 37bc d07d 6ebd
000000f0: 33f4 3dbe 161b 93be 5190 193e f82c 38be
00000100: d38c 753d 945b 223e 7f7d 1a3d 5ceb 653e
00000110: 6ec3 933d d65f 98bd 636d 313d 0a27 d33d
00000120: acd0 13be acd6 3dbc 7c94 94bd 932c ab3d
00000130: 136d 85be f32f 633d 495f 1b3e 648a 7ebd
00000140: b0be 2abe 8ad8 6abe ef07 6a3e f386 283e
00000150: 4643 42bc 9e5a 9ebe 88fa b6bd 76bb 013e
00000160: fefc 1b3c ae3b 90bd 0596 c9bc 8d9a 56be
00000170: 8322 903e aa58 70bd a119 c5bd 8e0c 81bd
00000180: 3af8 15be 58e8 c43d b5dc 383e 07e2 403e
00000190: 583a 5abd 8c41 1d3d e59c 0cbe 3aca 87bd
000001a0: 3925 1e3d 2b36 383e 4482 5ebd 244c 31be
000001b0: cf8c 14be 7493 b1bd 3517 873d 1e3b bd3b
000001c0: eb16 88bd e0c7 7ebe e154 61be e7cc 9ebe
000001d0: 5875 03bd 5361 38bd 58cc 3cbe 0195 903c
000001e0: f258 bc3d 827e 183d 201b 0bbe 9b0b 343e
000001f0: bca4 983e 442f 233e d954 31be 2aaa 6e3e
00000200: 287d 39bd 6cd0 e83d c8f8 ef3d c072 27bd
00000210: 8a63 88bd 3f0e 073e bae1 313e d55e 5d3d
00000220: 8fec c33d 01b9 30be a42d 6f3d 7e0b 65bd
00000230: d806 13be 3b9f 05bc 31ad ecbd 7dba 38be
00000240: a0cf 3e3e 39b0 d73d 3a75 233c afa1 9cbe
00000250: dc53 dabd 8cc8 52be 839d ecbc 4f63 94bd
00000260: b43c 22be eeee 5b3b 28b7 653d 4d4f d2bb
00000270: fb77 3c3e 8b02 d4bd d020 5c3d 5146 abbc
00000280: 9189 4abc 562d 28be e13e 4b3e 6024 5bbe
00000290: 421f ae3d 6033 423d 89e7 a7bd 0330 d73d
000002a0: 36f8 75bc cd01 a33c b3a2 33be b375 e13d
000002b0: 35b4 0b3e 47f4 ff3d 46ba 3d3e 16e6 25be
000002c0: 800d a5bd 5a04 29bd b9a5 4d3d 5d71 05be
000002d0: 2669 76be 44b0 debd ede0 b53d 1484 833d
000002e0: addd a63d 3bc6 2b3e 6b68 2fbd 1921 c03d
000002f0: aaeb f1bc e9fa f7bc e023 913d 12ef 8ebe
00000300: 182f 6ebd f278 80be cf89 34be 3637 643e
00000310: 2d46 d7bd 167d 91bc 498f ac3d 73cd f7bd
00000320: 03a0 023e 4dfd 46be f8ba df3d 9231 203e
00000330: 8c4c f2bd 0263 e9bd 8036 b43d fd71 6a3e
00000340: a903 23be 0ee0 82be a7ae ba3d 6dc8 51be
00000350: 2cfb 193e a439 19bf 73d3 15be cba8 5abb
00000360: 9c6b d83c bb96 45bd 4dc4 9f3d 2fb3 973d
00000370: 72f0 5f3e eb3a e8bd 5492 6c3d 681f 06be
00000380: 3c66 9e3e 1475 d9bc b518 96be 9cff b9bd
00000390: 4973 a43d 91e0 65be b56b d03d 3f59 aebc
000003a0: a9c4 d53d 259d 443d 708d 923e 39ce e23d
000003b0: 992f 05be caa6 22be 8304 853d bb8c babe
000003c0: b819 8a3d 30e3 11be 603d 96bd ee7b 683d
000003d0: 5f71 283d a03d b6bd 7f7b 8a3e ac0b b63e
000003e0: b8d9 6abd 4ec0 a9bd e7fd 5dbe 0c8c d23e
000003f0: d821 76bd f7a9 cbbd 332b a33d 08d3 9c3e

module.graph_layers.1.mlp_upd.0.bias f4 [32]
0.043698657 -0.16304447 -0.06951712 0.17181401 0.0025538746 0.01329162 0.107485704 0.05752048
0.05840421 0.04801647 -0.09859656 0.025259363 -0.0046072965 -0.07871617 0.01792262 -0.031747557
0.069853105 -0.08775629 0.06714412 -0.10878331 0.1681829 0.055602208 0.03188457 0.06762807
0.08021252 0.08471553 0.19136769 -0.11022363 0.016785672 0.06944394 -0.086770065 -0.14445561
00000000: 5dfd 323d 21f5 26be fe5e 8ebd 03f0 2f3e
00000010: e85e 273b 18c5 593c 7721 dc3d 989a 6b3d
00000020: 4139 6f3d ebac 443d feec c9bd b9ec ce3c
00000030: cef8 96bb f135 a1bd 75d2 923c ba09 02bd
00000040: 250f 8f3d 92b9 b3bd db82 893d c9c9 debd
00000050: 2338 2c3e 24bf 633d 6599 023d 9680 8a3d
00000060: 7646 a43d 567f ad3d e4f5 433e edbc e1bd
00000070: 1b82 893c a038 8e3d 81b4 b1bd 2cec 13be

module.graph_layers.2.mlp_msg.0.weight f4 [32, 64]
-0.01607258 -0.029929604 0.20441303 0.07548728 -0.015168322 -0.0071804933 0.08084965 -0.10776134
0.4500789 0.09472178 0.044831228 -0.38386682 0.21029045 -0.07216292 -0.21592072 0.051095203
0.39446685 0.22253852 0.042583253 -0.041695077 0.5480085 0.19187899 0.12608688 -0.07921179
0.41643313 0.14325465 -0.19579129 -0.055753578 0.2684964 -0.031849105 0.22152929 -0.037346322
-0.09378338 -0.068150595 -0.06485452 -0.0052554165 -0.19291298 -0.105468825 -0.0152273355 -0.015556779
-0.07524313 0.06954298 -0.09267797 0.13940696 -0.169435 0.019818757 0.20216274 -0.1254917
0.1398573 0.12714069 0.1271211 -0.0794669 -0.03174582 -0.0015737223 0.35846505 0.13254628
-0.0003255312 -0.10634341 -0.15995954 0.047163066 0.03824587 -0.16036975 0.27450776 0.13735585
0.029049203 0.024044963 0.091852605 0.09729802 -0.06724576 0.12657131 0.009784358 -0.0044298386
0.09842929 -0.03807739 0.011844039 -0.20173995 -0.25952035 -0.15280733 -0.07610041 -0.05543277
-0.17585595 0.03537367 -0.08202703 0.058094688 -0.19199483 0.108695745 -0.19112867 -0.0016151435
0.098601274 0.12386863 -0.05283407 0.41884705 -0.4566477 -0.19665504 0.21072626 -0.04040484
-0.2311939 0.046004105 0.15776671 0.30344546 -0.29956374 -0.11496271 0.00908475 -0.15247385
-0.1185144 0.025463957 -0.17194173 -0.034242544 -0.33364773 -0.07467612 -0.03343882 -0.13734512
-0.090845935 0.005438198 -0.119199246 -0.6067998 0.019746078 0.052539557 -0.014375896 0.0017993746
0.4064853 -0.022633828 -0.10186064 0.29167703 0.057599947 -0.14013124 -0.03644185 0.05858285
-0.18153986 -0.021969382 -0.23098545 0.009853551 -0.13225088 0.046904005 0.030977145 -0.015172668
-0.06355574 -0.4178501 0.014662699 0.09200228 0.05158326 -0.09506008 -0.38228193 -0.11431013
0.124731705 0.16799673 -0.0751906 0.027026743 0.121235244 -0.13485782 -0.41301283 0.10729308
0.084763125 -0.29242972 0.032908846 0.44286612 -0.20388493 -0.31313983 -0.21353367 0.0039853165
0.21431611 -0.31887004 0.1630589 0.0009486388 0.15482129 -0.71968603 0.038983967 0.04289898
-0.02022936 0.08387523 0.28829208 -0.0069721118 0.16049464 0.2722646 0.027929513 -0.18047327
0.029681223 0.055758648 0.073461264 0.09783031 -0.27673942 0.055404093 -0.28672343 0.11004312
0.110485315 -0.008101865 -0.060028773 -0.06990372 0.055348527 0.0068563707 -0.11299328 0.18621989
-0.016311545 0.10154405 -0.04536503 0.019079037 -0.006283108 0.01206228 0.046555888 0.038345363
-0.116412565 0.00073228107 -0.19634515 0.09631799 -0.16224578 0.26655918 0.10867563 -0.021372
-0.28919137 0.0030912028 -0.005306522 0.023081567 0.13009308 0.12961067 -0.14824949 0.04150646
0.12306217 0.43810034 0.035408884 -0.15828353 -0.010964058 0.11088414 -0.13922633 -0.054618284
0.14753166 -0.07504017 -0.2366838 -0.15492654 0.20733243 -0.01940358 0.090508655 0.010896036
-0.0009867982 -0.07434723 -0.052064747 0.029461818 -0.03637481 0.1197601 -0.08092127 0.10539722
0.11445354 0.18637346 -0.0889613 -0.19814646 -0.20105928 0.08648679 0.16164644 0.06409882
-0.10975298 -0.24055889 0.11558725 0.012488902 -0.18186375 -0.18087608 0.16768351 0.07402612
00000000: a5aa 83bc ee2e f5bc a651 513e 1399 9a3d
00000010: 8e84 78bc 584a ebbb 8094 a53d fab1 dcbd
00000020: be70 e63e 7efd c13d f3a0 373d 318a c4be
00000030: 6156 573e 27ca 93bd 521a 5dbe 3449 513d
00000040: 8ff7 c93e 23e1 633e c76b 2e3d 75c8 2abd
00000050: 494a 0c3f ed7b 443e eb1c 013e ca39 a2bd
00000060: b936 d53e 59b1 123e 837d 48be dd5d 64bd
00000070: 5c78 893e 3574 02bd 93d8 623e 75f8 18bd
00000080: 8011 c0bd 8a92 8bbd 72d2 84bd a135 acbb
00000090: fb8a 45be 0a00 d8bd 137c 79bc dce1 7ebc
000000a0: 1219 9abd 8d6c 8e3d f3cd bdbd b3c0 0e3e
000000b0: 5e80 2dbe f25a a23c c003 4f3e e580 00be
000000c0: c136 0f3e 2b31 023e 092c 023e 8bbf a2bd
000000d0: e807 02bd 5c45 ceba bb88 b73e 36ba 073e
000000e0: 0fac aab9 93ca d9bd 6fcc 23be 0f2e 413d
000000f0: b4a7 1c3d f837 24be 488c 8c3e 03a7 0c3e
00000100: 98f8 ed3c f1f9 c43c 381d bc3d 2f44 c73d
00000110: 25b8 89bd e99b 013e 924e 203c 2e28 91bb
00000120: 4c95 c93d 0af7 1bbd 800d 423c eb94 4ebe
00000130: dadf 84be 8679 1cbe 88da 9bbd 790d 63bd
00000140: 9513 34be fbe3 103d cafd a7bd b2f4 6d3d
00000150: 4b9a 44be e09b de3d 3cb7 43be 39b3 d3ba
00000160: 77ef c93d d6ae fd3d 8a68 58bd 1f73 d63e
00000170: bacd e9be f05f 49be a0c8 573e 8c7f 25bd
00000180: 18be 6cbe cd6e 3c3d 998d 213e 345d 9b3e
00000190: 6b60 99be 9271 ebbd 34d8 143c 1b22 1cbe
000001a0: aeb7 f2bd ca99 d03c 7e11 30be e941 0cbd
000001b0: e0d3 aabe cbef 98bd 25f7 08bd 33a4 0cbe
000001c0: 6f0d babd e932 b23b bc1e f4bd 3b57 1bbf
000001d0: 87c2 a13c b833 573d e188 6bbc fed8 eb3a
000001e0: d71e d03e 946a b9bc 509c d0bd b156 953e
000001f0: eced 6b3d 907e 0fbe 0d44 15bd 92f4 6f3d
00000200: 96e5 39be 22f9 b3bc 7387 6cbe ca70 213c
00000210: c66c 07be 6a1e 403d c8c3 fd3c c896 78bc
00000220: 8329 82bd 73f0 d5be d13b 703c b16b bc3d
00000230: f848 533d dcae c2bd 75ba c3be 6e1b eabd
00000240: 5673 ff3d 5607 2c3e 87fd 99bd 3067 dd3c
00000250: 2f4a f83d 2b18 0abe 6b76 d3be 79bc db3d
00000260: 4a98 ad3d 59b9 95be 6dcb 063d 59bf e23e
00000270: 36c7 50be dd53 a0be 92a8 5abe 4297 823b
00000280: af75 5b3e ef42 a3be eaf8 263e 12ae 783a
00000290: 7989 1e3e 583d 38bf a7ad 1f3d d7b6 2f3d
000002a0: 0bb8 a5bc c7c6 ab3d 059b 933e 5076 e4bb
000002b0: b558 243e 4466 8b3e 6fcc e43c fccd 38be
000002c0: 0926 f33c 2e63 643d dc72 963d 425b c83d
000002d0: cab0 8dbe 67ef 623d 6acd 92be 4a5e e13d
000002e0: 2046 e23d afbd 04bc bbe0 75bd ae29 8fbd
000002f0: 23b5 623d 68ab e03b 0569 e7bd 6db0 3e3e
00000300: ca9f 85bc 54f6 cf3d afd0 39bd a44b 9c3c
00000310: 88e2 cdbb dfa0 453c 63b1 3e3d 0710 1d3d
00000320: b669 eebd 8df6 3f3a b40e 49be 5e42 c53d
00000330: c223 26be 727a 883e 5491 de3d 5514 afbc
00000340: e410 94be c795 4a3b 55e2 adbb 8e15 bd3c
00000350: 1f37 053e a9b8 043e b7ce 17be ae02 2a3d
00000360: 0508 fc3d b04e e03e e808 113d 1415 22be
00000370: 98a2 33bc 3917 e33d 5991 0ebe 6cb7 5fbd
00000380: 8a12 173e a9ae 99bd 3d5d 72be 10a5 1ebe
00000390: f44e 543e 42f4 9ebc 9a5c b93d 4a85 323c
000003a0: 7457 81ba 5c43 98bd d841 55bd e959 f13c
000003b0: c1fd 14bd c944 f53d 0dba a5bd 7fda d73d
000003c0: 9e66 ea3d afd8 3e3e 5831 b6bd e8e6 4abe
000003d0: 7ce2 4dbe fc1f b13d a586 253e 3e46 833d
000003e0: 2cc6 e0bd 1255 76be 02b9 ec3d 409e 4c3c
000003f0: 7e3a 3abe 9437 39be 3ab5 2b3e 029b 973d

module.graph_layers.2.mlp_msg.0.bias f4 [32]
-0.0095450925 0.061536107 0.025240932 -0.10118356 0.040070865 0.08693358 0.09170795 -0.0030775294
-0.06503678 0.04620444 -0.07717812 0.10719664 -0.018514324 -0.16229355 0.0038251674 -0.10000083
0.056816272 -0.0673796 -0.07441994 -0.08108545 0.053795468 -0.0034768858 0.03240105 0.107441664
-0.0485116 0.06864974 0.062002506 0.118296295 0.12803125 0.11783756 0.029523069 0.017467054
00000000: 0563 1cbc 490d 7c3d 12c6 ce3c 5439 cfbd
00000010: 5921 243d 3c0a b23d 61d1 bb3d 60b0 49bb
00000020: 0132 85bd de40 3d3d 900f 9ebd e989 db3d
00000030: 5aab 97bc 4830 26be a9af 7a3b 3ccd ccbd
00000040: 2eb8 683d 51fe 89bd 7b69 98bd 2110 a6bd
00000050: a358 5c3d 77dc 63bb f7b6 043d 600a dc3d
00000060: 19b4 46bd 3c98 8c3d 57f6 7d3d 5445 f23d
00000070: a01a 033e d254 f13d 5dda f13c 1117 8f3c

module.graph_layers.2.mlp_upd.0.weight f4 [32, 64]
-0.08356143 -0.0063719866 -0.07483801 0.024769332 -0.13534187 0.11733376 -0.059941754 0.097696155
-0.112500325 0.048071068 0.13386418 0.06881331 -0.25403982 0.12052125 0.32751936 -0.02033742
-0.07002186 0.03761521 0.04009618 0.0019955693 -0.05821988 -0.22814597 0.00015099418 0.11667064
0.32949486 0.13511004 0.06438292 -0.021896461 -0.018091414 -0.039075308 -0.3725425 0.08911065
0.05253437 0.08218106 -0.11989216 0.14364296 -0.10045436 0.07330118 -0.049271066 -0.121858366
-0.15369417 -0.07951319 -0.20391442 0.17502555 0.084513366 -0.18168056 0.19117852 0.19240102
0.13532557 -0.039658267 -0.029828567 -0.15101154 0.1609421 0.0791667 0.206643 -0.0072075464
0.07071957 0.0828786 0.009910817 -0.15053928 -0.10130759 0.35175335 -0.19619209 -0.046167612
0.15585227 -0.13611493 -0.06492416 -0.17463392 -0.07403277 -0.17393033 -0.0065735015 0.08316737
0.05920312 0.120322585 0.012249136 0.18531147 -0.18080324 -0.13401902 -0.0052972073 -0.025996406
-0.032049216 -0.049730908 0.04764559 -0.20122509 0.09851883 0.257788 -0.10071994 0.055784844
-0.14974353 -0.074587956 -0.21474549 -0.03845388 -0.12887435 0.042036153 -0.09512791 -0.0155144185
-0.25577495 -0.09296143 -0.055139657 0.1333904 -0.022779208 0.059421234 -0.09134088 0.22470918
0.08314554 -0.060723606 0.17956784 -0.097424336 0.1626944 0.10740545 -0.05868805 -0.17779145
-0.07640889 0.30809805 0.0018473828 -0.0331559 -0.1533259 0.00035380496 0.032008417 0.14041823
-0.055188015 0.05863183 0.10373368 -0.16639502 0.08118358 0.021193782 0.16065025 -0.011069384
-0.067587934 0.124389425 -0.057911888 0.08491147 -0.06323447 0.21388352 -0.2107138 -0.15884924
0.08672211 -0.026337856 0.15496784 -0.039533228 0.018003566 0.17801018 0.17617358 0.1202116
-0.17559433 -0.0039588627 -0.13483027 0.22617525 -0.13445227 0.10028573 -0.17665905 -0.15145926
-0.0014703565 -0.04344386 0.0018484751 -0.21560657 0.19938534 0.06832817 -0.027632002 -0.054449007
-0.0041432893 -0.06761512 -0.24418774 -0.106103264 0.119831935 0.06538523 0.22084254 -0.08806884
-0.039660066 -0.14273964 0.030358622 -0.06390991 -0.17081003 -0.15831405 -0.114121 -0.035910513
0.0076893377 -0.30085728 -0.102630064 -0.055794947 0.02304691 0.15081368 0.2361646 -0.08923838
0.30926666 -0.0089856805 0.10361195 0.15795545 0.005728599 0.11350974 -0.0023116611 0.00048656264
0.098381914 -0.16902299 0.15921515 -0.13204287 -0.249043 0.12075653 0.20288406 -0.004262079
-0.02462329 -0.020042129 0.05648531 -0.061798923 -0.012328073 -0.01088492 0.08860227 0.092208
-0.07002693 -0.12082462 -0.030508488 0.037980683 -0.11563728 0.10731411 0.06454962 0.11010802
0.13101225 0.06678709 -0.002982034 0.1550622 0.012815426 0.14324047 -0.023234572 0.2661667
-0.088808686 0.20085888 0.06865749 0.064377576 -0.0040029 0.098346576 0.04153893 -0.2625311
-0.025040364 0.09500374 -0.030313028 0.21881264 0.003277935 0.11197506 -0.011682301 0.13543697
0.08790485 -0.01976377 0.15895171 -0.29791346 0.0583004 -0.15364744 0.016084068 0.084379114
0.090727344 -0.32622227 -0.12055884 0.009265817 -0.097984545 0.08289419 -0.09756337 -0.029384034
00000000: 4122 abbd 19cc d0bb ac44 99bd 0ee9 ca3c
00000010: 0f97 0abe af4c f03d 7c85 75bd ec14 c83d
00000020: 9266 e6bd 2be6 443d b113 093e feed 8c3d
00000030: 8211 82be d8d3 f63d 9eb0 a73e a99a a6bc
00000040: 9f67 8fbd 6812 1a3d e43b 243d 19c8 023b
00000050: f877 6ebd 199f 69be 3154 1e39 04f1 ee3d
00000060: 8db3 a83e 495a 0a3e 31db 833d 3560 b3bc
00000070: 7234 94bc 6e0d 20bd e4bd bebe a57f b63d
00000080: 482e 573d 8b4e a83d 058a f5bd 2417 133e
00000090: 04bb cdbd ee1e 963d 75d0 49bd e190 f9bd
000000a0: 0162 1dbe d0d7 a2bd f1ce 50be e639 333e
000000b0: 5815 ad3d 780a 3abe 4dc4 433e c604 453e
000000c0: c992 0a3e b570 22bd 0a5b f4bc c5a2 1abe
000000d0: 02ce 243e 2722 a23d 399a 533e 482d ecbb
000000e0: 6cd5 903d 41bc a93d fb60 223c f826 1abe
000000f0: 5b7a cfbd 0419 b43e 94e6 48be 401a 3dbd
00000100: bd97 1f3e b661 0bbe f5f6 84bd 3cd3 32be
00000110: 7e9e 97bd cb1a 32be 8766 d7bb a753 aa3d
00000120: f97e 723d b06b f63d 9ab0 483c 4ac2 3d3e
00000130: 7c24 39be 483c 09be 3294 adbb 6af6 d4bc
00000140: 0a46 03bd a3b2 4bbd 0628 433d f30d 4ebe
00000150: 3ec4 c93d cafc 833e 4246 cebd a67e 643d
00000160: 5e56 19be 92c1 98bd 3ee6 5bbe d181 1dbd
00000170: a3f7 03be 1a2e 2c3d 6cd2 c2bd 3030 7ebc
00000180: eff4 82be 9062 bebd 1fda 61bd 7e97 083e
00000190: 769b babc ae63 733d ed10 bbbd 2a1a 663e
000001a0: 3548 aa3d 51b9 78bd a2e0 373e 6986 c7bd
000001b0: 5c99 263e 63f7 db3d e162 70bd f60e 36be
000001c0: 447c 9cbd 07bf 9d3e e123 f23a 7bce 07bd
000001d0: 7701 1dbe e67e b939 421b 033d ccc9 0f3e
000001e0: d40c 62bd ee27 703d 5372 d43d 7563 2abe
000001f0: 9443 a63d 959e ad3c 8081 243e 5d5c 35bc
00000200: 8b6b 8abd e2bf fe3d 0435 6dbd 11e6 ad3d
00000210: 1381 81bd 4804 5b3e 5cc5 57be 60a9 22be
00000220: 5d9b b13d 7dc2 d7bc e4af 1e3e 98ed 21bd
00000230: 377c 933c 4d48 363e d966 343e 8031 f63d
00000240: 00cf 33be 59b9 81bb f210 0abe 7c9a 673e
00000250: dbad 09be 9b62 cd3d 1ce6 34be 2318 1bbe
00000260: fab8 c0ba 30f2 31bd 8848 f23a f8c7 5cbe
00000270: ac2b 4c3e a4ef 8b3d 825c e2bc ec05 5fbd
00000280: 6ec4 87bb cc79 8abd 5a0c 7abe ab4c d9bd
00000290: 726a f53d b1e8 853d 8c24 623e 705d b4bd
000002a0: 9872 22bd 572a 12be a5b2 f83c 33e3 82bd
000002b0: d3e8 2ebe 141d 22be 45b8 e9bd e716 13bd
000002c0: d7f6 fb3b f709 9abe b62f d2bd 3e89 64bd
000002d0: e0cc bc3c e76e 1a3e 22d5 713e 9dc2 b6bd
000002e0: 3358 9e3e ad38 13bc 8132 d43d 13bf 213e
000002f0: f9b6 bb3b cb77 e83d 3d7f 17bb 5519 ff39
00000300: 757c c93d 5d14 2dbe 4c09 233e 3f36 07be
00000310: 2105 7fbe 334f f73d d7c0 4f3e e9a8 8bbb
00000320: c8b6 c9bc 642f a4bc 245d 673d de20 7dbd
00000330: b0fb 49bc aa56 32bc 1b75 b53d 8cd7 bc3d
00000340: 476a 8fbd e672 f7bd f0ec f9bc a291 1b3d
00000350: 3dd3 ecbd 80c7 db3d 9732 843d 5080 e13d
00000360: 1328 063e abc7 883d 3b6e 43bb a0c8 1e3e
00000370: cbf7 513c a1ad 123e 6e56 bebc 0047 883e
00000380: 54e1 b5bd f3ad 4d3e 4c9c 8c3d 64d8 833d
00000390: c22a 83bb ee69 c93d ba24 2a3d 7a6a 86be
000003a0: 7321 cdbc 5291 c23d 0753 f8bc 6c10 603e
000003b0: a0d2 563b 2e53 e53d 1f67 3fbc fdaf 0a3e
000003c0: 7507 b43d a1e7 a1bc 3dc4 223e 1d88 98be
000003d0: 66cc 6e3d c155 1dbe bcc2 833c f5ce ac3d
000003e0: 42cf b93d 9b06 a7be 8ee7 f6bd a7cf 173c
000003f0: 1fac c8bd 6ec4 a93d 4ecf c7bd c9b6 f0bc

module.graph_layers.2.mlp_upd.0.bias f4 [32]
-0.121549614 -0.057518862 -0.06123048 -0.10367988 0.089206964 -0.2402196 -0.023347529 0.045464516
0.048283104 -0.07529665 -0.20034125 -0.08171198 -0.06525682 0.045342885 -0.19907306 -0.2021347
0.13436702 0.18993315 -0.16434127 -0.20108429 0.00689401 0.0629297 0.16768615 -0.098414294
0.101336166 0.014984955 0.013390062 0.08046092 -0.15336637 0.05565519 0.08351464 -0.03530792
00000000: 01ef f8bd e698 6bbd d0cc 7abd 1e56 d4bd
00000010: 24b2 b63d 20fc 75be 5143 bfbc 0039 3a3d
00000020: 81c4 453d 2135 9abd 4226 4dbe 9c58 a7bd
00000030: 5ea5 85bd 76b9 393d cfd9 4bbe 66fc 4ebe
00000040: 8297 093e d67d 423e 1449 28be 0ae9 4dbe
00000050: 26e7 e13b 49e1 803d ebb5 2b3e 6f8d c9bd
00000060: 5689 cf3d 7583 753c fe61 5b3c b2c8 a43d
00000070: 130c 1dbe b2f6 633d b909 ab3d 0a9f 10bd
