gnn/trained_model/attrs3.pth (torch, 196153 bytes, 51 tensors)

module.embedding.0.weight f4 [32, 2]
0	0xbf5966c3	-0.84922427
1	0x3eaca736	0.33721322
2	0x3f22aec4	0.6354792
3	0xbf65b91b	-0.89735574
4	0xbedf72d9	-0.4364231
5	0xbf39551c	-0.7239549
6	0x3f5ce6b2	0.86289513
7	0xbef644ed	-0.4809946
8	0x3ed37cbd	0.41306105
9	0xbf5e76e0	-0.8690014
10	0x3f33b2f6	0.7019495
11	0xbe899b6c	-0.2687639
12	0x3f74fa81	0.9569474
13	0xbeac0c0d	-0.33602944
14	0xbf6266c6	-0.8843807
15	0xbec0c3a7	-0.3764927
16	0x3f168872	0.5880195
17	0x3f4b3578	0.7937846
18	0x3f812769	1.0090152
19	0xbf2a67a5	-0.665644
20	0x3f48b44c	0.7840011
21	0x3f75002e	0.957034
22	0xbf38c59f	-0.72176546
23	0x3f480b77	0.78142494
24	0xbee9b45c	-0.45645416
25	0x3f460073	0.77344435
26	0xbcced3f9	-0.02524756
27	0xbfa1901e	-1.2622106
28	0x3d12c8e1	0.035836104
29	0x3f608f53	0.87718695
30	0xbf86efef	-1.0541972
31	0x3f104875	0.5636056
32	0x3f93b616	1.1539943
33	0x3e28e3b2	0.16493109
34	0xbf5bc2a9	-0.858439
35	0x3e8e2287	0.27760717
36	0xbea5dcce	-0.32395023
37	0xbf6317ee	-0.8870839
38	0xbf8c8124	-1.097691
39	0x3d9494dc	0.07254955
40	0x3f0bb310	0.545701
41	0xbf599dbe	-0.8500632
42	0x3ebc0277	0.3672063
43	0x3e9a61d8	0.30152774
44	0xbf321cb5	-0.69575053
45	0xbf244d24	-0.6418021
46	0xbf889988	-1.0671854
47	0x3e82b675	0.2552983
48	0xbf141766	-0.57848203
49	0x3f422fe8	0.7585435
50	0x3f7129a1	0.94204146
51	0x3eb38e0c	0.3506931
52	0x3f0efcdf	0.558546
53	0x3f89068a	1.070512
54	0xbf3e16fb	-0.74253815
55	0xbebc79a4	-0.36811554
56	0xbf1e0e27	-0.61740345
57	0xbed6b2fa	-0.41933423
58	0x3f379075	0.717048
59	0x3f39c3ab	0.7256419
60	0x3f7987fd	0.97473127
61	0x3de2a3e1	0.11066414
62	0xbf239ab6	-0.63907945
63	0xbfa5f075	-1.2964007

module.embedding.0.bias f4 [32]
0	0xbef6b009	-0.4818118
1	0x3f2f5d64	0.6850188
2	0xbe263390	-0.16230607
3	0x3efa21a4	0.4885379
4	0xbf01cb79	-0.507011
5	0x3eb82a8e	0.35969967
6	0x3f009c9f	0.50238985
7	0xbf114fee	-0.5676259
8	0xbedb74e7	-0.42862627
9	0x3f2f902a	0.6857935
10	0xbf2f56a0	-0.68491554
11	0x3ee2222f	0.44166705
12	0x3f0ae1d8	0.5425086
13	0x3d96a3b4	0.07355443
14	0xbd6e2328	-0.058138996
15	0xbe114687	-0.1418706
16	0xbe5368bb	-0.2064542
17	0x3e8cd81d	0.2750863
18	0xbf16b4a7	-0.58869404
19	0x3ed3cdeb	0.4136804
20	0xbef5ab4a	-0.47982246
21	0xbe8b4932	-0.2720428
22	0x3f22e837	0.6363558
23	0xbe7402dc	-0.23829216
24	0x3ecc0370	0.39846373
25	0xbeeec07d	-0.46631232
26	0x3f013f28	0.50486994
27	0x3f0b177d	0.54332715
28	0xbed67cd3	-0.41892108
29	0x3eeb432a	0.4594968
30	0x3ca20f7e	0.019782778
31	0x3e269e94	0.1627143

module.graph_layers.0.mlp_msg.0.weight f4 [32, 64]
0	0x3d9400ff	0.072267525
1	0xbc661b8a	-0.014044652
2	0xbd698746	-0.057013772
3	0xbda7bb25	-0.08189992
4	0x3c3894d8	0.011265956
5	0x3d1f72f2	0.03892798
6	0x3d6fb454	0.058521584
7	0x3e031703	0.12801747
8	0xbda90a21	-0.08253885
9	0x3d8d4680	0.068982124
10	0x3dd524b7	0.104073934
11	0x3e224ba7	0.15849172
12	0x3d9e9e9f	0.07745098
13	0x3d87f13a	0.06637807
14	0x3daa6114	0.083192974
15	0x3ca664d8	0.020311758
16	0xbd198661	-0.03748167
17	0xbd5fe746	-0.05466392
18	0x3d57ed4b	0.052716535
19	0x3e0719f8	0.131935
20	0x3e2320f6	0.15930542
21	0xbda39ba9	-0.07988674
22	0x3d413cd8	0.047177166
23	0x398fa094	0.00027394725
24	0x3be6af72	0.0070399577
25	0xbd86defb	-0.06585499
26	0x3da574d2	0.08078922
27	0x3d4974bf	0.049183603
28	0x3e255b5f	0.16148137
29	0xbd8ad2e7	-0.06778508
30	0x3e01fa4b	0.12693135
31	0x3d2065f0	0.039159715
32	0x3e7179dd	0.23581643
33	0xbe9e0753	-0.30864963
34	0x3e4c5c17	0.19957004
35	0xbdec8c20	-0.11550164
36	0x3e92044f	0.28518912
37	0xbe2cbf55	-0.16869862
38	0xbe606eb2	-0.21917227
39	0x3e599860	0.21249533
40	0x3cfc0a27	0.03076656
41	0xbe825e2e	-0.25462478
42	0x3d88fef5	0.06689254
43	0xbea64c5e	-0.3248014
44	0xbe0c465d	-0.13698716
45	0x3e53f966	0.20700607
46	0xbe15f22f	-0.14643167
47	0x3ce55ae6	0.027997445
48	0x3d7906a5	0.060797352
49	0x3b70c478	0.0036738198
50	0x3d70ca86	0.05878689
51	0xbdeaf1ca	-0.11471899
52	0x3e969f35	0.2941834
53	0xbdf36201	-0.11883927
54	0x3d1f67f1	0.038917486
55	0x3e68cd8b	0.22734658
56	0xbe337147	-0.1752368
57	0x3d88a0ac	0.06671271
58	0xbdc33802	-0.09532167
59	0xbde85708	-0.11344725
60	0x3d1c10f1	0.038102094
61	0x3d23764e	0.039907746
62	0x3d25af31	0.04045028
63	0x3d948f27	0.07253867
64	0xbdb48bdb	-0.08815738
65	0xbde6a4c9	-0.11261899
66	0x3d818983	0.063250564
67	0x3cc20ef2	0.023688767
68	0x3dea0680	0.11427021
69	0xbbca3a93	-0.0061715334
70	0xbdac787d	-0.08421419
71	0x3d163f34	0.03668137
72	0x3ad01bcb	0.0015877424
73	0xbe0437e4	-0.12911946
74	0x3d9e8061	0.0773933
75	0x3a6a437f	0.00089364493
76	0x3dd86798	0.10566634
77	0xbcaa325a	-0.020775963
78	0xbd1b1185	-0.037858505
79	0x3c7e3a29	0.015516796
80	0x3d02f16d	0.031968523
81	0xbdb6b887	-0.089219145
82	0xbd052a11	-0.03251082
83	0xbd0c9b44	-0.03432776
84	0xbdcf8e31	-0.10134543
85	0x3d8efe83	0.06982138
86	0x3bdf981b	0.0068235523
87	0xbc9dadf4	-0.019247986
88	0x3d8c1129	0.068392105
89	0xbde82a49	-0.1133619
90	0x3d32a653	0.04361565
91	0x3d079cad	0.033108402
92	0x3dbf2fcd	0.09335289
93	0xbd8c7593	-0.06858363
94	0x3cc775ce	0.024348166
95	0xbce4f767	-0.027950002
96	0xbda5b90b	-0.08091935
97	0x3d277ccd	0.040890504
98	0xbdba3580	-0.090922356
99	0xbd590393	-0.052981924
100	0xbe3de448	-0.18544114
101	0xbd7810fc	-0.060563073
102	0xbdcce414	-0.1000444
103	0xbd38b624	-0.045095578
104	0xbdcf969b	-0.101361476
105	0x3c9a1f4e	0.018813755
106	0xbba59827	-0.0050535384
107	0x3dc8d2d0	0.09805834
108	0x3d5a515c	0.053300247
109	0xbcf0e342	-0.02940524
110	0x3d9199dc	0.071094245
111	0xbdcc2361	-0.099676855
112	0xbcf2fb22	-0.029660765
113	0x3c865da3	0.016402071
114	0xbe201431	-0.15632702
115	0xbd9c1653	-0.076214455
116	0x3bcdb778	0.0062779747
117	0xbdb02617	-0.08601015
118	0xbd7a18f1	-0.061058942
119	0xbd9bf2fe	-0.076147065
120	0x3cbf288e	0.023334768
121	0x3cf3b051	0.02974716
122	0x3cd7edf4	0.026358582
123	0xbdccfe95	-0.10009495
124	0xbe01ba0d	-0.12668629
125	0xbd217686	-0.039419673
126	0xbcfcfd6c	-0.03088256
127	0x3da9194f	0.0825678
128	0xbc8e9b28	-0.017407969
129	0x3dbad28b	0.09122189
130	0xbc0d0107	-0.008606202
131	0x38d3526e	0.00010076618
132	0xbdd0ee1d	-0.102016665
133	0xbe09814c	-0.13428229
134	0x3da2ab07	0.07942777
135	0x3d9d4ad3	0.07680287
136	0x3ca71b14	0.020398654
137	0x3dabe821	0.083938845
138	0x3c0f12f0	0.008732542
139	0x3ce014bd	0.027353639
140	0xbd81fe89	-0.06347377
141	0xbdf0931b	-0.11746808
142	0xbda51b60	-0.08061862
143	0x3cbcdc9a	0.02305441
144	0xbd87ec97	-0.06636923
145	0xbdce0e01	-0.10061265
146	0xbcfe2ee2	-0.031028215
147	0xbdbc2cc1	-0.09188224
148	0x3c7cadac	0.015422266
149	0xbd8d5c6a	-0.06902392
150	0x3d623eb8	0.055235595
151	0xbdabef1b	-0.08395215
152	0x3c99430b	0.018708726
153	0xbdd6df27	-0.10491782
154	0x3dbcfbd9	0.09227724
155	0x3d912e77	0.070889406
156	0xbd8581fe	-0.06518935
157	0x3d7a843d	0.06116127
158	0x3db1d55b	0.086832725
159	0x3c1a2593	0.009408372
160	0xbd03fd5f	-0.032224055
161	0x3e5adc0f	0.21373008
162	0x3df36d0b	0.11886033
163	0xbc69914a	-0.014255831
164	0xbab07685	-0.0013463056
165	0xbdb82e2d	-0.08993182
166	0x3c041af3	0.008063066
167	0xbbc6f57f	-0.006071746
168	0xbdc5b51c	-0.096536845
169	0x3cd2a759	0.025714563
170	0xbe7fab9b	-0.24967806
171	0x3d91ce6b	0.07119449
172	0x3cab310d	0.020897413
173	0x3ebd0feb	0.36926207
174	0xbe329f91	-0.17443682
175	0x3c1e08e8	0.009645678
176	0xbe007128	-0.12543166
177	0x3e25e3f0	0.16200233
178	0x3e425c3b	0.18980496
179	0x3ca96839	0.02067958
180	0xbe18aa87	-0.14908801
181	0xbcb4acb7	-0.022055013
182	0x3e10c332	0.14136961
183	0xbc730e05	-0.0148348855
184	0x3da377c4	0.07981828
185	0xbe86bbbb	-0.26315102
186	0xbe1e1f34	-0.1544159
187	0x3d53de20	0.051725507
188	0x3ddc48e2	0.10756089
189	0xbe47a2d7	-0.19495712
190	0xbc5970f1	-0.013271556
191	0x3e0ca4d0	0.13734746
192	0xbcc6adad	-0.024252737
193	0xbdfdeb9d	-0.12398455
194	0xbdd07d67	-0.101801686
195	0x3b91ef6f	0.0044535915
196	0x3dc710f8	0.097200334
197	0xbdab5782	-0.083663
198	0xbdbe7383	-0.09299376
199	0xbd62a630	-0.05533427
200	0x3d334789	0.043769393
201	0x3d5e5ee9	0.054289732
202	0xbdec7b87	-0.115469985
203	0xbd50b206	-0.050951026
204	0x3d9e90f5	0.07742492
205	0xbde2aa9d	-0.11067698
206	0x3d3e7834	0.046501353
207	0xbd30f844	-0.043205515
208	0xbe127124	-0.14300972
209	0x3c689a80	0.014196992
210	0xbe0abbeb	-0.13548248
211	0xbe154aeb	-0.1457936
212	0x3dbf3ea1	0.093381174
213	0xbcbe5e32	-0.023238275
214	0xbcecbaca	-0.028897662
215	0x3d8f0bc9	0.0698467
216	0xbc96535c	-0.018350296
217	0xbd9b66f6	-0.075879976
218	0xbdaa1a92	-0.08305849
219	0xbe008020	-0.12548876
220	0xbdfc368d	-0.12315092
221	0xbd10b94a	-0.035332955
222	0xbe0830b8	-0.13299835
223	0xbde4b19f	-0.11166691
224	0x3df3659f	0.11884617
225	0x3decff15	0.115720905
226	0x3e442c60	0.19157553
227	0xbdb04fd9	-0.0860898
228	0x3f413bd1	0.754819
229	0x3d004622	0.031316884
230	0x3dce1f7f	0.10064601
231	0x3d1a7722	0.03771127
232	0xbc0e96bf	-0.008702933
233	0xbd9c70dc	-0.07638714
234	0x3e571d18	0.21007192
235	0xbf043dfc	-0.5165708
236	0xbf584d4c	-0.84492946
237	0x3e93841f	0.28811738
238	0xbddc0ca1	-0.10744596
239	0xbcad8730	-0.021182626
240	0x3dd6b72b	0.10484155
241	0xbe824f59	-0.25451162
242	0x3e60d603	0.21956639
243	0xbe828fef	-0.25500438
244	0x3f266ee0	0.6501293
245	0x3da1bf8d	0.078978635
246	0xbbe62775	-0.0070237466
247	0xbdb870b8	-0.090058744
248	0xbf24b4b3	-0.64338225
249	0x3e31bffe	0.17358395
250	0xbe546056	-0.20739874
251	0xbd6977bc	-0.056998953
252	0x3d023848	0.031791955
253	0xbe867128	-0.26258206
254	0x3d927b84	0.07152465
255	0xbe0d44e9	-0.13795818

module.graph_layers.0.mlp_msg.0.bias f4 [32]
0	0x3cde3d8b	0.027128955
1	0xbdafac24	-0.08577755
2	0xbe12ef91	-0.143492
3	0x3d8374d8	0.064187706
4	0x3d78f02a	0.060775913
5	0xbd911145	-0.07083372
6	0x3b21a982	0.0024667685
7	0x3e0bda3b	0.13657467
8	0xbe08734a	-0.1332523
9	0x3c4194e1	0.011815281
10	0xbd68453f	-0.056706663
11	0xbcd75764	-0.026286788
12	0xb8ead6a2	-0.00011197968
13	0xbdd751b6	-0.10513632
14	0xbdc96acf	-0.09834825
15	0xbe081519	-0.13289298
16	0xbd820060	-0.06347728
17	0x3de4a92a	0.11165078
18	0x3ce4b128	0.027916506
19	0xbdefb624	-0.117046624
20	0xbdd942c8	-0.10608441
21	0xbcbd5d64	-0.023115821
22	0xbc607272	-0.013699161
23	0xbddaf886	-0.10691933
24	0xbe5f5fc9	-0.21813883
25	0xbdf13c5b	-0.1177909
26	0xbc652b66	-0.013987398
27	0x3de81181	0.113314636
28	0xbdc4c723	-0.09608295
29	0xbd4cc72f	-0.049994644
30	0x3cd974aa	0.026544888
31	0x3b2dee03	0.002653957

module.graph_layers.0.mlp_upd.0.weight f4 [32, 64]
0	0x3ce33a50	0.027737767
1	0x3c5d15d3	0.013493973
2	0xbdeba943	-0.115068935
3	0x3ddc4389	0.10755069
4	0x3d463628	0.04839149
5	0xbdab7acd	-0.08373032
6	0xbde52219	-0.11188144
7	0x3ca6b1a4	0.020348378
8	0xbc361913	-0.011114377
9	0x3d42e1fc	0.047578797
10	0xbdf23ce5	-0.11828021
11	0x3dc20d07	0.09475141
12	0x3ce542c2	0.027985934
13	0x3cb2f377	0.021844609
14	0x3dc0a397	0.09406202
15	0xbd183d75	-0.037167985
16	0x3d828cb0	0.0637449
17	0xbde040af	-0.109498374
18	0xbdd6c11d	-0.10486052
19	0x3e017d39	0.12645425
20	0x3d91e604	0.0712395
21	0xbdc758ef	-0.097337596
22	0xbdd8b59f	-0.105815165
23	0x3db57f6d	0.08862195
24	0xbc204ac5	-0.009783451
25	0x3d5e5930	0.054284275
26	0xbdc53245	-0.09628729
27	0xbdd87f59	-0.10571165
28	0x3d82bec1	0.0638404
29	0x3d83a290	0.06427491
30	0x3d144b59	0.03620467
31	0xbd0a84a7	-0.033817913
32	0xbbe1ca54	-0.0068905745
33	0xba8a1a1f	-0.0010536349
34	0xbda6b547	-0.08140045
35	0x3d185ed7	0.03719982
36	0x3d9f9ede	0.077939734
37	0xbd1bc238	-0.03802702
38	0x3e06cfdb	0.13165228
39	0x3dfdb9d3	0.12388959
40	0xbd907115	-0.07052819
41	0x3dd7bd87	0.10534196
42	0xbd513363	-0.051074397
43	0xbd847c01	-0.06468964
44	0xbd29e5d7	-0.041478958
45	0x3e03fa32	0.1288841
46	0xbdc16239	-0.094425626
47	0xbc97cb86	-0.018529665
48	0x3e74a1e8	0.23889887
49	0x3d6954f6	0.05696579
50	0xbc84a1ce	-0.016190436
51	0xbdab36ae	-0.08360039
52	0x3dc9f663	0.09861448
53	0xbe2d4bca	-0.16923442
54	0x3d096a69	0.033548746
55	0x3dfa3307	0.12216764
56	0xbdac7dfb	-0.08422466
57	0x3e582513	0.21107893
58	0x3d99377d	0.07481287
59	0xbd43ca4f	-0.04780036
60	0xbe49e052	-0.19714478
61	0x3dba2d72	0.09090699
62	0x3d8a6788	0.06758028
63	0x3c6311d3	0.01385923
64	0x3cbfc7d3	0.023410713
65	0xbd937f28	-0.072019875
66	0xb9a32be4	-0.00031122484
67	0x3c759b42	0.01499063
68	0xbdbe7310	-0.0929929
69	0xbc851a58	-0.016247913
70	0xbdc29836	-0.09501688
71	0xbdd034b2	-0.10166301
72	0xbd60e878	-0.0549092
73	0x3c8141d8	0.015778467
74	0x3d5b0835	0.053474624
75	0x3dd78470	0.10523307
76	0xbd6a5db8	-0.057218283
77	0x3d02b202	0.031908043
78	0x3d40daf5	0.047083814
79	0x3dd1009c	0.10205194
80	0x3c3e7e46	0.011626786
81	0xbd51fc5e	-0.051266067
82	0x3d986f22	0.07443072
83	0x3d7158d7	0.058922615
84	0x3cdf6795	0.027271071
85	0xbdf43c35	-0.11925546
86	0xbdb72eaa	-0.08944447
87	0xbdcef930	-0.101061225
88	0x3d9ee4f0	0.0775851
89	0x3d3c845b	0.04602466
90	0x3dce1608	0.10062796
91	0x3d3e809f	0.04650938
92	0x3d0d20a1	0.034454945
93	0x3daa0740	0.08302164
94	0xbd6f06f6	-0.058356248
95	0xbdd29290	-0.10281861
96	0xbdc4bc1e	-0.09606193
97	0xbbbe5f75	-0.005809719
98	0xbcb26b86	-0.021779787
99	0xbe353691	-0.17696597
100	0x3cd3f8b6	0.02587543
101	0x3cb126f7	0.021625025
102	0xbe19a46f	-0.15004133
103	0xbc127574	-0.008939136
104	0xbd8f9920	-0.07011628
105	0xbd95da86	-0.07317071
106	0xbd50bcc6	-0.05096128
107	0xbc880b8a	-0.016607065
108	0xbd514745	-0.05109336
109	0xbdb16eab	-0.08663686
110	0x3df6fae5	0.12059573
111	0xbcdaff0c	-0.026732944
112	0xbdc6fefa	-0.09716602
113	0xbd8c4d2b	-0.06850656
114	0x3cb1b2bd	0.021691674
115	0x3e34bc84	0.17650038
116	0x3e2bb4e1	0.16768219
117	0x3e038ed3	0.12847452
118	0xbdeb0839	-0.11476178
119	0xbe1df608	-0.15425885
120	0x3e5a1819	0.21298255
121	0xbd913c3c	-0.07091567
122	0x3d5bbbc8	0.05364588
123	0x3cf1b89c	0.029506974
124	0xbd70dbcd	-0.05880337
125	0x3d9d867f	0.07691669
126	0x3dfa9824	0.1223605
127	0x3bf91662	0.007601545
128	0xbd0cb632	-0.034353442
129	0xbc2e6cd9	-0.0106460685
130	0xbaac9e5f	-0.0013169757
131	0x3d7edbf8	0.062221497
132	0x3dc5a1f8	0.09650034
133	0x3e2a7f13	0.16650037
134	0x3e07e53a	0.13271037
135	0x3de9acde	0.11409925
136	0xbc9c7fcd	-0.019103909
137	0x3bc65c3d	0.006053476
138	0x3b8aae8f	0.004232235
139	0xbc0a9ee7	-0.008460737
140	0x3dc3ddfd	0.09563825
141	0xbd3a350b	-0.045460742
142	0x3de30a86	0.110859916
143	0x3c742376	0.014901033
144	0x3dbb1284	0.09134391
145	0x3e008fc4	0.12554842
146	0xbcd80fcd	-0.026374722
147	0xbd897677	-0.067120485
148	0xbd06fe2a	-0.032957233
149	0xbd1bfedc	-0.03808485
150	0x3df535d3	0.11973157
151	0x3dddcfa3	0.10830619
152	0x3da2f83a	0.07957502
153	0xbce82a4c	-0.028340481
154	0x3dbc84d2	0.09205021
155	0x3db9c423	0.09070613
156	0x3d6951a6	0.05696263
157	0x3d8a40aa	0.06750615
158	0x3ce0d39b	0.027444651
159	0xbd0a0c15	-0.03370293
160	0x3d30f152	0.04319889
161	0xbcefe4ff	-0.029283999
162	0x3cbbf448	0.02294363
163	0xbe70d6cc	-0.23519439
164	0x3df2a545	0.11847929
165	0x3e494163	0.1965385
166	0x3e887ca2	0.26657587
167	0xbd6adf3e	-0.057341807
168	0xba0116fd	-0.0004924385
169	0xbe557b0b	-0.20847718
170	0xbe6ba82c	-0.23013371
171	0x3e5c3208	0.2150346
172	0xbeb16c90	-0.3465314
173	0x3e8f1c82	0.27951437
174	0x3ec3aa25	0.38215747
175	0xbee5ecea	-0.44907314
176	0xbe73b823	-0.23800711
177	0x3df16f07	0.11788755
178	0xbd89aacc	-0.0672203
179	0x3dd5b6bd	0.10435245
180	0xbdc705f4	-0.09717932
181	0xbe80d7d9	-0.2516468
182	0x3e1597b6	0.14608654
183	0x3e1f601a	0.15564004
184	0xbe0e25f1	-0.13881661
185	0xbcaa9cbf	-0.020826695
186	0xbdb7c78d	-0.08973608
187	0x3db301d9	0.08740587
188	0xbe410622	-0.18849996
189	0x3e9294b2	0.2862907
190	0xbd7d29a7	-0.0618073
191	0x3e0d7e9a	0.13817826
192	0x3d278e3b	0.040907126
193	0xbd31bd3b	-0.043393355
194	0xbb02ff45	-0.0019988578
195	0x39fb74bc	0.00047961425
196	0xbda5e566	-0.08100395
197	0x3dde4c68	0.10854417
198	0xbd4ab17b	-0.049485665
199	0xbd83d41e	-0.064369425
200	0x3c77d567	0.015126563
201	0x3e1b9cc2	0.15196517
202	0x3de6d530	0.11271131
203	0xbd98a272	-0.07452859
204	0x3c97fb70	0.018552512
205	0xbdc29e8c	-0.09502897
206	0x3dd04f94	0.10171428
207	0x3d680815	0.056648333
208	0x3e0e5518	0.13899648
209	0x3e011287	0.12604724
210	0x3b3d73e6	0.0028908192
211	0xbd5c4487	-0.05377629
212	0xbd98c17a	-0.07458778
213	0x3e16d4a9	0.14729561
214	0xbd3f427f	-0.046694275
215	0xbd8bc002	-0.06823732
216	0xbdbbf1cc	-0.091769785
217	0x3c851442	0.016245011
218	0x3d180bc3	0.03712059
219	0xbd325031	-0.043533508
220	0x3de71846	0.11283927
221	0xbd571565	-0.052510638
222	0xbc940f3b	-0.018073669
223	0xbd39e908	-0.04538825
224	0x3ef0b28a	0.47011214
225	0xbe56579a	-0.20931855
226	0x3ee063a6	0.43826026
227	0xbb93db01	-0.0045121913
228	0x3ea71d65	0.32639614
229	0x3d0efb32	0.034907527
230	0xbe6614c9	-0.22468866
231	0x3d022eca	0.031782903
232	0x3e24d96b	0.16098563
233	0x3cc24960	0.023716629
234	0xbe857633	-0.2606674
235	0xbe58c74b	-0.21169774
236	0x3e9888b1	0.29791787
237	0x3e21ece6	0.15813026
238	0x3b971e72	0.0046117837
239	0x3e44394f	0.19162486
240	0xbebd7c53	-0.37008914
241	0x3e6a7870	0.22897506
242	0xbd0fc710	-0.03510195
243	0x3d5dc26f	0.054140504
244	0xbe86f089	-0.2635539
245	0xbea2100b	-0.31652865
246	0xbeca66ca	-0.39531547
247	0xbf153f7b	-0.5829999
248	0xbd8a1765	-0.067427434
249	0x3db7f5e8	0.0898245
250	0xbd2254e2	-0.03963173
251	0xbbae9781	-0.0053281193
252	0xbedf72e9	-0.43642357
253	0xbe3e6df4	-0.18596631
254	0xbd2fad2c	-0.04288976
255	0xbea61e5e	-0.32445043

module.graph_layers.0.mlp_upd.0.bias f4 [32]
0	0x3dbf2e99	0.0933506
1	0xbdcfb41d	-0.10141776
2	0xbd3e0151	-0.046387974
3	0x3dc34f5a	0.095366195
4	0x3e36e068	0.17859042
5	0x3d108ba5	0.035289425
6	0x3d810754	0.06300226
7	0xbdf8584c	-0.12126216
8	0x3d3d4a7b	0.04621361
9	0xbde3f404	-0.11130527
10	0x3c662786	0.014047509
11	0xbe19694e	-0.14981577
12	0xbd73785d	-0.05944096
13	0x3cd5e564	0.026110359
14	0x3de28ce8	0.11062032
15	0xbdc2a931	-0.09504927
16	0xbd311fb6	-0.043243133
17	0xbdea0f13	-0.114286564
18	0xbd6e4df9	-0.05817983
19	0x3d8bf44a	0.06833704
20	0x3d9a55ee	0.07535921
21	0xbd8cf2b8	-0.068822324
22	0x3de4ad9b	0.11165925
23	0xbc98c444	-0.018648274
24	0x3cfcef1a	0.030875731
25	0xbe11b055	-0.14227422
26	0x3cd45394	0.02591876
27	0xbcefd2c9	-0.029275315
28	0xbda338e9	-0.07969839
29	0xbd4b44ce	-0.049626164
30	0xbd9bab88	-0.07601076
31	0xbdca4874	-0.098771006

module.graph_layers.1.mlp_msg.0.weight f4 [32, 64]
0	0xbdb71b72	-0.08940782
1	0x3d8b0777	0.06788533
2	0x3c8e2e39	0.017356025
3	0x3e8be114	0.27320158
4	0xbe5630af	-0.20917009
5	0xbe348d6a	-0.1763207
6	0x3c8d85b7	0.017275674
7	0x3d2c2274	0.042025045
8	0xbc8d500d	-0.017250085
9	0x3b4b00b9	0.0030975773
10	0xbc9a9cad	-0.018873537
11	0x3ce7572c	0.028239809
12	0x3d9d1c87	0.07671457
13	0xbd4994fa	-0.04921434
14	0xbe18b689	-0.14913382
15	0x3e4b2396	0.19837794
16	0x3d8ea854	0.069657
17	0x3e6ec221	0.23316242
18	0xbc37d3b4	-0.011219908
19	0x3db535fe	0.08848189
20	0x3dc95250	0.09830153
21	0xbdfbd8a2	-0.12297179
22	0x3dc92811	0.09822095
23	0xbe80b823	-0.25140485
24	0x3e39bd21	0.18138553
25	0xbe01217b	-0.12610428
26	0xbd813eb1	-0.063107856
27	0xbe099fe6	-0.13439903
28	0xbd8822c4	-0.06647256
29	0x3d45ba35	0.048273284
30	0xbe80cc69	-0.25155953
31	0x3e0c290e	0.13687536
32	0xbc833945	-0.01601852
33	0x3d9c1930	0.07621992
34	0xbd765b4a	-0.060145654
35	0x3e252f5c	0.16131347
36	0x3d4c712d	0.04991262
37	0x3e2568a6	0.16153201
38	0xbda9037b	-0.08252617
39	0x3d955d33	0.07293167
40	0xbe4e8749	-0.20168795
41	0xbd8e9cd7	-0.069635086
42	0xbe36f7fe	-0.17868039
43	0x3e87faaf	0.26558444
44	0xbde204f7	-0.11036103
45	0x3d950681	0.07276631
46	0x3d80dd95	0.062922634
47	0xbe287606	-0.16451272
48	0x3e885537	0.26627514
49	0xbdb42f6c	-0.087981075
50	0x3e64f010	0.22357202
51	0x3cff8fe0	0.031196535
52	0xbe99b584	-0.30021298
53	0xbd5ea129	-0.054352913
54	0x3e9db4b5	0.3080193
55	0x3d99807e	0.07495211
56	0xbd6a30d4	-0.057175472
57	0xbd6d5342	-0.05794073
58	0xbdadf523	-0.08494022
59	0x3e521c38	0.20518577
60	0xbdabdb6d	-0.083914615
61	0x3e700097	0.23437725
62	0x3de03076	0.10946743
63	0x3dc1720b	0.0944558
64	0x3e892253	0.26784
65	0x3ddff720	0.10935807
66	0xbdcb6a8a	-0.0993243
67	0x3e38bb16	0.18040118
68	0xbc4e4bf8	-0.012591355
69	0xbd2b189c	-0.041771516
70	0x3df494f2	0.119424716
71	0xbdf95686	-0.12174706
72	0xbdd8fc5f	-0.10595011
73	0x3e47c0cb	0.19507138
74	0x3d976ed4	0.07394186
75	0x3e3007f8	0.1719054
76	0x3cd2c679	0.025729405
77	0xbd166bcc	-0.036723897
78	0xb99f01cf	-0.0003032819
79	0x3d35066c	0.044195578
80	0x3d3b350a	0.04570488
81	0xbbc16d23	-0.0059029027
82	0xbdd7775f	-0.10520815
83	0x3d7e5aed	0.062098432
84	0xbd840c3e	-0.064476475
85	0x3e1904c0	0.14943218
86	0x3e2fad26	0.17155895
87	0xbd3574a2	-0.044300683
88	0xbd6ed2c8	-0.058306485
89	0xbe66a6c4	-0.22524554
90	0x3d267c74	0.04064603
91	0xbd4dc383	-0.050235283
92	0xbcc83751	-0.02444044
93	0xbe64878f	-0.22317336
94	0xbe804db8	-0.25059295
95	0x3d2805e7	0.041021254
96	0xbde52db4	-0.11190358
97	0x3e1fcd69	0.15605702
98	0xbdb99052	-0.0906073
99	0xbe141745	-0.14462002
100	0xbd034949	-0.032052312
101	0x3e5f17ac	0.21786374
102	0x3e443f7c	0.19164842
103	0xbe2865a5	-0.16445024
104	0x3e2b49e3	0.16727404
105	0xbdf9a3ba	-0.121894315
106	0xbddabdfd	-0.10680769
107	0x3e412e03	0.18865208
108	0xbe061544	-0.1309405
109	0x3d8ced9b	0.06881257
110	0xbda572eb	-0.080785595
111	0x3d61145a	0.05495105
112	0x3e6f9b35	0.2339905
113	0x3d167740	0.03673482
114	0xbd9c9686	-0.076458976
115	0xbe11dbdd	-0.14244027
116	0xbdfe387b	-0.124131165
117	0x3e092c8c	0.133959
118	0x3da8049c	0.08204004
119	0x3e4dd23c	0.2009973
120	0xbe54cf15	-0.2078212
121	0xbda57457	-0.08078831
122	0x3d38ada3	0.045087468
123	0xbe2e3042	-0.17010596
124	0x3d8451f8	0.06460947
125	0x3dc441fb	0.09582897
126	0x3cb940e3	0.022613948
127	0x3d9b4544	0.07581571
128	0x3defc15f	0.117068045
129	0x3c9875b8	0.01861082
130	0x3d983413	0.07431807
131	0xbe36ef13	-0.17864637
132	0xbe85d2c8	-0.26137376
133	0x3d1ff59c	0.03905259
134	0x3e857c8f	0.26071593
135	0xbd7c59a3	-0.06160892
136	0xbdcd7c72	-0.10033502
137	0x3dedc9c5	0.1161075
138	0x3ddb3fa4	0.10705498
139	0xbd7b6746	-0.061377786
140	0xbd80493c	-0.06263968
141	0x3d4d05ca	0.05005435
142	0xbe0cc384	-0.13746458
143	0xbdf24b05	-0.11830715
144	0x3dbbd164	0.091707975
145	0x3e688b71	0.22709443
146	0xbd10ab43	-0.035319578
147	0x3eb0cebd	0.3453273
148	0x3e506041	0.20349218
149	0x3c1d4142	0.009598078
150	0xbe3765e2	-0.17909959
151	0x3e475d86	0.1946927
152	0xbe3f9cb5	-0.18712123
153	0xbc3bda72	-0.011465656
154	0x3cbeb284	0.023278482
155	0xbddd353d	-0.1080117
156	0x3e936534	0.2878815
157	0xbe08002a	-0.13281313
158	0x3d8dcbc9	0.069236346
159	0x3c04f554	0.008115131
160	0x3e1a1f8d	0.15051098
161	0xbd05e228	-0.032686383
162	0x3e071b1c	0.13193935
163	0x3d7e2e0f	0.062055644
164	0x3e07195e	0.1319327
165	0x3d30d515	0.04317196
166	0x3d10c36f	0.03534263
167	0x3e5b91f3	0.21442394
168	0xbe676632	-0.22597578
169	0x3e03b4e3	0.12861972
170	0x3d0bfc75	0.03417631
171	0xbe23e00d	-0.16003437
172	0x3e8cb5c1	0.27482417
173	0x3dfb3bbb	0.12267252
174	0xbe192f10	-0.14959359
175	0x3cbc5ba3	0.022992915
176	0xbe8188a6	-0.25299567
177	0x3d35205d	0.044220317
178	0x3e550559	0.20802821
179	0x3d8a319f	0.06747746
180	0x3d4da483	0.05020572
181	0xbe8b27e2	-0.27178866
182	0xbe299d42	-0.16563895
183	0xbe1a8c19	-0.15092506
184	0x3dabe9fd	0.08394239
185	0xbb81d77f	-0.0039624567
186	0x3c8021e2	0.015641157
187	0x3e9817de	0.2970571
188	0xbe131914	-0.14365035
189	0x3cfa1cda	0.030531336
190	0x3e2c30bc	0.16815466
191	0xbe3fddf1	-0.18737008
192	0xbe4f40b9	-0.20239533
193	0xbeb79cc4	-0.3586179
194	0xbc92f11b	-0.017937234
195	0xbde9594e	-0.11393987
196	0x3d4d7034	0.050155833
197	0x3e6a3a89	0.22873892
198	0x3e0d6870	0.13809371
199	0xbe42586c	-0.18979043
200	0xbc82807e	-0.01593041
201	0xbddcf38b	-0.1078864
202	0xbdef6d2c	-0.11690745
203	0x3caf82cf	0.02142468
204	0xbcad49cc	-0.021153353
205	0x3e34551b	0.1761059
206	0x3d66393a	0.05620692
207	0x3d1e2bd9	0.038616035
208	0xbd9d9a0d	-0.076953985
209	0x3e77a8b5	0.2418545
210	0xbd5c1f62	-0.053740866
211	0xbe6cd632	-0.23128584
212	0xbe691185	-0.2276059
213	0x3e60a626	0.2193838
214	0x3d423bf0	0.047420442
215	0xbdd859d2	-0.10564007
216	0x3db17006	0.08663945
217	0x3c32f8f2	0.010923611
218	0x3d4fea03	0.05076028
219	0xbe8afa92	-0.27144295
220	0xbd93408b	-0.07190045
221	0x3e36f9d0	0.17868733
222	0x3e57d4bc	0.21077245
223	0x3ccf6697	0.025317473
224	0x3d3118b6	0.043236457
225	0x3d87e3ee	0.06635271
226	0xbe07aa4d	-0.13248558
227	0x3d8cafce	0.068694696
228	0xbd249461	-0.040180568
229	0x3e935954	0.2877909
230	0xbda976fb	-0.08274647
231	0x3d03ab7f	0.032145973
232	0xbe559dea	-0.2086102
233	0xbdfa1456	-0.1221091
234	0xbec76ccf	-0.38950202
235	0xbe051582	-0.12996486
236	0xbd47fed8	-0.048827022
237	0x3dc29cdd	0.095025755
238	0xbca15441	-0.019693496
239	0xbd0da3a7	-0.0345799
240	0x3d19982a	0.03749863
241	0x3e61b78c	0.22042674
242	0xbe916d1e	-0.28403562
243	0xbd20db04	-0.03927137
244	0x3d8870e7	0.066621594
245	0x3ca555f9	0.020182597
246	0xbc9aac2b	-0.018880924
247	0xbd2b632d	-0.04184263
248	0xbdf9b725	-0.12193135
249	0xbd45c4c1	-0.048283342
250	0xbdd90818	-0.10597247
251	0x3d52806b	0.051392
252	0x3cb35494	0.021890916
253	0x3dceeb7c	0.10103509
254	0xbe98a3b7	-0.29812405
255	0x3d654bde	0.055980556

module.graph_layers.1.mlp_msg.0.bias f4 [32]
0	0xbd42e244	-0.047579065
1	0x3e074683	0.13210492
2	0x3d558492	0.052128382
3	0xbd9e5034	-0.07730141
4	0xbe1df70a	-0.15426269
5	0x3c83dd5d	0.016096765
6	0xbd9e4fce	-0.07730065
7	0x3ce61382	0.028085474
8	0xbe5f73e5	-0.21821554
9	0x3e13ed12	0.14445904
10	0xbd9608c4	-0.07325891
11	0xbc8711b7	-0.01648794
12	0x3e7298bc	0.23691076
13	0xbd10c614	-0.035345152
14	0xbd9625f6	-0.07331459
15	0xbd3a43a1	-0.045474652
16	0x3db48b89	0.08815677
17	0x3dfb3e1c	0.12267706
18	0xbdd65f59	-0.10467405
19	0xbe2bbccf	-0.16771244
20	0x3c8224ea	0.015886743
21	0x3d0097bf	0.031394716
22	0xbe1c8589	-0.15285315
23	0x3c97f9b4	0.018551685
24	0xbd7bc369	-0.061465655
25	0xbdfcf531	-0.12351454
26	0xbe2ec658	-0.1706785
27	0xbe10ca79	-0.14139737
28	0xbe15ee5b	-0.14641707
29	0xbd874cd8	-0.06606454
30	0xbe6913d0	-0.22761464
31	0x3e05a917	0.13052784

module.graph_layers.1.mlp_upd.0.weight f4 [32, 64]
0	0xbdc19d12	-0.09453787
1	0xbc5dcc9c	-0.013537552
2	0xbcdf6daa	-0.027273972
3	0xbde02092	-0.10943712
4	0xbd9e2dec	-0.07723603
5	0x3be176c0	0.006880611
6	0x3d608c2a	0.05482117
7	0x3d77cd3a	0.060498454
8	0x3eecf4a7	0.46280405
9	0x3cd98408	0.026552215
10	0x3d9fec95	0.07808796
11	0xbea3d8bb	-0.3200129
12	0x3f3cbe62	0.73728
13	0xbdfa2aef	-0.1221522
14	0xbda5f8ae	-0.081040725
15	0x3da290ad	0.07937751
16	0x3e36e4f0	0.1786077
17	0x3cf91dcc	0.030409716
18	0xbdf26866	-0.11836319
19	0x3d5fc504	0.054631248
20	0x3cdd2150	0.026993424
21	0xbadcf936	-0.0016858939
22	0xbcd017c8	-0.025401965
23	0xbd2e263d	-0.042516936
24	0x3e9622f7	0.2932355
25	0x3cb9b43f	0.022668956
26	0xbe186127	-0.1488081
27	0xbdcdacf9	-0.100427575
28	0xbe0c3bb7	-0.13694654
29	0xbd772b78	-0.06034419
30	0x3dd4d6ad	0.10392509
31	0x3ddf1138	0.10891956
32	0x3dbc1d27	0.09185248
33	0xbe5d7f2b	-0.21630542
34	0xbc9f4cba	-0.019445766
35	0xbdaa8ba8	-0.083274186
36	0xbd853771	-0.06504715
37	0x3cdaf386	0.02672745
38	0x3e1f1f28	0.15539229
39	0x3decabc6	0.11556201
40	0x3acafede	0.0015487333
41	0xbdd4444b	-0.10364588
42	0xbe0f4433	-0.1399086
43	0x3e0a5548	0.13509095
44	0xbe2601e8	-0.16211665
45	0xbe3e7818	-0.186005
46	0xbbb560c7	-0.0055352184
47	0xbdd71b39	-0.10503239
48	0x3e79942d	0.24372931
49	0xbd00c752	-0.031440087
50	0xbdbfb752	-0.093611374
51	0x3e0c88bb	0.13724034
52	0xbd315c18	-0.043300718
53	0xbda04081	-0.07824803
54	0x3dbe6746	0.092970416
55	0xbd2440d8	-0.040100902
56	0x3e50b48f	0.20381378
57	0xbc4acc2c	-0.01237778
58	0xbd9369ed	-0.07197938
59	0xbd9bd0a8	-0.076081574
60	0x3de64f10	0.11245549
61	0xbe55636e	-0.2083871
62	0x3ea98ae3	0.33113775
63	0xbdc51963	-0.09623983
64	0x3c5696ed	0.013097507
65	0x3afa7247	0.0019107544
66	0xba341fc7	-0.000687119
67	0x3a88bfbe	0.001043312
68	0x3e6039d1	0.21897055
69	0xbe77407c	-0.24145693
70	0x3e074bdf	0.13212536
71	0x3d8245c3	0.06360962
72	0xbefa28ad	-0.48859158
73	0x3d249ced	0.04018872
74	0xbe2e79a5	-0.17038591
75	0x3df272d0	0.11838305
76	0xbf0f2b87	-0.5592579
77	0xbdc5d334	-0.096594244
78	0xbe28b3b6	-0.16474804
79	0xbd941224	-0.072300225
80	0xbdf1ba6e	-0.11803137
81	0x3c16df37	0.009208492
82	0x3e14fc08	0.14549267
83	0x3de7b21f	0.11313271
84	0x3db55b36	0.08855288
85	0xbd429f30	-0.047515094
86	0xbc1752be	-0.009236036
87	0x3c9bbe80	0.019011736
88	0x3e43c399	0.19117583
89	0xbdb44281	-0.08801747
90	0x3b5396b2	0.0032285866
91	0xbdc062b3	-0.093938254
92	0x3d0e6496	0.034763895
93	0x3d49a5b6	0.0492303
94	0xbe27cd56	-0.16386923
95	0xbe71d318	-0.23615682
96	0xbe2929b4	-0.16519815
97	0x3d518a48	0.051157266
98	0x3d8fa870	0.07014549
99	0x3e64ee95	0.22356637
100	0xbdf7e313	-0.12103858
101	0x3e99114a	0.29896003
102	0xbebb7de7	-0.36619493
103	0xbdd65f53	-0.104674004
104	0x3d94b654	0.07261339
105	0x3deaa315	0.11456887
106	0xbccd4028	-0.025055006
107	0xbf13e951	-0.5777789
108	0x3cf31ba3	0.029676264
109	0xbd9c2dbf	-0.07625913
110	0xbab68bff	-0.001392722
111	0x3d88e478	0.06684202
112	0xbd4f1314	-0.050555304
113	0xbe1e3aa2	-0.15452054
114	0x3debcc3c	0.11513564
115	0xbddb2bf4	-0.10701743
116	0xbdb84a53	-0.08998551
117	0xbdb003b6	-0.08594458
118	0xbe5e7a4d	-0.21726342
119	0x3e9b5d9c	0.30344856
120	0xbe6aa4f3	-0.22914486
121	0x3e016e45	0.1263972
122	0xbe2836f8	-0.16427219
123	0x3db869cc	0.09004554
124	0xbd25e4f6	-0.040501557
125	0x3e0befdb	0.13665716
126	0xbd2f0323	-0.0427276
127	0x3e023812	0.12716702
128	0xbe7b8b06	-0.24564752
129	0xbe25e2fd	-0.1619987
130	0x3cb92e70	0.022605151
131	0xbe2deb77	-0.16984354
132	0x3e5ef256	0.21772131
133	0xbe485ff5	-0.19567855
134	0x3e093a42	0.1340113
135	0x3e142a34	0.14469224
136	0x3de0cb73	0.10976305
137	0xbdcf0aa8	-0.101094544
138	0x3e04010a	0.12891021
139	0xbd42f885	-0.047600288
140	0xbe148e0d	-0.14507313
141	0xbd75c4ba	-0.060002066
142	0x3e161a1d	0.14658399
143	0xbd20d95f	-0.0392698
144	0x3db804c9	0.08985288
145	0x3dd596e7	0.10429173
146	0xbe1b24cd	-0.15150757
147	0x3e0336ed	0.12813921
148	0xbe11a371	-0.14222504
149	0xbd957a19	-0.07298679
150	0xbd49eef2	-0.04930014
151	0x3ade3102	0.0016951861
152	0xbdd1e1ee	-0.10248171
153	0xbdf5e711	-0.12006963
154	0xbcc483c7	-0.023988618
155	0x3ce99b55	0.02851645
156	0x3c9f5c39	0.019453155
157	0x3d230b69	0.039805803
158	0x3bc0cbc5	0.005883666
159	0xbd811b0b	-0.06303986
160	0xbd8e289d	-0.0694134
161	0x3bf06c32	0.0073371166
162	0x3d16d05f	0.036819812
163	0x3d8064ed	0.0626925
164	0xbcae5b7f	-0.021283863
165	0xbda01b2a	-0.07817681
166	0x3d684d11	0.05671412
167	0xbbd13e1b	-0.0063855774
168	0x3dfb58ce	0.122727975
169	0x3e8b6502	0.272255
170	0x3d8cca5e	0.06874536
171	0x3d6327c6	0.055457853
172	0xbdb3882c	-0.08766207
173	0xbbc7f1a5	-0.0061018043
174	0x3ee497bf	0.44647023
175	0x3b1fd3b2	0.0024387655
176	0x3d823f47	0.063597254
177	0x3deb48db	0.114885055
178	0x3d872c47	0.06600242
179	0xbdc3e2f3	-0.095647715
180	0x3dc83b37	0.09776919
181	0xbd61ffd8	-0.055175632
182	0x3e464b36	0.19364628
183	0x3d343834	0.043998912
184	0x3d806e3f	0.06271028
185	0x3ca86c2d	0.020559395
186	0x3d4730a9	0.04863039
187	0xbc25455e	-0.010087339
188	0x3c3ac1c3	0.011398735
189	0xbe49d18b	-0.1970884
190	0x3dd712eb	0.10501655
191	0xbc48c080	-0.012252927
192	0x3c8cfbfa	0.017209996
193	0x3c194ddf	0.009356945
194	0xbde70733	-0.1128067
195	0x3d14131b	0.036151033
196	0xbd24f2f2	-0.040270753
197	0x3e602247	0.21888076
198	0x3e0899fe	0.13339993
199	0xbd34d012	-0.044143744
200	0x3eeaf49f	0.45889756
201	0xbe5856c2	-0.21126845
202	0xbd7e18a2	-0.06203521
203	0x3bbc6d6b	0.0057503483
204	0x3ec34f5f	0.38146493
205	0xbd9145c0	-0.07093382
206	0x3e3faaa2	0.18717435
207	0x3d1cbf05	0.038268108
208	0xbd2b601b	-0.0418397
209	0xbd5c0d61	-0.053723697
210	0x3dc488cf	0.09596407
211	0xbdf5c8bb	-0.12001177
212	0x3ca199b8	0.01972662
213	0x3e008e75	0.12554343
214	0x3d7e29cb	0.062051576
215	0xbdad79e5	-0.08470515
216	0x3e4432ee	0.19160053
217	0xbd9ffc18	-0.07811755
218	0x3db5043e	0.088387
219	0x3d5b4fad	0.05354278
220	0x3dd8bd7a	0.10583015
221	0xbd01e7fd	-0.031715382
222	0xbdf09d37	-0.11748736
223	0x3e5fed95	0.21867974
224	0x3d9dd3c3	0.07706406
225	0xbe17f857	-0.14840828
226	0xbe3ac5d5	-0.1823953
227	0xbe0ded56	-0.13860068
228	0x3c940321	0.018067898
229	0xbdf9ef23	-0.12203815
230	0x3e8334dc	0.25626266
231	0x3d23181b	0.03981791
232	0x3cb69614	0.02228836
233	0x3da2ef81	0.07955838
234	0x3d4df0d0	0.050278485
235	0x3e59ceac	0.21270245
236	0xbe946820	-0.2898569
237	0xbe0d8b0e	-0.13822576
238	0x3daf5bc8	0.08562428
239	0xbdbf179d	-0.09330676
240	0x3dc11b62	0.09429051
241	0xbd9a74c6	-0.07541804
242	0xbdf0cf09	-0.11758239
243	0x3e3bab05	0.18326958
244	0xbe177140	-0.14789295
245	0x3c9f2c11	0.019430192
246	0x3e5194c4	0.20466906
247	0x3dd9e8fa	0.1064014
248	0x3dbe9cef	0.093072765
249	0xbdab9ff7	-0.0838012
250	0xbe85b267	-0.26112673
251	0x3db4753e	0.08811425
252	0xbe7272d5	-0.23676617
253	0xbdcaff04	-0.099119216
254	0x3d97d694	0.074139744
255	0xbe4f33e4	-0.20234638

module.graph_layers.1.mlp_upd.0.bias f4 [32]
0	0x3d2ab59c	0.041677102
1	0x3cf3f0a9	0.029777842
2	0xbca1194d	-0.019665385
3	0x3ab89bbc	0.0014084498
4	0xbda4e364	-0.08051184
5	0x3d86cb1c	0.06581709
6	0x3d22dde4	0.039762393
7	0x3dd94015	0.10607926
8	0xbe2fcb0e	-0.17167303
9	0x3de8fdd2	0.113765374
10	0xbdb8efa3	-0.09030082
11	0x3d5bdabb	0.053675395
12	0x3d2f050e	0.04272943
13	0xbd0ce976	-0.034402333
14	0x3e0bc441	0.13649084
15	0x3e14856a	0.14504018
16	0x3d367699	0.044546697
17	0xbbec2a06	-0.007207158
18	0xbd628b5b	-0.05530868
19	0xbd5c7b2a	-0.053828396
20	0x3e9b2450	0.30301142
21	0x3e828a95	0.25496355
22	0x3e140042	0.14453223
23	0x3c936e46	0.017996918
24	0x3d53f81d	0.05175029
25	0x3ce28680	0.027652025
26	0x3e2ee57a	0.17079726
27	0xbc913dff	-0.017729757
28	0x3c145f8e	0.009055985
29	0x3da7d5f2	0.08195104
30	0x3cf2b8e1	0.029629173
31	0xbe4be629	-0.19912018

module.graph_layers.2.mlp_msg.0.weight f4 [32, 64]
0	0xbdc2c963	-0.09511068
1	0x3cd7e342	0.026353482
2	0xbe813292	-0.25233895
3	0x3d38fcb7	0.045162883
4	0xbc75675a	-0.014978254
5	0x3e07d2ea	0.13264051
6	0xbde1a37c	-0.1101751
7	0x3b56137b	0.003266542
8	0x3eafd048	0.34338593
9	0x3cf91090	0.030403405
10	0xbdaa9418	-0.08329028
11	0xbd9f4b56	-0.07778041
12	0x3e419b20	0.18906832
13	0x3d501c3a	0.05080817
14	0x3c5eb930	0.013593957
15	0xbd100567	-0.035161402
16	0x3ecdd546	0.40201777
17	0x3d862dc6	0.06551699
18	0xbca49599	-0.020090865
19	0x3d834630	0.064098716
20	0x3bea4eb3	0.007150495
21	0x3c0dd798	0.008657359
22	0x3c5f0c83	0.013613823
23	0x3bc62b11	0.0060476144
24	0x3e85d92e	0.26142257
25	0xbe80b6dd	-0.25139514
26	0xbe14fdf3	-0.14549999
27	0xbea42fb6	-0.3206765
28	0x3e3de9b2	0.18546179
29	0xbe769b3a	-0.24082652
30	0x3dc77a11	0.09740079
31	0xbde70e36	-0.112820074
32	0xbe579acc	-0.21055144
33	0xbdd1e127	-0.102480225
34	0x3b501e7a	0.0031756447
35	0xbbe71a92	-0.007052728
36	0xbe4983bc	-0.19679159
37	0xbd9bca94	-0.07606998
38	0xbe9888ba	-0.29791814
39	0x3e41d41d	0.18928571
40	0x3d93eef2	0.072233096
41	0x3e1169b6	0.14200482
42	0x3de04def	0.10952365
43	0x3d95b2a9	0.07309467
44	0xbddeff09	-0.10888488
45	0xbe2f7a6e	-0.17136547
46	0x3e25d870	0.16195846
47	0x3d90dbe9	0.070731945
48	0x3df9265c	0.121655196
49	0x3c3891d4	0.011265237
50	0xbd1679f1	-0.036737386
51	0xbd1d596e	-0.038415365
52	0xbe65d3ad	-0.22444029
53	0xbab4f3fe	-0.0013805625
54	0x3df30e3b	0.118679486
55	0x3d0bcb9d	0.034129728
56	0xbe8c0a53	-0.27351627
57	0x3cba62a4	0.022752114
58	0x3d34e121	0.044160012
59	0xbe0d4370	-0.13795257
60	0xbb983b8a	-0.0046457695
61	0xbde19c48	-0.110161364
62	0x3c20782f	0.009794279
63	0x3e07797a	0.13229933
64	0x3de81600	0.11332321
65	0xbd113d81	-0.035459045
66	0xbe2c38bd	-0.16818519
67	0x3e1fe9c9	0.15616526
68	0xbbf8e109	-0.0075951857
69	0xbe3e1ee8	-0.18566477
70	0x3e689825	0.22714289
71	0xbd9f5fba	-0.0778193
72	0xbeae77cc	-0.34075773
73	0x3e47905f	0.19488667
74	0x3d9ffb30	0.07811582
75	0xbcbd2ba0	-0.023092091
76	0xbe91799f	-0.28413102
77	0x3c2da6cc	0.0105988495
78	0x3f7fea00	0.9996643
79	0x3cced281	0.02524686
80	0x3ed775d9	0.42082098
81	0xbc89f84b	-0.016842028
82	0xba8afb92	-0.0010603538
83	0xbd66a536	-0.0563099
84	0xbe1c7bd6	-0.15281615
85	0x3c7f2306	0.015572315
86	0xbec9309c	-0.392949
87	0xbe589ac5	-0.2115279
88	0x3d82b531	0.06382216
89	0x3f6339a4	0.8875983
90	0xbdc719bf	-0.097217076
91	0x3e8aa08e	0.27075619
92	0x3e84fa49	0.25972202
93	0x3eac761c	0.3368386
94	0xbc7f1a55	-0.015570243
95	0x3d02db47	0.0319474
96	0xbd138ad6	-0.036021076
97	0x3e9e57b4	0.30926287
98	0xbb445119	-0.0029955565
99	0xbe1ce7ee	-0.15322849
100	0xbbaeb609	-0.005331759
101	0xbd92b360	-0.07163119
102	0x3e8abd97	0.2709777
103	0xbea261cf	-0.31715247
104	0xbde274d1	-0.11057437
105	0x3b84f067	0.0040569785
106	0x3d4762b1	0.048678104
107	0x3d1c6931	0.038186256
108	0x3e49f83c	0.197236
109	0x3de0d82c	0.109787315
110	0x3e5aa40b	0.2135164
111	0xbdba1864	-0.090866834
112	0x3d18c61d	0.03729831
113	0x3e848bd4	0.2588793
114	0x3dd695db	0.104778014
115	0xbdf4c365	-0.11951331
116	0xbc2c76ef	-0.010526403
117	0xbd87eceb	-0.066369854
118	0x3e9807e6	0.29693526
119	0xbebc5b13	-0.36788234
120	0x3e920413	0.28518733
121	0x3efc3624	0.49260056
122	0xbe305c70	-0.17222762
123	0x3e05a108	0.1304971
124	0xbd82d31e	-0.06387924
125	0xbdd6a171	-0.10480011
126	0x3c3c4cbb	0.011492903
127	0x3e1bf435	0.15229876
128	0xbe07afcb	-0.13250653
129	0xbd76322f	-0.060106453
130	0x3de0835d	0.109625556
131	0x3d4c92b7	0.049944606
132	0xbd709822	-0.058738835
133	0xbe63b87b	-0.22238342
134	0x3caa6a57	0.02080266
135	0xbd9f2efc	-0.077726334
136	0xbeef4240	-0.46730232
137	0xbde020b7	-0.1094374
138	0xbcf78560	-0.030214965
139	0xbe77463d	-0.24147888
140	0x3ea8d188	0.3297236
141	0xbb332a06	-0.002733828
142	0x3e0b4155	0.13599141
143	0xbdb162db	-0.08661433
144	0xbe9f46e3	-0.3110877
145	0xba3afce1	-0.0007133019
146	0x3bd2b5fe	0.0064303866
147	0xbd3a1a1e	-0.045435064
148	0x3dbc94d2	0.09208073
149	0xbd9be447	-0.076119
150	0x3d92d5b1	0.07169665
151	0xbd1ddea1	-0.038542394
152	0x3edd19b5	0.43183675
153	0x3c9e837e	0.01934981
154	0x3cb023e6	0.021501493
155	0x3e727fc8	0.23681557
156	0x3e22bde3	0.15892749
157	0x3ed9f596	0.4257018
158	0x3da1aeca	0.078946665
159	0x3d4bafd9	0.04972825
160	0x3e1c6568	0.15273058
161	0xbc0dbca8	-0.008650936
162	0xbc577951	-0.013151483
163	0xbe0d6486	-0.13807878
164	0x3d931481	0.07181645
165	0xbd4941b7	-0.049134936
166	0xbdf6306a	-0.12020953
167	0x3da80dc1	0.08205748
168	0xbdbb5d65	-0.09148673
169	0x3da56364	0.08075598
170	0x3ca5808d	0.0202029
171	0x3d4c40cc	0.049866483
172	0x3ec919bc	0.39277446
173	0x3d396edb	0.045271736
174	0x3d3ecf24	0.046584263
175	0xbe0161f2	-0.1263502
176	0x3d62df37	0.055388656
177	0x3e04a653	0.12954073
178	0xbd4469a5	-0.047952313
179	0xbd3dcef8	-0.04633996
180	0xbcc4d04e	-0.024025109
181	0xbe730dc5	-0.23735721
182	0xbd42ce26	-0.04755988
183	0x3d0c6e64	0.034284964
184	0x3e24939a	0.1607193
185	0x3d8a4dd6	0.06753127
186	0xbd6ff015	-0.05857857
187	0xbd6e7fff	-0.058227535
188	0x3cd56dd9	0.026053356
189	0x3c94e5ea	0.018176038
190	0x3e8f0815	0.27935854
191	0x3e193a80	0.14963722
192	0xbc71c426	-0.014756238
193	0x3db638a4	0.08897522
194	0xbd3077cc	-0.043082997
195	0xbdeeabc5	-0.11653856
196	0xbc9e3cd4	-0.019316114
197	0xbe2ef52d	-0.17085715
198	0xbe40a876	-0.18814263
199	0x3cec056e	0.028811183
200	0x3da0fbc0	0.078605175
201	0xbdb5cb13	-0.08876624
202	0xbe7a53ef	-0.2444608
203	0xbf190799	-0.5977722
204	0xbee1e779	-0.44121912
205	0x3da3dc65	0.08001021
206	0xbebbebaa	-0.36703235
207	0xbc260f35	-0.010135462
208	0x3edc566a	0.4303468
209	0xbd99799b	-0.074938975
210	0x3c3d9e46	0.01157338
211	0x3d4adbcb	0.049526017
212	0xbd1d9956	-0.03847631
213	0xbc84e716	-0.016223472
214	0x3e0eab0e	0.1393244
215	0x3d3ccd1c	0.046094045
216	0xbdf7a8f3	-0.120927714
217	0xbe8ba8ce	-0.27277225
218	0x3c7a4983	0.015276316
219	0xbdeb4085	-0.114869155
220	0xbe0f2fe9	-0.1398312
221	0xbedc1cba	-0.42990667
222	0xbda94530	-0.082651496
223	0xbd48687a	-0.04892776
224	0x3e31d6ef	0.17367147
225	0xbe308db9	-0.17241563
226	0xbdbaa7ff	-0.09114074
227	0x3da16ac0	0.07881689
228	0xbcf32d93	-0.029684817
229	0xbde9ed42	-0.114222065
230	0xbe3c81c4	-0.18408877
231	0x3d610de7	0.0549449
232	0x3d3fff83	0.046874534
233	0xbdd581e6	-0.10425167
234	0xbe59c419	-0.21266212
235	0xbe3f7b98	-0.18699491
236	0x3d008eb7	0.031386103
237	0x3c3e42d5	0.011612614
238	0xbd4cc942	-0.049996622
239	0x3dada515	0.084787525
240	0x3d6e8b14	0.058238104
241	0x3c9e6eb2	0.019339893
242	0xbe74827c	-0.23877901
243	0x3e69e91d	0.22842832
244	0xbd920046	-0.071289584
245	0x3e0851c3	0.1331244
246	0x3e85a69b	0.26103672
247	0x3de9dbc0	0.11418867
248	0xbdd2a3e2	-0.102851644
249	0xbc26c4be	-0.010178743
250	0xbd6bf7f4	-0.057609513
251	0xbde98a90	-0.11403382
252	0xbe8ff7e1	-0.28118804
253	0xbe13c390	-0.1443007
254	0x3d5b99b5	0.053613383
255	0x3cbb5b72	0.022870753

module.graph_layers.2.mlp_msg.0.bias f4 [32]
0	0xbdb572c4	-0.088597804
1	0x3e154f80	0.14581108
2	0x3d981885	0.07426552
3	0xbdcbfa6c	-0.099598736
4	0x3d2904ba	0.041264273
5	0x3dfbed32	0.12301101
6	0x3e063625	0.13106592
7	0xbdc65fa3	-0.0968621
8	0xbd260cf2	-0.04053969
9	0x3d311372	0.043231435
10	0xbdb6615c	-0.089052886
11	0x3d76f568	0.06029263
12	0xbd28c166	-0.041200064
13	0xbda6e7f6	-0.08149712
14	0x3bd1d1e4	0.0064031947
15	0xbd9e0000	-0.07714844
16	0xbca7b9e7	-0.020474387
17	0xbd55bab3	-0.052180003
18	0xbc5c74df	-0.013455599
19	0xbd5a941a	-0.053363897
20	0x3dbf4729	0.093397446
21	0xbe14a6a1	-0.14516689
22	0x3d673944	0.056451097
23	0x3df77cb3	0.12084331
24	0x3c70507d	0.014667627
25	0x3d955b12	0.07292761
26	0x3dd0d191	0.101962216
27	0x3df45ded	0.119319774
28	0x3d6ff1cc	0.058580205
29	0x3dd56e7b	0.10421463
30	0x3d117305	0.03551008
31	0x3d419014	0.047256544

module.graph_layers.2.mlp_upd.0.weight f4 [32, 64]
0	0xbdd2ae77	-0.10287183
1	0xbcab7197	-0.020928187
2	0xbc46ae16	-0.012126466
3	0xbdce28b8	-0.1006636
4	0xbd9c92e9	-0.076452084
5	0x3ddb0d99	0.10695953
6	0xbd7cb37e	-0.061694615
7	0x3e2b3acd	0.1672165
8	0xbd3eeb61	-0.046611194
9	0xbddba30a	-0.107244566
10	0x3e4f12e8	0.20222056
11	0x3e07716d	0.13226862
12	0xbdb7d3c8	-0.08975941
13	0xbde607cb	-0.11231955
14	0x3e42a47d	0.1900806
15	0xbe0b3e6a	-0.13598028
16	0x3d2a8774	0.041633084
17	0x3d3f2d45	0.04667403
18	0x3c3ae638	0.0114074275
19	0x3d3bb36f	0.045825418
20	0xbe5ad8ba	-0.21371737
21	0xbe418ff4	-0.1890257
22	0xbe285b59	-0.16441096
23	0x3d51ce19	0.05122194
24	0x3e53da01	0.2068863
25	0xbcd0d7fb	-0.025493613
26	0x3d3e7ea5	0.046507496
27	0x3d37cb94	0.04487188
28	0xbd8331ab	-0.06405958
29	0xbe15bf1e	-0.14623687
30	0xbe7389ed	-0.23783083
31	0x3d3b959f	0.045796987
32	0x3d7a5b89	0.06112245
33	0x3e4b76e0	0.19869566
34	0xbba590c8	-0.0050526597
35	0x3cfc70b8	0.030815467
36	0xbd27ed4c	-0.04099779
37	0x3e1f0443	0.1552897
38	0xbcab96d9	-0.020945953
39	0xbdfce997	-0.12349241
40	0x3d9c75a1	0.076396234
41	0xbc4fae65	-0.012675856
42	0xbdba78f4	-0.09105101
43	0xbd50cd7a	-0.050977208
44	0x3d84f3c6	0.064918086
45	0xbdffe251	-0.12494338
46	0xbdfb5f60	-0.12274051
47	0x3de4d835	0.11174051
48	0x3cf91b50	0.030408531
49	0x3c89bacb	0.016812703
50	0xbdcbed75	-0.09957401
51	0xbe45721a	-0.19281808
52	0x3da32e98	0.079678714
53	0x3e302b05	0.1720391
54	0x3e545bc2	0.20738128
55	0xbda44f01	-0.08022881
56	0x3c5c7d42	0.013457598
57	0x3d8fef3f	0.070280544
58	0xbd61eb9d	-0.05515634
59	0xbe2abf26	-0.1667448
60	0xbe6472cd	-0.22309418
61	0x3e3c201c	0.18371624
62	0xbea20c8b	-0.31650195
63	0x3da05cbc	0.07830188
64	0x3db76e43	0.08956578
65	0x3e584981	0.2112179
66	0x3e877b38	0.26461196
67	0xbe31df68	-0.17370379
68	0xbe5644b1	-0.20924641
69	0xbd4b831f	-0.049685594
70	0xbe068758	-0.13137567
71	0x3dc16b34	0.094442755
72	0xbd91591e	-0.07097076
73	0x3e0577ff	0.13034056
74	0xbe9e101d	-0.30871668
75	0xbd550199	-0.052003477
76	0xbe14b865	-0.14523466
77	0xbd784eff	-0.06062221
78	0x3ddd9899	0.10820121
79	0x3db4877f	0.08814906
80	0xbd5c7d7a	-0.0538306
81	0x3ccaacbd	0.024740571
82	0x3cfb2b3b	0.030660262
83	0xbe3ee4de	-0.18641993
84	0xbe6e8137	-0.23291479
85	0x3dedd637	0.11613124
86	0x3e54c2dd	0.2077746
87	0x3e2b4b5a	0.16727963
88	0xbdd6acb2	-0.10482158
89	0xbd87f21d	-0.06637976
90	0xbe40dd16	-0.18834338
91	0x3e45d2aa	0.19318643
92	0xbe185f8a	-0.14880195
93	0x3c3117d1	0.010808901
94	0xbdbdf260	-0.09274745
95	0xbe3169bf	-0.17325495
96	0xbc69cbf3	-0.014269817
97	0x3d4ec0c9	0.050476823
98	0x3e928f7e	0.286251
99	0x3d18377a	0.03716228
100	0xbdb43084	-0.08798316
101	0x3d9d9751	0.07694877
102	0xbe002330	-0.12513423
103	0x3d3a26bc	0.045447096
104	0xbdff205e	-0.124573454
105	0x3dfbc4f8	0.12293428
106	0x3e9733a7	0.29531595
107	0x3c2401e9	0.010010221
108	0x3e818290	0.25294924
109	0x3df2c5f8	0.11854166
110	0x3d854078	0.06506437
111	0xbe079ac6	-0.13242635
112	0x3caa30c0	0.020775199
113	0x3dc68f44	0.096952945
114	0x3b76d0f8	0.0037661176
115	0xbdbff228	-0.093723595
116	0xbe32aa16	-0.17447695
117	0xbb44596f	-0.0029960533
118	0x3e000ba4	0.1250444
119	0x3e1163fe	0.141983
120	0xba869701	-0.0010268391
121	0xbe084d26	-0.1331068
122	0x3d6c3853	0.057670902
123	0xbe150552	-0.14552811
124	0x3e11d47a	0.1424121
125	0xbc98e224	-0.01866252
126	0x3f178795	0.59191257
127	0xbe192ae0	-0.14957762
128	0x3a472417	0.00075966254
129	0x3d84afff	0.06478881
130	0x3e7a0f7b	0.24419968
131	0xbd19cf3c	-0.03755115
132	0x3d5c440e	0.05377584
133	0x3e8e179a	0.27752382
134	0xbe2040ff	-0.15649794
135	0xbe2cbd84	-0.1686917
136	0x3e214ece	0.15752718
137	0xbca39de8	-0.019972757
138	0xbe1df603	-0.15425877
139	0x3d971766	0.0737751
140	0xbe02e8b3	-0.1278408
141	0x3e46559c	0.19368595
142	0x3e9f958e	0.3116879
143	0x3d936310	0.07196629
144	0xbe00d760	-0.12582159
145	0x3d276ff9	0.04087827
146	0xbe642176	-0.2227839
147	0x3e819543	0.2530919
148	0x3ec5d921	0.3864222
149	0x3c1d5b08	0.009604223
150	0xb9d8db0c	-0.00041361933
151	0xbe8b8a20	-0.2725382
152	0x3c0bf600	0.008542538
153	0xbdd2d6a9	-0.102948494
154	0xbe55bc7e	-0.20872685
155	0xbe58a676	-0.2115725
156	0x3e4805fe	0.19533536
157	0x3cb1421f	0.021637974
158	0xbe700617	-0.23439823
159	0xbde1b05d	-0.11019967
160	0x3e8a3b26	0.26998252
161	0xbe22114a	-0.15826908
162	0xbe926d0b	-0.28598818
163	0x3df03c2e	0.11730228
164	0x3e1c6dc5	0.15276249
165	0xbd662d3c	-0.056195483
166	0xbddb7736	-0.10716097
167	0xbe260140	-0.16211414
168	0x3d0b9dd1	0.034086052
169	0xbe43ea9e	-0.19132468
170	0xb8604288	-5.3467724e-05
171	0xbebb5355	-0.36587015
172	0xbd6bbdbb	-0.057553988
173	0xbe70c68c	-0.2351324
174	0xbe13a67e	-0.1441898
175	0xbe8adef1	-0.27123216
176	0xbdd01c4a	-0.10161646
177	0xbe4b08f3	-0.19827633
178	0xbdadc4de	-0.08484815
179	0x3cabf38d	0.020990157
180	0xbb984101	-0.004646421
181	0x3db78bab	0.089621864
182	0x3e0a6523	0.13515143
183	0xbe1127cb	-0.14175336
184	0x3d8d16d5	0.068891205
185	0x3e1636c5	0.1466933
186	0x3df1f446	0.118141696
187	0xbca18606	-0.019717228
188	0xbe068102	-0.1313515
189	0x3c0bceca	0.008533189
190	0x3e35c531	0.17751004
191	0xbe6343e6	-0.2219387
192	0xbc928fd5	-0.01789085
193	0x3e9b7082	0.30359274
194	0xbea47c19	-0.3212593
195	0xbb5de514	-0.0033858465
196	0xbe40ee77	-0.18840967
197	0xbd246a99	-0.040140722
198	0x3e14542d	0.14485236
199	0xbdb21133	-0.08694687
200	0xbc9d841b	-0.019228032
201	0xbdb94ed6	-0.0904824
202	0x3d921b32	0.07134093
203	0xbd85f9ef	-0.06541812
204	0x3e0feb68	0.14054644
205	0xbdb20854	-0.08692995
206	0x3e014345	0.12623318
207	0xbdb0d0fd	-0.08633611
208	0x3df6b8ea	0.12046988
209	0xbe3cae02	-0.18425754
210	0xbdb32e58	-0.08749074
211	0x3dfb2d04	0.122644454
212	0x3dbf7491	0.09348405
213	0xbd79afb0	-0.060958564
214	0xbdae434c	-0.085089296
215	0xbb724e27	-0.0036972852
216	0x3ec74286	0.3891794
217	0xbd83fa4f	-0.06444227
218	0xbe6479f8	-0.22312152
219	0x3dbdbb7d	0.09264276
220	0x3edd44a4	0.4321643
221	0xbe954be9	-0.29159477
222	0x3e482432	0.19545057
223	0x3e48003e	0.19531342
224	0xbe98c30e	-0.29836315
225	0x3c2e4425	0.010636364
226	0xbe42dca1	-0.19029476
227	0x3e4cb1f4	0.19989759
228	0x3de8d514	0.113687664
229	0xbdad3819	-0.084579654
230	0x3e1221d9	0.14270724
231	0x3ddd59e1	0.10808159
232	0xbcb21959	-0.021740602
233	0x3e63eff1	0.22259499
234	0x3bbf3f93	0.005836436
235	0x3ee3839d	0.4443635
236	0xbe20b366	-0.15693435
237	0xbc285d61	-0.0102761695
238	0xbdb2319d	-0.08700869
239	0x3f0ccc21	0.54998976
240	0x3e37af8b	0.17938058
241	0x3e6f042f	0.2334144
242	0x3e65ff62	0.22460702
243	0xbecc97e3	-0.3995963
244	0x3cfa7eda	0.030578066
245	0x3ca164ec	0.019701444
246	0xbe0b3ebb	-0.13598149
247	0xbcff7034	-0.031181432
248	0xbeb77808	-0.35833764
249	0xbeeb4698	-0.45952296
250	0xbc26b54a	-0.010175059
251	0x3ea5318f	0.32264373
252	0x3e47095e	0.19437167
253	0x3ddbe72c	0.10737452
254	0xbea305b8	-0.318403
255	0x3daea212	0.08527006

module.graph_layers.2.mlp_upd.0.bias f4 [32]
0	0xbe27ddfe	-0.16393277
1	0xbca52216	-0.020157855
2	0x3c8e1e10	0.01734832
3	0xbe6ca30a	-0.2310907
4	0x3e88a20b	0.2668613
5	0xbdb66e68	-0.08907777
6	0xbdbf523f	-0.09341859
7	0x3d3439c7	0.044000413
8	0x3d12a98b	0.03580622
9	0x3c19e3a1	0.00939265
10	0xbd8e24f4	-0.06940642
11	0xbdc9de57	-0.09856861
12	0x3dbb4a10	0.09144986
13	0x3d43b652	0.047781296
14	0xbe2da2e7	-0.16956674
15	0xbe1c3658	-0.15255105
16	0x3c95ee3f	0.018302081
17	0x3e80e4e4	0.2517463
18	0xbdd780bf	-0.10522603
19	0xbe1d2f67	-0.15350114
20	0xbce67c16	-0.02813534
21	0x3c0ed1ed	0.008717042
22	0x3d9c48d2	0.07631077
23	0x3d4ecf9f	0.05049097
24	0xbd5c2c28	-0.05375305
25	0x3c6b9a81	0.014380098
26	0xbdf8b624	-0.121441156
27	0x3dec74ea	0.11545737
28	0xbdecf888	-0.11570841
29	0xbaf1f4cb	-0.0018459795
30	0x3df3dd79	0.11907477
31	0xbcac3bc7	-0.021024598
